advantage_v2deep_q_model.pt (torch, 65167 bytes, 11 tensors)

hidden_fc.weight f4 [64, 37]
00000000: 7dab 0ebe ce4c c03d e957 fa3d 951a 573d
00000010: 3248 0d3d d942 163d 33f1 a3bd 4a68 04be
00000020: 81af f2bd 0528 473e 4355 6abd 3224 c93d
00000030: 18fa 8f3c 1390 b5bd edd6 dbbe a82f 743e
00000040: a12b 7cbe 961d c73d c405 29be 7e71 19bf
00000050: 5492 023e 44c8 c33d 79c1 2e3e 0032 e13b
00000060: 4feb 3cbe 57be 1b3e e74b 5dbe 6451 47be
00000070: 577e ff3d 252e 853e beb6 fdbd f30b 53be
00000080: 894d 1abe 577e 2cbd cd2b 8cbd 093e 263d
00000090: 5683 ac3c 6769 2a3e b264 013e a8e1 a03d
000000a0: 9a6a 2b3e 3c9d 9d3d 1f1a cbbc ca48 f03c
000000b0: d01c 063e 653b 1b3e cdaf 043d d118 08bb
000000c0: 3857 873d 3feb 343d ad11 6139 9ab1 283d
000000d0: ad22 913e 947a efbe d651 f7be 8c36 20bf
000000e0: 4b5c 0ac0 5a33 41ba f581 923d 19a7 113e
000000f0: dfa2 9a3d 97be aa3d 4df0 3439 3f22 9c3d
00000100: 897d b83d 25be 293e 2ebb 663d ed59 02be
00000110: 69f7 86bd 651a 6dbd deb4 023d cdef 8d3d
00000120: 7ecf 9bbb 21a6 ffbb e5b5 5bbe 19a4 a2b9
00000130: 8e12 1a3d 3010 60be 97ff a53e b9e5 89be
00000140: e6d9 debc 0c84 32be e867 083e 4bf9 b63d
00000150: 1780 f0bd 9b7a 443d d042 bebd e3df 3b3e
00000160: 6ee0 7c3e 8c85 a93e 82f5 8dbd bc80 4dbe
00000170: 4ff8 9ebe 3ece 94bf 8c5f 343d ef0f 13be
00000180: 715e 9bbd f986 913e a9b6 803d 396a bfbb
00000190: f499 05be 9dc8 7bbd ca31 efbb 7bf7 0e3e
000001a0: b0fb 14bd 81a8 743d 14b1 59bd b0ae b8bd
000001b0: a6f8 5e3e 6d57 523d 6597 303b 8b82 f4bd
000001c0: 9f69 b5bd ab0c 82be 9c13 e3bd 1be9 bc3d
000001d0: 0dd4 3dbe fda5 28be 7761 08bd d425 32bc
000001e0: aa22 983e 927c 90be 492a 80be 9421 95be
000001f0: 6e9e 52be bbbd bd3d 2051 e0bd c1f6 593d
00000200: 5198 d5bd d3e0 9fbe dc16 f7bd d7a9 a2bd
00000210: 33ac e8bd 8e1c c6bd 5943 6bbe 9212 81bd
00000220: 476b 45be 9147 3bbe 1a2b 51be 1166 6abe
00000230: 0d17 a83c 0b3b f6bd a2af 58be 9c1d c6bd
00000240: 76d7 01be dfc1 94bd 8707 b23d 7d0a 273e
00000250: ef6c 70bc 1aca 953c cab6 8c3d 9ba4 6f3e
00000260: 1245 ad3e d58e 03be 2381 453d c4e9 b73b
00000270: ce0b b9bb 6a51 303d 37b1 2b3e 142b aabd
00000280: b8d4 f0be c2ec 1ebf 80c9 e3bf 8774 de3d
00000290: 1bf3 983d fb53 603d 06aa d2bd b23c 81be
000002a0: b450 04bc 9e7b 10bd 06b5 8a3d d3ae 323d
000002b0: 9093 383e f1ee e3bc b2df debb b1c0 aa3d
000002c0: b9b9 be3d 1b94 243e 6735 a7bc 86bd 96bc
000002d0: e8ac b93c 324d b8bd b4fd dc3b acc2 293d
000002e0: 8eb0 863b d9e5 bc3d 4858 ba3d a5d5 1b3b
000002f0: ad6d 0c3e a3d2 bc3d a82b ca3e ef18 f4be
00000300: 452b 26be e21c 08bf cb06 a9bf f07a 9c3c
00000310: e7b6 943d 9fe0 643d ec02 32bd a1e8 2ebe
00000320: b814 003e 87d0 263e 6ca9 c53d cf6b e63d
00000330: cdf9 17be 6632 d83b 030d 14bb 59bd 1d3d
00000340: 42bb f53d 959c ec3c 426e b73d d359 be3d
00000350: 01c8 a13d 017a 433e 0082 9d3d 82af 3d3e
00000360: 20cf 1b3e 627e dd3d ab5d d83d f9d7 62bd
00000370: ddfb 8dbb 2e42 cabc bb23 ecbd 45c9 3fbe
00000380: 808e 09bd 4e4d e6bd b583 913d 8206 9dbe
00000390: 195e 9bbe 4ce7 3c3e cf43 643e f881 b83e
000003a0: 5a3b cfbd 3298 143c 0991 9abd dcd4 8d3d
000003b0: 5ad0 bc3d c611 c3ba 0578 70be 852a 023e
000003c0: abf3 833e b17c ca3e 7a1c 053d 1671 e33d
000003d0: 498e f6bd c42f a6bb dd92 9f3c e87c 003e
000003e0: af9e 4b3e d3b8 333e b073 92be bdaa 77bf
000003f0: 4c5f 3cbe 4bdb ccbe 9c04 2b3d cad3 a5be
-0.13932605 0.09389649 0.12223799 0.052515585 0.03449268 0.036684845 -0.080049895 -0.12930408
-0.11849881 0.1944886 -0.05721022 0.09821357 0.017575309 -0.088653706 -0.42937413 0.23846304
-0.24626018 0.0972244 -0.16506106 -0.599388 0.12751132 0.09559682 0.17065991 0.0068724155
-0.18449138 0.15209328 -0.21610986 -0.19464642 0.12475269 0.26011768 -0.12388371 -0.20610027
-0.1506864 -0.042112675 -0.06844292 0.040586505 0.02105872 0.1664177 0.12636068 0.078555405
0.16739884 0.07696006 -0.024792729 0.029331584 0.13096929 0.15159376 0.03239422 -0.0020766745
0.066084325 0.04416966 0.00021464257 0.041185 0.28346768 -0.46773207 -0.48304623 -0.6258323
-2.161883 -0.00073700177 0.071536936 0.14223899 0.075505964 0.083371334 0.00017255657 0.076237194
0.09008319 0.1657644 0.056330852 -0.12729616 -0.065901585 -0.0578865 0.03191077 0.06930504
-0.0047549596 -0.0078017865 -0.21456106 -0.0003102131 0.03761535 -0.21881175 0.32421562 -0.26933077
-0.027203511 -0.17433184 0.13320887 0.089342676 -0.11743181 0.04796849 -0.09290087 0.18347125
0.24694988 0.331097 -0.069315925 -0.2006864 -0.3104882 -1.162544 0.044036433 -0.14361547
-0.07586373 0.28423288 0.0628484 -0.00584152 -0.1304701 -0.061470617 -0.0072996365 0.13961594
-0.03637284 0.05973101 -0.05314739 -0.09017694 0.2177454 0.051352907 0.0026945707 -0.119389616
-0.08858036 -0.2540029 -0.110877246 0.09224149 -0.18537922 -0.1646957 -0.033296075 -0.010873277
0.29713947 -0.2822004 -0.2503226 -0.2912718 -0.20568249 0.09264704 -0.10952973 0.05321384
-0.10429443 -0.31226215 -0.12064907 -0.07942551 -0.113609694 -0.09673415 -0.2297491 -0.0630237
-0.19279204 -0.18289019 -0.20426598 -0.22890498 0.020518804 -0.1202298 -0.21160749 -0.09673616
-0.12679848 -0.072635405 0.08692842 0.16312595 -0.014674409 0.018284846 0.06870802 0.23402636
0.3384176 -0.12847455 0.048218857 0.005612584 -0.005647159 0.043046393 0.16766821 -0.08308998
-0.47037292 -0.62080014 -1.7795868 0.108620696 0.07468244 0.05476759 -0.10286336 -0.2524162
-0.008075882 -0.03527414 0.06772809 0.043623757 0.1802504 -0.027823897 -0.006801569 0.08337534
0.093127675 0.16072123 -0.020411206 -0.018400919 0.022665456 -0.08999099 0.006744111 0.04144542
0.0041104024 0.092235275 0.090988696 0.0023778465 0.13713713 0.09219863 0.39486432 -0.47675273
-0.16227444 -0.5316907 -1.3205198 0.01910159 0.07261448 0.055878278 -0.043459818 -0.17080928
0.12507904 0.16290484 0.09651455 0.112510316 -0.14841385 0.006597805 -0.0022590763 0.038510654
0.11998607 0.028883258 0.08956577 0.09294476 0.07899476 0.1908951 0.07690811 0.18523982
0.1521573 0.10815121 0.10564741 -0.05538175 -0.004333003 -0.02468976 -0.115302525 -0.18729122
-0.033583164 -0.112452134 0.07105199 -0.30669028 -0.30345228 0.18447608 0.22291492 0.36036658
-0.10118742 0.009069489 -0.075471945 0.06925365 0.092194274 -0.0014882616 -0.23483284 0.12711532
0.2577184 0.39548257 0.03249786 0.11105554 -0.120388575 -0.005071612 0.01947921 0.12547648
0.19884752 0.17550974 -0.28603888 -0.967449 -0.18395728 -0.40011057 0.041752443 -0.32388145

hidden_fc.bias f4 [64]
00000000: c3d5 debc 515b 52bc f68b 17be 307a eabe
00000010: e24f c53d 3785 e23d 2ae1 e7bd ff93 18be
00000020: 2e4f 22be ff5d 58be 23f7 16be 1ed8 e23d
00000030: c357 a73d 81ab 8dbd f7c5 ccbd 456f d1bd
00000040: c403 883e 076a eebd a6f8 01bd a826 85be
00000050: 6a4f 4c3e 8935 85be 8882 0fbe f7da 123d
00000060: d72b 3f3e e60a 51be 7070 88bd a897 493d
00000070: 2430 12be b8a4 49bd f2cb 9ebd 5d32 bd3d
00000080: 9a86 fd3c 5f57 fc3d 34fc d33c c2c6 98bd
00000090: b6b5 e33d a8a3 1a3d 6be2 e43e 54e5 a2be
000000a0: 39ca bbbe fdee ac3e 5a0d f23c 38c7 b53d
000000b0: b558 89be eb17 10be 24cd 5dbe 447d 0bbe
000000c0: da69 933d 3313 84bd f3f3 9ebd 825c b3bc
000000d0: 58ec 593c 36e8 63be 38a2 53be a518 bb3e
000000e0: 2439 e13d 70ce efbd 7c88 a43d c0e1 e1bd
000000f0: 5187 453e 624d 63bc 3322 c13d 3461 4b3d
-0.027201539 -0.012839154 -0.14799485 -0.45796347 0.09634377 0.11060565 -0.113222435 -0.14900206
-0.15850517 -0.21129607 -0.14742713 0.11076377 0.08171036 -0.069174774 -0.09998696 -0.10226301
0.26565373 -0.11641317 -0.03173127 -0.26006055 0.19952169 -0.26017407 -0.14014637 0.035853352
0.18669067 -0.20414314 -0.06662071 0.049216896 -0.14276177 -0.049229354 -0.07753743 0.09238122
0.030947972 0.12321352 0.025877096 -0.07459785 0.11118643 0.03775373 0.44703993 -0.31815588
-0.3667772 0.33776084 0.029547382 0.088758886 -0.2682549 -0.14071624 -0.21660286 -0.13622004
0.07197924 -0.064489745 -0.07761373 -0.021894697 0.013300978 -0.2225655 -0.2066735 0.3654224
0.10997227 -0.11709297 0.08033845 -0.110293865 0.192899 -0.01387343 0.09430351 0.049653247

value_fc_hidden.weight f4 [64, 64]
00000000: 1b40 ae3d 1709 f3bd d419 7b3e a7a5 00bf
00000010: 80d1 88bd bef1 043d c0c4 c23c 4f12 023d
00000020: a7ab 133e 9e0d 69be bbb9 a0bc 71bc 123e
00000030: b914 dbbd 004a 91be d9bf 5ebe 8a7b c9bd
00000040: d52a 503e f0be 2b3e c0dd 023e c7dc 273e
00000050: e593 9f3e ab47 aebe c922 623e 66b7 853e
00000060: 637b cebe b71e 193e a37c b73d 83e7 783e
00000070: 4485 b7bc 9cca 463e 233c 723e 219d 4bbe
00000080: f52a cd3d 84bb 57be 44c7 a9be 3770 cfbe
00000090: 774f d0bd f045 cabe 78d5 b9bd 8ae8 863d
000000a0: 8aaa 893d 6754 cb3d cf16 88be 023f 223d
000000b0: 3e09 98bd 9f72 5b3e 213f e53d 6de5 d0be
000000c0: 5ca4 fcbd b3f1 643d b5e2 51be 8cd0 f33d
000000d0: 5896 e33d f417 6d3e 8af6 9d3e c390 183e
000000e0: 51b9 c8be 0916 a53d 85dd 223e 242b 153e
000000f0: dae2 abbe 8c4f 573e c0a0 debc cff9 02be
00000100: 1b01 b33d fb56 1dbc 8392 c93d 7c06 b1b9
00000110: e34b efbd d0c0 8f3d 87dc 7a3d e637 eebd
00000120: f86c 283e 0d11 e8bd 2e31 babd 1dcb 673d
00000130: fd57 86bd 80dc ec3d a7c7 bdbd 3ec5 3eba
00000140: dda1 713e c983 0fbe b051 493d 85b1 5abe
00000150: 5d91 4e3d e8bc 953c b060 a43d 9d9c ca3d
00000160: ca7a 08bd 38f8 5cbd 7489 343d 1acd 7abd
00000170: 43ad da3d fd08 2cbc 9fe5 943d 6212 bebc
00000180: c95a bbbd cac0 933e 63d6 56bd abfd 0dbd
00000190: e032 553d 560a 493e d9ba 8b3e 1eba 523d
000001a0: 90e8 06be 9ee9 3c3e b011 193c 0c13 17bb
000001b0: 5274 fcbc 76ad a43d 653e f43d 6b66 abbd
000001c0: 548e ab3a a20e cebd c856 773d 8728 1c3d
000001d0: b124 b0bb c9ef b63d 01d6 bf3d 171e 2b3e
000001e0: b135 a03d ede5 92bc 71a3 8dbd 8fef 733d
000001f0: 3eb6 91bd b430 5c3b f7da babd 7c53 6e3d
00000200: ea61 c7bd 156d 71be e1ca a3bd ff56 bcbd
00000210: bf96 b43c 4f0b 18be ac94 8c3d 2daa a7bd
00000220: 51ba b63d eaa6 6bbd 1b2c 4bbd 8510 293f
00000230: abae 45bd cc78 003d 9e95 733c c706 c73d
00000240: 1802 73be e880 89be d2b2 6fbe d134 253e
00000250: 82d2 9abd 3c7b e43c 2e05 113e efbf e43d
00000260: 9eac c3bd 3682 c33d 6f03 553e c95f 8ebe
00000270: 18b7 e43d 2586 573d 8b34 3d3e 2a26 3cbd
00000280: ecf3 f6bd 9aa0 afbe 47da 26be 2dbd 5fbe
00000290: 1117 763d 49d5 2fbf 3338 f63d 9853 bb3c
000002a0: 65ed 26bd c7d4 15bd b6db bdbd c6e1 f6bd
000002b0: dd28 71bd 5dd8 e1bc 0361 1f3d f84d 063e
000002c0: d539 813d c3fa 9ebe 3805 cdbb c3eb ae3d
000002d0: 6552 583d 6a18 3ebd 0e5a 1dbe 9ae9 b1bd
000002e0: 0b9e 3abe d4ac cebd 103a 343d 1a59 4c3e
000002f0: bc0d 71bd ff18 9dbe ff20 30be f6f6 8ebd
00000300: 0271 07be 13d3 813e 5e74 793e 4474 7fbe
00000310: ba8b ddbd 6767 4a3d 95cc d83e 313f 46bd
00000320: cdf6 edbe 6124 80be 7d55 06bf a321 f2bd
00000330: 10f7 003e 1c14 223e b4b3 fbbe 2c6f 05be
00000340: e80b 29bc 5b1c 663c 4844 cabc 13fb 0bbf
00000350: fc87 473e 283e c93d 1704 e6bd 8fca b93d
00000360: f16a 4b3e 9c13 803e f144 843e 9af3 4f3e
00000370: 323b 0ebe 2f19 85be 1dbf 823e 9b00 07be
00000380: a7fc 553e 0aaa 58be d8d9 3dbe 51c8 74be
00000390: 30ec aabc 4b1f 09be 9c58 c43b 9997 3c3c
000003a0: 31d6 0dbe 62fe 1cbb f0e2 48be 018f a9be
000003b0: 3459 82be fab9 4f3e 6e83 b6be baaa 12be
000003c0: 2eaf 363e 41b8 04be b89d 22bf ddf1 ccbe
000003d0: 3b10 ff3d 6f94 843e 2eba fa3d 9320 9e3d
000003e0: 8146 05bf 6557 273e c5d3 533e 3635 c53d
000003f0: 2c5a 4cbd b3b2 81bd a070 b7be dd3e a2bb
0.08508321 -0.11866968 0.24521571 -0.50252765 -0.06680584 0.032457106 0.023775458 0.03175574
0.14420949 -0.22759101 -0.019619813 0.14329697 -0.10697312 -0.2837677 -0.21752872 -0.09838016
0.20328839 0.16772056 0.12779903 0.16392814 0.31167522 -0.34039053 0.22083582 0.26116484
-0.40328512 0.14953123 0.089593194 0.24307065 -0.022402413 0.19413227 0.23655753 -0.19884159
0.10017959 -0.21067625 -0.3315984 -0.405153 -0.10171407 -0.39506483 -0.09073919 0.06587322
0.06721981 0.09928208 -0.26579902 0.03961087 -0.07423638 0.21430443 0.111936815 -0.40800038
-0.123360366 0.055894565 -0.20496638 0.119050115 0.1111266 0.23153669 0.30852157 0.14898972
-0.39203885 0.080608435 0.15904815 0.14567238 -0.33571512 0.21026438 -0.027176261 -0.12790607
0.08740445 -0.009603257 0.09842398 -0.00033764902 -0.11684396 0.07019198 0.061245468 -0.116317555
0.16447818 -0.11331377 -0.090914115 0.05659019 -0.06559751 0.115654945 -0.09266596 -0.0007277316
0.23596902 -0.14015116 0.04915017 -0.21356781 0.050431598 0.018278554 0.08026254 0.09893153
-0.033320226 -0.053947657 0.044076398 -0.061230756 0.10677578 -0.01050019 0.07270359 -0.023202125
-0.09148175 0.28858024 -0.05245055 -0.034665745 0.05205047 0.19632849 0.2729099 0.051447026
-0.13174653 0.18448493 0.009342596 -0.0023052124 -0.030817185 0.080408975 0.11925963 -0.08369144
0.0013088682 -0.10061385 0.060385495 0.038124587 -0.0053754677 0.08932454 0.0936699 0.16710697
0.07822741 -0.017931903 -0.069159396 0.059554633 -0.07114838 0.0033598365 -0.091237955 0.058185086
-0.097354725 -0.23576768 -0.079976805 -0.09196281 0.022044538 -0.14848064 0.068642944 -0.08186755
0.08922256 -0.05753223 -0.04960261 0.6604083 -0.04826228 0.0313652 0.0148672145 0.097180896
-0.23731267 -0.2685616 -0.23408058 0.16133429 -0.075596824 0.027890794 0.14162132 0.11169421
-0.095544085 0.0954632 0.20802091 -0.27807453 0.11167735 0.052618165 0.18477075 -0.045934834
-0.12058243 -0.34302217 -0.16294204 -0.21849509 0.06008059 -0.6868482 0.12022438 0.022867009
-0.04075374 -0.036579873 -0.09270422 -0.120547816 -0.05887686 -0.02756899 0.038910877 0.1311568
0.06309859 -0.3105069 -0.0062567256 0.08541062 0.052812953 -0.04641 -0.15366384 -0.08687134
-0.18224351 -0.10091558 0.044000685 0.19955865 -0.05885099 -0.30683133 -0.17200087 -0.06980698
-0.13226703 0.2535635 0.24360797 -0.24946696 -0.10817666 0.04941502 0.42343584 -0.048400108
-0.46477357 -0.25027755 -0.52474195 -0.11822822 0.12594247 0.15827984 -0.4916054 -0.1303069
-0.01031778 0.014044846 -0.024690762 -0.54679984 0.19485468 0.098263085 -0.11231249 0.09071838
0.19865014 0.2501496 0.25833848 0.2030777 -0.13889769 -0.25995776 0.25536433 -0.13183825
0.2089716 -0.21158615 -0.18540132 -0.2390454 -0.020864576 -0.13390844 0.0059920084 0.011510753
-0.13851239 -0.0023955335 -0.1961782 -0.33116916 -0.25458682 0.20285788 -0.35647148 -0.1432294
0.17840263 -0.12960912 -0.6352191 -0.40028277 0.124542676 0.25894496 0.12242542 0.07721057
-0.52060705 0.16341932 0.20686252 0.0962929 -0.049890682 -0.06332912 -0.35828114 -0.0049513415

value_fc_hidden.bias f4 [64]
00000000: ad1b 63be 22cf 153f 7f39 f4bc 2c55 1dbe
00000010: 0e73 c7bd 986c ed3e b776 293f 8b5f 85be
00000020: 1e3c 12be 3796 853e 2f52 7e3c efca 6a3e
00000030: bc97 873e fb29 26be 1381 1cbe 8321 323f
00000040: 7681 57be 2e81 5dbd b09a 2d3f 0f24 6dbe
00000050: 9a0e 24bd 8619 963d 8971 f73e 30a8 27be
00000060: 0d32 93bd a41d 8bbe 1cc9 50be ebaa 2f3f
00000070: ba34 223e 6009 9f3e e5d3 8f3e 0ab9 d73e
00000080: 3377 783e 85e2 2e3f 6067 883e 9a7c 983d
00000090: 189b 253e fb6d 1f3f 28c4 e83c 2e2f ff3e
000000a0: 5a98 12be dafe 0cbe f37a 87be 96c8 6b3e
000000b0: d73c 15be 25ba a3bd 3f31 b13e d291 62be
000000c0: bae1 86be 83ad b4be 6941 e83d 9ac0 6b3e
000000d0: 59ec 473e dae3 eabd ed5d 2e3f cf3f 633e
000000e0: 26bd 03be 985f 563e 3f64 323f 9dd1 783c
000000f0: fb38 c5bd 89c1 61be 44b0 2f3d bdfc e53e
-0.22178526 0.58519185 -0.029812573 -0.15364522 -0.09738742 0.46371913 0.6619677 -0.26049456
-0.14280745 0.26091167 0.015522524 0.22928976 0.26482952 -0.16226952 -0.15283613 0.69582385
-0.21045479 -0.054078273 0.6781416 -0.23158287 -0.040052988 0.07329087 0.48328808 -0.16372752
-0.07187281 -0.27171052 -0.20389217 0.68620175 0.15840426 0.3106184 0.2809135 0.4213336
0.24264221 0.6831439 0.2664137 0.07445641 0.16172445 0.6227719 0.028413847 0.49840683
-0.1431593 -0.13769093 -0.2646099 0.23025736 -0.1457399 -0.079944886 0.34607884 -0.22125939
-0.2634409 -0.3528863 0.11340601 0.2302269 0.19523753 -0.114692405 0.6811207 0.2219231
-0.12865123 0.20934904 0.69684213 0.015186694 -0.09630009 -0.22046484 0.04289271 0.44919387

value_fc.weight f4 [1, 64]
00000000: 8ce6 11be 4610 3f3e 90c4 a53e d28f 3cbe
00000010: 0c7c c0bc 75a6 433e 6436 7c3e d3c3 e3bd
00000020: 3142 92bd 6fb2 1e3e 33b0 f13b 7ba5 1b3e
00000030: 0da5 4f3e 1948 7bbd 61e1 15be 9216 813e
00000040: dfed ccbe 7353 fdbb 5f56 873e 502b 4cbe
00000050: ecf4 85bc 0761 953d 9716 333e 6530 f4be
00000060: dccc b4bc 8efd 5cbe 49cc 1bbe 1f9d 8f3e
00000070: 2538 a23e 677f a33d ebda 043e 2576 013e
00000080: dcd6 ee3d 7d1e 7a3e e933 653e 43f2 a03e
00000090: 894a 343e 1ccc 473e d385 2c3c a69a 303e
000000a0: 526c 86bd 1aa0 9cbd 4573 16bf a383 1b3d
000000b0: 7f67 46bc 1a77 94be 6227 9f3d cbeb 81be
000000c0: 4c42 79be e465 debe 2988 5b3e 1724 883d
000000d0: c2ca 9a3d 42e5 15bf f138 813e eab6 a63d
000000e0: 9444 41be 40f1 7e3d 3e2c 933e 3755 17bd
000000f0: 8e23 02bc 778a aebe ef21 023e 12ea f73d
-0.14248103 0.18658552 0.32376528 -0.18414238 -0.02349665 0.19106467 0.24630123 -0.11121335
-0.07141531 0.15497755 0.007375741 0.15199845 0.20277806 -0.061348055 -0.14636756 0.25212532
-0.4002523 -0.007730895 0.26433083 -0.19938397 -0.01635214 0.07293897 0.17489086 -0.47693172
-0.02207034 -0.21581098 -0.15214647 0.2804956 0.3168346 0.079832844 0.12974136 0.12642725
0.11662075 0.24425693 0.22383083 0.3143483 0.17606558 0.19511455 0.010529953 0.17246494
-0.06563629 -0.076477244 -0.5876964 0.037967335 -0.012109636 -0.28997117 0.077711836 -0.25375208
-0.24341697 -0.4343711 0.2143866 0.066475086 0.07558204 -0.58552945 0.25238755 0.08140357
-0.18873817 0.062241793 0.28744692 -0.0369465 -0.007943047 -0.34090015 0.12708257 0.12105192

advantage_fc_hidden1.weight f4 [64, 64]
00000000: 8bdf 863d 4d60 20bc f5a7 a83e 8d79 843e
00000010: 9fd9 04be ef9f 1dbe de22 96bc f44b ddbd
00000020: 620d 193e 3dc3 793d 175d b63d 7e32 6dbe
00000030: f2b6 043d f023 a1bd 43bf d43d b943 903d
00000040: 5c56 9abd 55cf 62be 513c 043e bf48 f9be
00000050: 2de2 58bd e026 c5be 6619 d3bd e7d8 82bd
00000060: 10aa 1e3d 36f4 3abe d436 80bd 1a92 123c
00000070: 95fb c1be a2e2 89b8 643c 8a3c a7fe 903d
00000080: b4dc 96be 7761 05be 5714 5bbd be79 08be
00000090: 9602 debd 8dc3 733e c031 30bd 93e9 80be
000000a0: d837 df3d 553b adbe 4ad2 863d 26c7 9abe
000000b0: b1bc a43e c34c 6a3d c43f adbd fda3 6e3d
000000c0: ee9e c73d 8955 39be 1610 403e 1493 ecbc
000000d0: c90e 42be 5115 64be 2ad2 7dbe d310 493d
000000e0: be51 ffbd d77a 7b3d 4504 623d fe5a 86bd
000000f0: 078e a3bd 870a 0d3d 4953 373c 2193 b5bc
00000100: b490 5fbe 9559 e13d 2751 35bd f9ea 383d
00000110: 73a7 bdbd 9f29 943e 364f 5c3d 8483 14be
00000120: 5bca 1b3e ac0d 68be 68d2 1dbd e800 5dbe
00000130: 8bdc a73c 6b4a 0b3e 1578 ddbb 7dc9 06bc
00000140: 4c20 d6bd 7fb9 753c 0eff 7a3b 42f7 67be
00000150: 6094 9f3e 80a4 463e 7a52 1fbc 8a10 b03d
00000160: 2ecb 1e3e a2e9 703e f42c 513e fbd9 153e
00000170: 3eb1 723e 7ad1 d93e 24ce f23e 342b f2bd
00000180: 9e23 f0bd 100e 0f3f 25a7 bdbd eee0 193e
00000190: 4554 5abd 0411 32be 91f4 4ebe ef36 86bd
000001a0: 7e90 de3d f6ea d43d 045f acbe 47d6 f03d
000001b0: f52a 34be eb65 903e 560f 0b3e d9ac a43c
000001c0: bc24 373e 5d56 cd3e fbc7 e2be 1416 54be
000001d0: ae12 4fbe 8f59 e23e 844c 7a3d c54b a93d
000001e0: 4b54 403e 289e f3bd 5c3a 4d3d a1a7 013e
000001f0: 1003 a9bc 776a bb3d f724 14bd b00d 83bd
00000200: 9e25 6cbd d7f8 133e 63d6 da3b 1a02 983d
00000210: 6f39 0abe 409f 903c a38d 9bbd 0f05 b93d
00000220: 1288 abbe b96b 273e d7e1 143f 0109 7abf
00000230: ce85 a0be 61f4 363d d710 053e d629 05bf
00000240: 9b30 33bc 28e6 d03d 2f31 81bd a752 c03c
00000250: 2bc4 5bbc 7a70 3abc f7ff acbe b7e2 f83d
00000260: d0b9 f23a ce16 8a3c b1ce ca3d 3b1d b93d
00000270: 0f4d a23e 0918 2f3d a350 c83d 8d80 1b3e
00000280: 7480 343e 22f1 8a3e 3f7c d1bc 9e4f f8bd
00000290: 2e85 5c3e 6fce a4be 4944 05bd 624d 04be
000002a0: b836 293c 38b9 eabd b5a6 643e f457 0f3e
000002b0: ba8e 59be 721f 54bd d6f5 c13b de9d 69be
000002c0: 7b6d 953e 3ba3 7f3d 7f1a f1bc dfa4 4f3e
000002d0: f3e1 3fbc 46d4 e7be 6411 013d bb94 873e
000002e0: 8730 8e3d 94df c73d 7609 1b3d 4993 0dbe
000002f0: 9c12 1d3e a936 313e 7387 0b3e 8dae 4cbd
00000300: f260 5dbe a690 edbd ec3a 053e 1f6a a0be
00000310: b0a5 66be a2e9 383e d7fa 0dbe 6a73 86bd
00000320: 4986 adbc 5fc2 61be 335d b43d c228 393e
00000330: 5f86 30be 6fa5 d3bd c537 903d 1838 cdbc
00000340: 59de a93d 0583 df3d 1062 f03d a178 77be
00000350: 5622 963d e2c8 dfbd 7515 543e 790f 863e
00000360: 55ae 1d3e 9362 c73e 05cd 683d 8e24 10bd
00000370: d7ad 00be f286 6a3d 3b3c d7be 6a81 dabd
00000380: 798e d7bc a42a 9bbd 3dcc 36bb ee5b c83e
00000390: f2ca cd3d 879c 9bbe 9cf6 20be dc3c ff3e
000003a0: 2204 203e bc7a 40bd 9d3b 86be d082 e2bd
000003b0: 25d7 3ebc e380 9ebd abb6 02bf a3b5 a5bc
000003c0: 4a63 be3d 4690 6abd 137a f8bc a71d 86bd
000003d0: bae5 a7be 74f7 763e c611 39be f66e 313a
000003e0: 69bd 1f3e 71b3 3dbc d232 14be 0eb6 a13e
000003f0: 9ac5 9cbe 1450 1b3e 01ac 15bf d513 c7be
0.06585606 -0.009788585 0.3294064 0.25873986 -0.12973641 -0.15393041 -0.018327173 -0.108055025
0.14946511 0.06097721 0.08904474 -0.23163792 0.032401033 -0.07868183 0.10388043 0.07044167
-0.07536003 -0.22149403 0.12913634 -0.48688313 -0.052950073 -0.38506222 -0.10307579 -0.06389027
0.038736403 -0.18257222 -0.06260458 0.008945966 -0.37887254 -6.574883e-05 0.0168745 0.07079821
-0.29465258 -0.13025461 -0.053486194 -0.13327691 -0.10840337 0.23805065 -0.043016195 -0.25178203
0.10899323 -0.3383433 0.06583078 -0.30230063 0.3217521 0.057202112 -0.08459428 0.05826186
0.0974711 -0.18099035 0.18756136 -0.028878726 -0.18950953 -0.22273757 -0.24787202 0.04908831
-0.12466763 0.061396446 0.055179853 -0.06560324 -0.07986074 0.034433868 0.01118929 -0.022164883
-0.21832544 0.110034145 -0.044266846 0.045145962 -0.09260454 0.28938004 0.05378648 -0.14503294
0.15213911 -0.22661465 -0.038530737 -0.21582377 0.020490905 0.13602607 -0.0067586997 -0.0082267495
-0.10455379 0.014997839 0.0038298997 -0.22652915 0.3116789 0.1939869 -0.009724254 0.085969046
0.15507194 0.23526624 0.20427305 0.14633934 0.23700425 0.4254263 0.47422898 -0.118246466
-0.117255434 0.5588083 -0.09260396 0.1502721 -0.053303022 -0.17389303 -0.20210482 -0.065534465
0.108674034 0.10396378 -0.3366624 0.1175962 -0.17594512 0.28202757 0.13580069 0.020101951
0.17885107 0.40104952 -0.44293198 -0.20711547 -0.2022197 0.44208953 0.061108127 0.08266405
0.18782155 -0.118954 0.050104484 0.12661602 -0.020631343 0.09151166 -0.036168065 -0.06399095
-0.057653062 0.14450394 0.006678389 0.07422276 -0.13498472 0.017654061 -0.075953744 0.09034168
-0.3350225 0.16349687 0.58157104 -0.9766999 -0.31352085 0.04466665 0.12994705 -0.5201696
-0.010936881 0.10200149 -0.06308209 0.023476912 -0.013413469 -0.011379356 -0.33789036 0.121526174
0.0018518511 0.016856577 0.099027045 0.090387784 0.31699416 0.04274753 0.09781005 0.15185757
0.17627126 0.27137095 -0.02557194 -0.12124561 0.21535179 -0.32188746 -0.032535825 -0.12920144
0.010327987 -0.11461109 0.22329219 0.13998395 -0.21245852 -0.0517878 0.0059191985 -0.22814128
0.2918509 0.062411528 -0.02943158 0.20277737 -0.011711585 -0.4527914 0.031510726 0.2648066
0.069428496 0.09759441 0.03785082 -0.13825716 0.1533913 0.17306007 0.13625889 -0.049971152
-0.21619013 -0.11599855 0.13010758 -0.31330964 -0.22524142 0.18057874 -0.13865219 -0.06564982
-0.021182196 -0.22046803 0.08806839 0.18081954 -0.17238759 -0.10334288 0.07041887 -0.025051162
0.082943626 0.10913662 0.11737454 -0.2416711 0.07330768 -0.10926987 0.2071131 0.2618368
0.15398534 0.38942394 0.056836147 -0.03519111 -0.12566315 0.0572576 -0.4203814 -0.10669215
-0.026313053 -0.075764924 -0.0027892732 0.39132637 0.10048474 -0.30392858 -0.15719074 0.4985112
0.15626577 -0.04699205 -0.26217356 -0.11060107 -0.011647974 -0.07739427 -0.5105998 -0.020228213
0.09296282 -0.057266496 -0.030331647 -0.065486245 -0.32792455 0.24117833 -0.18073186 0.00067685486
0.15599598 -0.011578427 -0.14472511 0.3158421 -0.30619508 0.15167266 -0.5846558 -0.38882318

advantage_fc_hidden1.bias f4 [64]
00000000: 23c7 71be 84ab 09be c785 52be b1b1 0ebe
00000010: 7ad5 a1bd 28d7 d0bc b3a2 6f3c ec32 c6bc
00000020: 09d8 17bd 5c10 f73c 150f eebd 2915 a13d
00000030: 3a6f d5bb 547a 9ebd f283 11be 3ccd cbbd
00000040: 62ef 8f3a 3c03 81bc ec35 acbc 0b15 883d
00000050: e899 65bd 9046 e83d b33c e6bd 0173 863a
00000060: ad64 3fbe 294d 81be fbd5 e23d eabc adbd
00000070: 9f8b 06be e3e1 933d de7c c3bd e167 e5bc
00000080: ccc3 34be ee80 c2bc 80e4 1dbe 7555 afbd
00000090: 5068 bcbd f3ce 963c 20a7 31be 3da0 9cbc
000000a0: 2bb4 c43d 4e59 d9bc a7a6 09be 639b 2ebc
000000b0: 28e4 00bc d04b 673d e42f 2abe e0e5 44bd
000000c0: 9d8d edbd a62b a23c 20f5 febd 0a83 013c
000000d0: 98bf 09be 3b03 0fbd b32c 0b3d 33a5 76bd
000000e0: 0fa3 48bd 72f6 303d 932f 11be 917c 8a3d
000000f0: 1e94 e63c 833c c5bc a096 96b9 7589 81be
-0.23611121 -0.13444334 -0.20558845 -0.13934971 -0.079020455 -0.02549322 0.014626193 -0.024194203
-0.03707126 0.030159168 -0.116239704 0.07865364 -0.0065135034 -0.07738176 -0.1421049 -0.09951255
0.0010981376 -0.015748613 -0.021021806 0.06644639 -0.05605498 0.11341584 -0.11242046 0.0010257663
-0.18690749 -0.2525418 0.1107597 -0.08483298 -0.13139199 0.07220819 -0.09545301 -0.028003635
-0.17652816 -0.02374312 -0.15419197 -0.085612215 -0.091995835 0.018409228 -0.1734891 -0.019119376
0.09604677 -0.026531842 -0.13442479 -0.010657164 -0.007866897 0.056468785 -0.16619831 -0.04807079
-0.11599276 0.019796204 -0.12449098 0.007904777 -0.13451993 -0.03491519 0.033978175 -0.06021614
-0.04898363 0.04320378 -0.14178304 0.067620404 0.0281468 -0.024076706 -0.00028722454 -0.25300184

advantage_fc_hidden2.weight f4 [64, 64]
00000000: 54ce e0bd 9abe 353d 11e6 05bc c04e b2be
00000010: 307b a1be fdd7 673d a6aa 18bf 4452 3ebb
00000020: f274 42be bb9b 83bc 8ab2 04be f410 0cbf
00000030: 9a44 0e3e 0bce b93e a2e3 8ebc 28fa eabd
00000040: b6f4 383c 178d 0cbf 23eb 40be ed67 0abd
00000050: 2165 5abd fa3b bebd 7390 76bd 874c 813b
00000060: 878b 40be 2a64 96bd e4a1 8ebc 5b5c 39be
00000070: 6dcf 253d 75d6 01be 4b66 1dbd b68e 1b3a
00000080: b52a 52be e2ad 00be 4f3b 183e 7e46 b9bd
00000090: 5000 9e3d c555 2abe 1f84 06be 833b 313d
000000a0: d34d 08be 9218 7b3d 4537 ca3c bffc 5c3c
000000b0: 0a03 63be df35 efbe b263 4b3d ab9c 76be
000000c0: 4b55 ec3d 3b31 24be 628f 8bbe e7d6 71bd
000000d0: 97f7 873d 598f 863e e972 073c 5fb8 41bd
000000e0: 277a 5f3d ef8f 52be 402a f33d f336 20be
000000f0: 9fc7 c3be e9c0 1fbe b2f2 2abe 7cb9 70bc
00000100: 1b73 003f ea1f f3be a199 0dbf ee6c 2cbe
00000110: b57c a1bc 3064 b9bd ff5e a83e 28ce 563d
00000120: 3a91 32be c659 96bd 94a0 de3b 898f 6dbd
00000130: ab8e 623e 6811 b2bd 2b96 133d 9d73 11be
00000140: 50fc 11bd af3d f43d 4350 27bf 7c78 853e
00000150: 761b 72be 2bd8 febb 4036 0fbe be76 4e3d
00000160: 814d b6bd a64c 2fbe 2418 3fbe 3081 0bbf
00000170: ecba 953d e34a 253e 7e84 183e 2eda 73bb
00000180: 2789 f4be 8f71 a93e 8bfb 193f d862 a63e
00000190: 4d6f 02be f347 a5be f977 9cbd 98a1 18be
000001a0: 823a fbbd b091 f5bc cd4e 4fbe b5cb db3c
000001b0: b07f d2bd 65f5 ec3d 4b50 703d 3da1 bcbd
000001c0: af55 d7bc 8525 06be 3131 253c e6b2 62be
000001d0: 8bd0 77be bab2 6d3e 618d 5e3e 9d49 4d3e
000001e0: 18ee afbe 003a 5cbe 12e0 ea3e 5285 47bd
000001f0: 6812 a23e 1427 453e cc46 fabd 6bad f2bd
00000200: 66e2 843e c004 b3be c916 b4bd 9d67 2bbe
00000210: 7841 793d 4f97 43be c294 643d 6bd4 81be
00000220: b175 133d 58f5 03be 3f44 d53d 6a30 7e3e
00000230: 32f3 ad3e 1aa1 afbe f454 c8bd 2a41 663d
00000240: fa8e 623e 6e96 313e 224e 0a3e 8b1f dabd
00000250: b177 05be 8801 693e f076 e7bc 02fd b5bc
00000260: cc30 dcbe 9da2 eebd 0a97 b73e 8304 d0bd
00000270: 4e13 88be 3db2 bbbd 326d dfbe b133 bebd
00000280: e789 7c3e 4708 8fbe 8935 9b3e 2649 63be
00000290: 3e59 5c3d 92d8 36bd 71b6 bfbb c2c3 9ebe
000002a0: 0964 0ebf cad9 b7be d5f3 80bd 196e 91be
000002b0: 712a 9a3e 2b31 ffbd 62e4 ecbd 020a dc3d
000002c0: 83f1 92bd 291a b4be 469e 2dbe 8408 953e
000002d0: c1ba f23c 6a56 9c3e 548d 71be a414 b13d
000002e0: 1965 b23d f10d 80be f14d 3a3e 2faf 8a3e
000002f0: 64f1 d53d aa6d 2e3d 82c7 c9be e968 9f3d
00000300: 4129 3c3d 9778 cdbd 36e3 febd ef65 5b3e
00000310: 4dce 4abd 0cd4 1c3e 6673 a5bc 751e edbe
00000320: b635 afbd 598d 1a3e e3ed 713d 9482 5d3e
00000330: 91ab af3d 777a 1dbe d996 82be 5089 f23c
00000340: d33e 1a3a 340b 523e 3ba9 d6bc bc35 643d
00000350: 723d 29be 057b 8f3e 3dd5 603d 2c10 55bd
00000360: 0087 0e3e e027 663d eacd 48be 1f52 4e3d
00000370: c80e 8fbd d19a 72bc 7296 1dbe 4450 b5be
00000380: 029d 903d 9ffc 05be e144 c63e 63a3 863d
00000390: 5be2 393d 8879 0a3e 3c0c 89bd 9005 43bc
000003a0: af34 80be 0aa3 81be d285 843e f241 c7bd
000003b0: dd2b ad3c 86a8 273e 468c 3dbe 5833 cabd
000003c0: 6f3d 0dbe 1957 a53d abb9 383d a3fa c43d
000003d0: b879 99bd 689f 2f3e 2417 80be 8458 583d
000003e0: 10dd a1bd c08a f6be d1fb fc3d be04 a33e
000003f0: 842c 04be ff6e 50be a3dd 10bb 578b b23e
-0.10976854 0.044371225 -0.008172528 -0.34825706 -0.31539297 0.056602467 -0.5963539 -0.0029040733
-0.18989924 -0.016065469 -0.12958732 -0.5471337 0.13893357 0.3629001 -0.017442528 -0.11473495
0.011288812 -0.54902786 -0.18839698 -0.033790518 -0.0533191 -0.09288783 -0.06019635 0.0039458903
-0.18803225 -0.073433235 -0.01741118 -0.18101637 0.04048102 -0.12679465 -0.038427632 0.00059340463
-0.20524104 -0.12566331 0.14866374 -0.090466484 0.07714903 -0.16634281 -0.13136338 0.043269645
-0.13310938 0.06130273 0.024684558 0.013487994 -0.22169128 -0.46720788 0.049655624 -0.24083202
0.11539706 -0.16034405 -0.2725783 -0.059042837 0.06639021 0.2628124 0.008267143 -0.04729497
0.054559853 -0.20562719 0.11873293 -0.15645961 -0.38238236 -0.15600933 -0.16694143 -0.01469266
0.50175637 -0.47485286 -0.55312544 -0.16838428 -0.019712785 -0.090523124 0.32884976 0.0524427
-0.17438212 -0.07341342 0.0067940447 -0.057998214 0.22124736 -0.08694726 0.036031883 -0.14204259
-0.035641015 0.11925828 -0.65356845 0.26068485 -0.23643288 -0.007777234 -0.13985538 0.05040621
-0.089015014 -0.17119083 -0.18661553 -0.54494 0.07311043 0.16141848 0.14894292 -0.0037208903
-0.4776089 0.3309445 0.6014945 0.32497287 -0.1273777 -0.32281455 -0.076400705 -0.14905393
-0.12267019 -0.029976696 -0.20244904 0.026830534 -0.10278261 0.11570243 0.058670323 -0.09210441
-0.026285974 -0.1310025 0.010082529 -0.22138557 -0.24200647 0.2321271 0.2173362 0.20047612
-0.3436134 -0.215065 0.45874077 -0.04871113 0.31654668 0.19253188 -0.12220535 -0.11849483
0.25953978 -0.3496456 -0.087934084 -0.16738744 0.06085345 -0.19100688 0.05580593 -0.25357375
0.03600091 -0.1288656 0.104134075 0.24823156 0.33974606 -0.34302598 -0.097818285 0.05621449
0.22124854 0.1734254 0.13506368 -0.106505476 -0.1303394 0.2275449 -0.028254956 -0.02221537
-0.4300598 -0.1165211 0.3585742 -0.101571105 -0.26577228 -0.09164856 -0.43637997 -0.09287203
0.2466198 -0.27936003 0.30314282 -0.22195873 0.053796045 -0.04464013 -0.005850606 -0.31008726
-0.5562139 -0.35908347 -0.06296507 -0.2840431 0.30110505 -0.1246055 -0.11566998 0.10744096
-0.07174971 -0.3517621 -0.16954908 0.2910806 0.029630067 0.3053468 -0.23589069 0.08646515
0.08710689 -0.25010636 0.18193795 0.2708678 0.10446432 0.042585053 -0.39410025 0.07783682
0.04593778 -0.10032766 -0.12445681 0.21425603 -0.04951315 0.15315264 -0.020196628 -0.463123
-0.085551664 0.15092982 0.059064757 0.21631843 0.085776456 -0.15378748 -0.25505713 0.029606491
0.00058839953 0.20512086 -0.026203742 0.055715308 -0.16527346 0.28023544 0.05489086 -0.052017376
0.13918686 0.05619037 -0.196098 0.050371286 -0.06985241 -0.014807419 -0.15389422 -0.354128
0.07061197 -0.13084649 0.38724425 0.06574132 0.045381885 0.13522923 -0.06691787 -0.011903182
-0.25040194 -0.253197 0.25883347 -0.09729375 0.02113908 0.1637288 -0.18510541 -0.09873074
-0.13792966 0.08073253 0.04509894 0.09618118 -0.07493919 0.17150652 -0.25017655 0.05281879
-0.079034925 -0.48152733 0.12352718 0.31839556 -0.12907606 -0.20354842 -0.0022104762 0.34871933

advantage_fc_hidden2.bias f4 [64]
00000000: be7f 833d f8ac 10be 7092 c43a e775 863d
00000010: c46e 16be 1138 a23d 6e0e 2c3c df70 92be
00000020: 121a cb3d f27d 39be 83f4 02be 5c03 c43c
00000030: 14b2 623d 09c3 babc 2749 983d 3538 f93d
00000040: b0a7 32be 2700 d7bd 341c 313b cd7a 1bbe
00000050: 2a31 a1bd b056 0d3e 0ca4 16be dc99 aebc
00000060: e3a1 4cbe 32dd 82be e8a1 db3d 68e7 3fbe
00000070: 7466 1f3d 2a7b 6cbd 6abc 353e ebda 143e
00000080: aa2a 6e3d 23c6 c9bd b44a 8abe 0beb 9cbd
00000090: 55d8 10be 6fe9 013d 8c13 533b 9206 5dbe
000000a0: b23e ed3d 9c92 7dbe 93c7 db3c 7f58 cbbd
000000b0: 7066 14be 6d8e c1be fc09 bfbc 548c 5ebe
000000c0: 8414 88be 62b5 06bb c409 3dbd d535 06bc
000000d0: 06f5 43be ee5b c6bd 2ce0 ccbd fdda 80be
000000e0: 3593 f9bd 8d4e c03d 5935 45be 85a7 f43d
000000f0: 57ac ba3d d1ba 4dbe 691e 27bd 6998 dcbd
0.06420849 -0.14128482 0.0014997255 0.06565457 -0.14690691 0.0792085 0.010501487 -0.2860174
0.09917082 -0.1811445 -0.12788586 0.023927383 0.05534561 -0.022798078 0.07435828 0.12168924
-0.1744678 -0.10498076 0.0027024867 -0.15183564 -0.078707054 0.138026 -0.14711016 -0.0213136
-0.1998363 -0.25559384 0.107242405 -0.18740618 0.038916066 -0.057734646 0.17747656 0.14536636
0.058146156 -0.09852245 -0.2701012 -0.076620184 -0.14145024 0.03171676 0.0032207696 -0.21584538
0.11584224 -0.24762958 0.026828563 -0.09928989 -0.14492202 -0.37803975 -0.02332019 -0.21733218
-0.26578152 -0.002055489 -0.04615189 -0.0081915455 -0.19136438 -0.09685503 -0.10003695 -0.25167075
-0.12186281 0.09389982 -0.19258632 0.11946014 0.091149025 -0.20090796 -0.040800486 -0.107712574

advantage_fc.weight f4 [4, 64]
00000000: 6f31 77be 04bb 04bf e390 33be b8cc f1bd
00000010: 4ae2 c03b 1be1 48bd 806e 46be eb0f 56bb
00000020: a9b4 563d 0418 c23e 1d5a f53d 7cb8 3bbe
00000030: fe23 ecbc a447 2e3d 02f2 173d fe0e cdbe
00000040: 1e95 c03d e4f1 64be 1ee3 d13d c522 dc3d
00000050: 71f5 21bd 8a32 b7bd f313 7ebd 55e0 943e
00000060: 1ecc 4c3e 89d1 df3d 7bbf 2bbe 153c b5bd
00000070: e287 2e3e 41ed 243d ceab 02be 5590 d2bd
00000080: 6800 bd3d e9d4 ac3e 8054 c4be 12ef c7bd
00000090: 1ed0 df3e 59f1 7a3c 3f73 22be 37d0 5cbc
000000a0: a6f8 ddbd f9b9 493e f6f3 903d 79e7 2e3e
000000b0: d5b5 773e 3e88 8c3e 4c22 bcbc a653 393e
000000c0: ea64 05be 6f33 d4bb 0ab9 973d fe0e 81be
000000d0: cf99 d6bc ad55 6c3e 5d21 f73d ca1c 103e
000000e0: 5707 da3e 0f99 0b3d a691 f43d b5d1 e53d
000000f0: 1376 c0bd d0cf 093e b336 8abc 8b76 d5bd
00000100: 0a1c e3bd 9e69 17bf 2a2e 463e 0206 33be
00000110: 691f ebbc b577 2a3d e919 98bd 5187 31be
00000120: 55f1 603e 2f33 9c3d 6689 dfbd 8281 17be
00000130: c2e5 15be 2ab6 0fbe 1931 d3bd 6d1c eabd
00000140: 3537 da3d 1a58 3bbe fba5 483d 37c3 083e
00000150: 239d 18bd 98d2 cbbd 41a8 aa3d 6f16 1b3f
00000160: bc1d 123e e176 90be a7fe 4b3b f2c1 1a3d
00000170: 9d4d 72bc 3101 01be 4bc2 6cbe b864 09be
00000180: 2643 8439 6c86 9dbe 564e d5be 8f3d 60bd
00000190: 2b41 89bc e0f9 38bc b46d 293e ef37 2a3e
000001a0: 9bd4 9bbd d57f dd3d 28a6 b4bd 59a2 1b3d
000001b0: f86b 0abd 1a3d c83d 211c 08be d595 493e
000001c0: 7da6 143f be2b 2e3e 8e89 023e d279 6abe
000001d0: 9a90 123f 93ad 1cbc 5777 493e 3c01 383e
000001e0: 9070 683c 56dd 8abd 81aa b2be 62ce e73d
000001f0: c165 78be 7648 fa3d 062f 21be 61e3 b5bd
00000200: c398 a6be baed 573f 110e 52be 4f62 0f3d
00000210: 3adf e23e 5747 42be 6825 d1be f35f 38bf
00000220: 5e6c 673e 1cbc dfbb f25f efbd e7f3 f8bb
00000230: bdd6 143f 31de 41bc 53c6 b2be 4bc4 1f3d
00000240: ff40 39bd f7cf 51be e36b 833e ed2d c43d
00000250: 7ed0 b03c ed18 1b3e e9ef 673d d8ea 0a3f
00000260: 65a0 36bd a856 523e bb79 233d d6b0 86be
00000270: 51a5 cdbd 4b6f d63e 7a2b 823e fbfc 88bd
00000280: f0ff aebd d397 0bbc 97cf a13d 221c d53e
00000290: 3594 19be 9715 88bd 764e a73d 4ed9 bd3d
000002a0: fc5a 3a3d 2db4 813e ab31 073d 8e3a b63c
000002b0: 616f bb3d b146 d83e 3546 103e 29da d13d
000002c0: c69e 573e 0cba 58be 6873 31bd 59fc 09be
000002d0: fd3e 293e 878c 2dbc 517b 9cbc 844c c53e
000002e0: ba03 2d3e ce40 fbbd d3ee 8c3e a962 bcbd
000002f0: 394a 84be 037f 0bbe 1f21 893e 1a6e b73d
00000300: 6b41 48be 088a 03bf d6b4 90be 53f5 983b
00000310: f81a b13e f68d 46be 6366 ddbd 8a5c 38bf
00000320: de0a 97be b2df f2be 0922 4cbd c5ff 32be
00000330: 0dbe e43e ea4d 20be 8c95 46be 4043 25be
00000340: 9041 cc3d d3f2 f5bb 7b17 4b3e 32ea b6bb
00000350: 11ed fd3d 4067 13be 61b2 bc3d eb3e e4bd
00000360: f040 c4bd ff87 5e3e 3a97 7c3d 5111 033f
00000370: a33d 2abe 59f0 faba a809 a0be fb81 563e
00000380: a7da b83d 1311 2abe 2018 50be 7eb9 30be
00000390: a57c 6c3e 7144 833e c008 723e c123 95be
000003a0: 5db1 cf3b 21b1 84bd a5f7 503e d67b 7b3b
000003b0: fbfb 353e 0e6e bf3e 5ced 5d3e 63be 28bc
000003c0: 1fc1 3d3e 1caa 013e d28a abbd 7c86 4ebe
000003d0: 28e9 033d 100a a73d a56b 613e edfe a63c
000003e0: a901 a93d 695e ad3e 07fa 363e a0e2 f1bd
000003f0: 5af6 343e 8686 8f3e c791 bc3c 71b8 6ebd
-0.24139951 -0.51847863 -0.17535739 -0.11806625 0.0058863508 -0.049042802 -0.1937809 -0.0032663296
0.052418385 0.37908947 0.11980078 -0.18332094 -0.028825756 0.04254879 0.03709603 -0.400505
0.09403442 -0.22357899 0.10248397 0.10748819 -0.03954071 -0.089451864 -0.062030744 0.29077402
0.1999974 0.109286375 -0.16772263 -0.0884935 0.17044023 0.040265325 -0.12760851 -0.102814354
0.09228593 0.33756188 -0.38345718 -0.09762396 0.43713468 0.015316331 -0.15864275 -0.013477377
-0.108384416 0.19699849 0.07077782 0.17080487 0.24190457 0.27447695 -0.022965573 0.18098316
-0.13026777 -0.006475858 0.0740834 -0.2520675 -0.026196389 0.23079558 0.120669104 0.14073482
0.42583725 0.034081515 0.11941843 0.11221639 -0.09397521 0.1345818 -0.016871786 -0.10423001
-0.110893324 -0.59145534 0.19353548 -0.1748276 -0.028701501 0.041618068 -0.07426817 -0.17336775
0.21967061 0.0762695 -0.109148785 -0.14795497 -0.14638427 -0.14034334 -0.10312099 -0.11431203
0.10655061 -0.18295327 0.048986416 0.13355719 -0.037259232 -0.09952277 0.08332873 0.60581106
0.14269155 -0.28215697 0.0031127126 0.037782617 -0.014789012 -0.1259811 -0.23120992 -0.13417327
0.0002522703 -0.30766618 -0.41661328 -0.054746207 -0.016754707 -0.011290044 0.16545755 0.166229
-0.07608911 0.10815398 -0.08820754 0.037996624 -0.033794373 0.09777279 -0.1329198 0.19686063
0.5806654 0.17008874 0.12747785 -0.22898033 0.57251894 -0.009562868 0.19674431 0.17969221
0.014186993 -0.06780498 -0.3489571 0.11318661 -0.24257566 0.12220852 -0.15740594 -0.0888126
-0.32538423 0.84347117 -0.20513178 0.035005864 0.44310933 -0.18972526 -0.4084885 -0.72021407
0.22599933 -0.0068278443 -0.11688222 -0.007597435 0.58140165 -0.01183276 -0.34916934 0.03900556
-0.045228 -0.20489489 0.2566825 0.09579072 0.021583792 0.15146227 0.05662528 0.54264593
-0.044586558 0.20540869 0.039911013 -0.2630679 -0.10041297 0.41881785 0.25423795 -0.06688877
-0.0854491 -0.008520084 0.07900923 0.41623026 -0.14997943 -0.06644743 0.08169262 0.09269963
0.045496926 0.25332776 0.03300635 0.022244718 0.09152103 0.42241433 0.14089282 0.10246689
0.21056661 -0.21164721 -0.04332295 -0.13475169 0.16527934 -0.010592586 -0.01910177 0.3853494
0.16895953 -0.1226822 0.27525958 -0.091985054 -0.25837877 -0.1362267 0.26783082 0.08956547
-0.19556205 -0.51382494 -0.28262967 0.004667917 0.34590888 -0.19390091 -0.10810544 -0.72016203
-0.29500479 -0.4743629 -0.049837146 -0.17480381 0.44676247 -0.15654722 -0.19392985 -0.16138935
0.099734426 -0.0075057535 0.19833176 -0.0055821175 0.123987325 -0.14394855 0.092137106 -0.11144813
-0.09582698 0.21731566 0.06166766 0.511983 -0.16625075 -0.0019145116 -0.31257367 0.20948021
0.090260796 -0.16608076 -0.20321703 -0.1725826 0.23094423 0.25638154 0.2363615 -0.2912884
0.006338282 -0.06479097 0.20406969 0.0038373373 0.17771904 0.37388653 0.21672577 -0.010299298
0.18530701 0.12662548 -0.08376087 -0.20168489 0.032204777 0.08156216 0.2201372 0.02038523
0.0825227 0.33861092 0.17868815 -0.118108034 0.176721 0.2803232 0.02301873 -0.058281366

advantage_fc.bias f4 [4]
00000000: 147e edbd ec99 533d 9e60 aabb 2329 29bd
-0.11596313 0.051660463 -0.005199506 -0.041298997
