checkpoint.pth (torch, 47871 bytes, 9 tensors)

hidden_fc.weight f4 [64, 37]
-0.16468954 0.105447546 0.15885042 -0.07458863 0.3351725 -0.03145472 0.14849035 0.03662926
0.13289589 0.041610613 0.09820899 0.0947163 0.04173689 0.16351095 -0.18148306 0.23536386
-0.2478788 0.041330192 -0.23267964 0.14781787 -0.16188842 0.043283857 0.065093726 -0.08307192
0.15682146 -0.3291441 0.21778356 0.11345948 -0.12833841 -0.06291096 -0.124828845 0.15743732
0.1454954 0.019490143 0.19902757 -0.018531913 -0.03808273 -0.0018578557 0.034562476 -0.22047275
-0.06866069 -0.18177351 -0.031409804 0.14666452 -0.17140092 -0.05751042 -0.018717354 0.17154346
-0.11924898 -0.05849689 -0.044188887 0.1557646 -0.034766298 -0.05738597 0.090673506 0.107602626
-0.14626019 -0.06541259 -0.004889964 0.24960221 0.18318231 0.18401852 -0.28950378 -0.038480747
-0.0064887158 0.08847473 0.06176284 -0.021181392 0.09465054 -0.01598237 0.09485048 -0.17305133
0.08024015 -0.0006939267 -0.007691437 -0.024489036 0.032297757 0.037389874 0.019252975 0.2579837
0.013747167 0.0067359265 -0.24422167 -0.58595073 -0.00866385 0.10254711 0.046946116 0.09662059
0.11331542 -0.15223548 0.002625119 -0.0073850374 -0.012880431 0.14814854 -0.098936856 -0.00591467
0.05366788 0.13170446 0.2653296 0.04297438 -0.036611594 0.1220998 0.064182885 0.44336152
-0.13825092 -0.12752378 0.14977759 0.09077696 -0.012282197 -0.036052953 0.000317926 -0.07190846
-0.1885145 -0.36482257 0.30634406 0.14415365 -0.09888768 -0.2653037 0.102789566 0.060341224
0.0074189347 0.1270205 -0.07575112 -0.15577397 -0.44306675 -0.20688173 -0.06949273 0.057852313
-0.22145116 0.020065524 0.11388998 0.01657201 -0.18224719 0.073608525 -0.0018666203 -0.113338664
-0.3020285 0.0006709535 0.084874384 -0.04941197 -0.07495787 0.079808004 -0.095465645 -0.16710177
-0.15064833 -0.051540304 -0.068535894 -0.028411383 0.0024095643 0.042750794 -0.08053791 0.062475238
-0.015731275 0.013427821 0.13584396 0.09490927 -0.12214991 0.14494029 -0.13513225 -0.08237318
-0.09624261 0.04099442 0.090276726 -0.12847112 0.012464722 0.19953504 0.14489459 -0.027518403
-0.09791728 0.14228809 0.15476239 -0.05335725 -0.051211286 0.082805805 0.13542753 0.07607942
-0.12104522 -0.20849128 -0.10258915 0.09853613 -0.026420133 -0.07049383 0.046929646 -0.103470735
-0.050366525 0.10061114 0.0873632 0.13804995 0.07351871 -0.08266436 -0.079993814 -0.008618997
0.1571437 0.15361452 0.12987258 -0.0351448 0.08443373 0.11686784 0.14013143 0.11542345
0.14656618 0.09162317 0.042328 0.15579759 -0.1562855 0.20860319 -0.24516076 -0.49391657
-0.048457135 -0.94113857 0.06357003 0.11134223 0.12330177 0.08645064 -0.038260363 0.09362989
0.015207204 -0.06263208 -0.06464679 -0.4063252 0.0076628067 -0.024233581 -0.101296924 0.09963767
0.12656671 -0.083033815 -0.05457826 -0.3329808 0.16272685 0.09429655 0.1498077 0.04265463
-0.053968918 -0.0014395267 -0.044531483 -0.17593567 -0.08471232 -0.52906394 0.18061024 0.06648935
-0.0061131357 -0.571977 0.03589168 -0.11747999 -0.13560693 0.040937286 0.14797613 -0.18563186
-0.071297705 0.016523398 -0.12204346 0.09536093 -0.42253798 0.04024622 0.012278401 -0.11326509
00000000: 60a4 28be e2f4 d73d afa9 223e ecc1 98bd
00000010: bb9b ab3e aad6 00bd db0d 183e 9008 163d
00000020: dc15 083e e46f 2a3d cc21 c93d 9ffa c13d
00000030: 4df4 2a3d 6a6f 273e b2d6 39be 3903 713e
00000040: f1d3 7dbe d949 293d 9243 6ebe 915d 173e
00000050: 14c6 25be 6a4a 313d dc4f 853d 9c21 aabd
00000060: ce95 203e 9385 a8be a702 5f3e 725d e83d
00000070: 256b 03be 76d7 80bd 44a6 ffbd 4037 213e
00000080: bffc 143e cba9 9f3c e2cd 4b3e 3dd0 97bc
00000090: a3fc 1bbd 4b83 f3ba 6291 0d3d 9cc3 61be
000000a0: fa9d 8cbd d622 3abe 91a7 00bd 392f 163e
000000b0: b983 2fbe 0c90 6bbd 2355 99bc 17a9 2f3e
000000c0: cf38 f4bd 6f9a 6fbd 68ff 34bd c180 1f3e
000000d0: 1b67 0ebd 8d0d 6bbd 08b3 b93d c45e dc3d
000000e0: 3bc5 15be 09f7 85bd fe3b a0bb b997 7f3e
000000f0: 2594 3b3e 5a6f 3c3e d739 94be fd9d 1dbd
00000100: 4b9f d4bb 3d32 b53d 08fb 7c3d 9984 adbc
00000110: 24d8 c13d 76ed 82bc f840 c23d 5e34 31be
00000120: f354 a43d a2e8 35ba 7308 fcbb 3b9d c8bc
00000130: a74a 043d 2026 193d 6ab8 9d3c 7116 843e
00000140: cc3b 613c 0cb9 dc3b 3f15 7abe de00 16bf
00000150: d2f2 0dbc 3804 d23d 924a 403d 04e1 c53d
00000160: ea11 e83d 9ee3 1bbe 300a 2c3b 2ffe f1bb
00000170: 7108 53bc 40b4 173e 689f cabd d9cf c1bb
00000180: dad2 5b3d 89dd 063e 48d9 873e e705 303d
00000190: 0af6 15bd 760f fa3d 5172 833d 4800 e33e
000001a0: a691 0dbe 9895 02be 4c5f 193e 45e9 b93d
000001b0: 453b 49bc 43ac 13bd 4eaf a639 be44 93bd
000001c0: f209 41be 06ca babe 21d9 9c3e 049d 133e
000001d0: a085 cabd e3d5 87be 5683 d23d 5c28 773d
000001e0: 891a f33b a911 023e 6723 9bbd 3683 1fbe
000001f0: a5d9 e2be ced8 53be 3452 8ebd 8cf6 6c3d
00000200: 18c4 62be 7460 a43c 263f e93d 06c2 873c
00000210: 029f 3abe 11c0 963d 62a9 f4ba 1a1e e8bd
00000220: 7ba3 9abe ede2 2f3a 9fd2 ad3d 3564 4abd
00000230: 8383 99bd 6172 a33d 7e83 c3bd ba1c 2bbe
00000240: 8e43 1abe ed1b 53bd 8c5c 8cbd fdbe e8bc
00000250: c8e9 1d3b 751b 2f3d 0ff1 a4bd 09e6 7f3d
00000260: e0de 80bc 5d00 5c3c ae1a 0b3e cb5f c23d
00000270: bb29 fabd 3a6b 143e 1c60 0abe 45b3 a8bd
00000280: d81a c5bd c4e9 273d 01e3 b83d ef8d 03be
00000290: d538 4c3c ea52 4c3e 3f5f 143e 466e e1bc
000002a0: db88 c8bd f8b3 113e 087a 1e3e 228d 5abd
000002b0: edc2 51bd 1796 a93d 84ad 0a3e 87cf 9b3d
000002c0: 8ee6 f7bd bd7e 55be 431a d2bd 4fcd c93d
000002d0: 096f d8bc 125f 90bd 4d39 403d 77e8 d3bd
000002e0: 214d 4ebd 370d ce3d 7aeb b23d f75c 0d3e
000002f0: fa90 963d ef4b a9bd ccd3 a3bd b236 0dbc
00000300: 47ea 203e 204d 1d3e 51fd 043e fef3 0fbd
00000310: 97eb ac3d 6858 ef3d 9d7e 0f3e 2163 ec3d
00000320: 7215 163e eea4 bb3d 2060 2d3d 6789 1f3e
00000330: 4e09 20be 139c 553e 6c0b 7bbe a2e2 fcbe
00000340: fd7a 46bd 75ee 70bf 0131 823d 6507 e43d
00000350: a385 fc3d 080d b13d e6b6 1cbd 07c1 bf3d
00000360: a327 793c 3f45 80bd 8965 84bd db09 d0be
00000370: 4818 fb3b 8185 c6bc c374 cfbd d60e cc3d
00000380: b49a 013e a20d aabd 748d 5fbd 767c aabe
00000390: dea1 263e 8d1e c13d 3167 193e 9fb6 2e3d
000003a0: 830e 5dbd 80ae bcba a566 36bd 7b28 34be
000003b0: a77d adbd bc70 07bf e4f1 383e 912b 883d
000003c0: b350 c8bb 166d 12bf 2703 133d 5999 f0bd
000003d0: 8bdc 0abe dbad 273d 0e87 173e 4716 3ebe
000003e0: 8804 92bd 145c 873c ecf1 f9bd 974c c33d
000003f0: e656 d8be 38d9 243d 592b 493c 87f7 e7bd

hidden_fc.bias f4 [64]
-0.11238692 -0.1372577 0.12710342 0.05652696 -0.092462696 -0.082085244 0.0880789 0.10344219
0.041020058 0.09537026 0.12432619 0.09438 0.11192278 -9.94264e-05 -0.1620671 0.11079066
-0.15311688 -0.023545882 0.083658 -0.0077817272 0.08353792 -0.11335432 -0.10094913 -0.12997447
-0.15597175 -0.118177205 -0.17503092 0.05643128 -0.17659287 0.019946486 0.06791157 0.19015528
0.009458287 -0.18853551 0.030555252 -0.037964407 0.12308941 -0.0040511643 -0.08201207 -0.075937115
0.086672164 0.056814853 0.094008796 -0.19742338 0.09882603 0.047125462 0.11801538 0.13397975
0.09272304 -0.1372381 -0.0042026914 0.047544707 0.091438785 -0.07546277 -0.02105119 0.006904134
0.13295554 -0.122862436 0.050155606 0.10045309 0.053453263 -0.00044608032 0.07480196 -0.1351951
00000000: 1d2b e6bd 488d 0cbe 6627 023e d088 673d
00000010: 155d bdbd 4f1c a8bd b662 b43d 80d9 d33d
00000020: a604 283d 7c51 c33d bb9e fe3d 4d4a c13d
00000030: c537 e53d 2483 d0b8 ebf4 25be 37e6 e23d
00000040: acca 1cbe 4be3 c0bc e354 ab3d dcfd febb
00000050: ee15 ab3d 4f26 e8bd 6bbe cebd 0718 05be
00000060: 0fb7 1fbe e406 f2bd 4e3b 33be 7c24 673d
00000070: c3d4 34be d066 a33c 3915 8b3d 11b8 423e
00000080: eef6 1a3c 740f 41be 024f fa3c 9180 1bbd
00000090: 4d16 fc3d a1bf 84bb f2f5 a7bd eb84 9bbd
000000a0: 2d81 b13d b1b6 683d af87 c03d 5b29 4abe
000000b0: 4d65 ca3d a106 413d 0cb2 f13d fd31 093e
000000c0: 94e5 bd3d 2588 0cbe bbb6 89bb 3dbe 423d
000000d0: 4244 bb3d 3a8c 9abd 8c73 acbc 133c e23b
000000e0: 7f25 083e 4d9f fbbd f76f 4d3d 5aba cd3d
000000f0: cff1 5a3d e3df e9b9 c531 993d 9670 0abe

value_fc_hidden.weight f4 [64, 64]
-0.16174544 0.050401025 0.03236199 -0.041762732 0.07137815 -0.1406022 0.18111014 0.15792842
0.044404466 0.026246576 -0.049281854 -0.0109499935 -0.044667218 -0.048772432 -0.17206907 -0.19172324
0.10074538 -0.2327185 0.06072799 0.07082988 0.2036902 -0.12233532 -0.096120685 0.11215111
0.10226111 -0.051129077 0.113126226 -0.03959361 -0.050461944 0.049989793 -0.08251573 -0.026398998
0.15002565 -0.07506395 0.058699474 -0.06383982 0.14894553 0.13291098 0.036792524 0.117044516
-0.23192547 -0.15454826 0.13586648 -0.087760665 -0.042776644 0.032568865 -0.04621615 -0.081649005
0.065728694 -0.3233399 -0.03820382 -0.09440115 0.038108427 -0.09372477 -0.21024013 -0.023293097
-0.048420537 0.2535234 0.16929646 -0.023992226 -0.08902935 0.039246157 0.07510628 -0.0014911834
0.107810475 0.041176118 0.10673957 0.0188579 -0.058539797 0.09870818 -0.1189391 -0.026362674
-0.038855053 0.087961406 0.049637865 0.14318101 -0.07013184 0.06717024 -0.019062582 0.12996978
0.002157612 0.14333053 0.059092995 0.106598645 0.032221846 -0.096723035 0.10420063 0.060368445
-0.107193366 -0.045929637 -0.0062233084 0.13386387 -0.044122998 -0.031301264 0.0022533361 0.076284185
-0.04930806 0.0909981 0.120812386 -0.11185905 0.07840964 -0.108541474 0.067991704 0.100258105
0.16861284 0.040495273 -0.049212735 -0.0738226 0.035277016 0.17916256 -0.14568308 -0.025419725
-0.011694452 -0.0016849691 -0.01621634 -0.003145465 0.032785233 -0.04262448 0.032676898 0.15907364
0.13872196 -0.09914879 -0.04737957 0.046650637 0.025213815 0.11305273 0.02790318 0.093738854
0.055101067 -0.030461725 0.089363895 0.18695565 -0.051845014 -0.20717299 -0.0020540976 0.07676991
-0.022726355 0.040992346 -0.01587929 0.09396213 0.034355488 -0.22010869 0.10887206 0.06118623
-0.15371342 0.04034625 -0.12384428 -0.12641001 -0.16543628 -0.044910263 0.026855566 -0.14201027
-0.15557167 -0.0702968 0.110218555 0.070297584 0.04078167 0.08459654 0.007697565 -0.017305281
-0.18759288 -0.008797905 0.08425371 0.11884163 0.113240436 0.005769127 0.03675205 -4.0744035e-05
0.059564795 -0.017126571 -0.16456136 -0.060142454 -0.024471078 -0.15257372 -0.073312126 -0.09794354
-0.27474767 -0.025890877 0.043149475 -0.022245185 -0.21004492 -0.07345402 -0.10717168 -0.047547933
-0.095449336 0.014939677 -0.03903541 -0.00767724 0.105511226 0.115855396 0.0017920804 0.11698505
-0.1801675 0.2054234 0.10478978 -0.08519093 -0.13607237 -0.27618268 0.015683204 0.095461294
0.10819688 0.09475179 -0.033289477 0.11926905 0.029825334 -0.12089639 0.07230288 0.120592795
-0.13617694 -0.058381543 -0.049706876 0.06269496 -0.027188806 0.07585216 0.07208943 -0.37019175
0.110769525 -0.02441734 -0.110689886 -0.07557824 -0.09213476 0.03445235 -0.06401483 0.10908849
0.06436325 -0.17169261 -0.062370516 0.061505277 0.18458886 0.060397197 -0.15805721 -0.12766618
-0.14658916 0.06197397 -0.032089666 -0.15240435 0.004049529 -0.09832812 0.05142897 0.08157805
0.22451851 0.030146556 -0.22876824 -0.021802831 -0.18352716 -0.16653834 -0.12938644 0.006499321
-0.1006471 -0.11303115 0.17034064 0.016372623 0.11321599 -0.09538052 -0.0040680384 0.028836554
00000000: 99a0 25be 4e71 4e3d 028e 043d 660f 2bbd
00000010: b52e 923d 06fa 0fbe f074 393e fdb7 213e
00000020: 75e1 353d 0f03 d73c c5db 49bd 9a67 33bc
00000030: f9f4 36bd 9ac5 47bd e032 30be 1953 44be
00000040: 9853 ce3d c24d 6ebe eabd 783d 420f 913d
00000050: 2a94 503e f18a fabd ecda c4bd 7baf e53d
00000060: 466e d13d b96c 51bd b9ae e73d e92c 22bd
00000070: 2fb1 4ebd 19c2 4c3d 02fe a8bd b642 d8bc
00000080: 53a0 193e 21bb 99bd dc6e 703d 74be 82bd
00000090: 2d85 183e d119 083e c2b3 163d 09b5 ef3d
000000a0: df7d 6dbe e641 1ebe 9520 0b3e ddbb b3bd
000000b0: 9036 2fbd ee66 053d 254d 3dbd 9837 a7bd
000000c0: c49c 863d cf8c a5be 9c7b 1cbd 6455 c1bd
000000d0: 9517 1c3d c6f2 bfbd 3049 57be 2ad1 bebc
000000e0: 9d54 46bd d2cd 813e 0d5c 2d3e 588b c4bc
000000f0: 0555 b6bd 94c0 203d 52d1 993d d073 c3ba
00000100: bdcb dc3d 4aa8 283d 479a da3d e27b 9a3c
00000110: 6dc7 6fbd 8427 ca3d 5896 f3bd 89f6 d7bc
00000120: 7a26 1fbd 1c25 b43d 1351 4b3d 0b9e 123e
00000130: 48a1 8fbd 8d90 893d 2229 9cbc cc16 053e
00000140: b966 0d3b 3dc5 123e 7f0b 723d 6450 da3d
00000150: 0efb 033d ba16 c6bd 2467 d53d e744 773d
00000160: 3288 dbbd b720 3cbd e5ec cbbb 9c13 093e
00000170: 51ba 34bd c135 00bd b5ac 133b e23a 9c3d
00000180: 40f7 49bd 365d ba3d 7c6c f73d 5c16 e5bd
00000190: 3c95 a03d fe4a debd 3c3f 8b3d 1f54 cd3d
000001a0: d8a8 2c3e 5fde 253d 4b93 49bd 4e30 97bd
000001b0: a27e 103d 6476 373e f22d 15be 073d d0bc
000001c0: 169a 3fbc 2eda dcba 21d8 84bc 2524 4ebb
000001d0: cf49 063d 0297 2ebd 36d8 053d 33e4 223e
000001e0: 210d 0e3e 850e cbbd 1411 42bd bd14 3f3d
000001f0: 348d ce3c 3188 e73d 3695 e43c 28fa bf3d
00000200: a8b1 613d de8a f9bc 6b04 b73d 4d71 3f3e
00000210: 705b 54bd 2825 54be 0a9e 06bb 8b39 9d3d
00000220: 9f2c babc 97e7 273d 4915 82bc 386f c03d
00000230: 57b8 0c3d 2c64 61be 51f8 de3d 6a9e 7a3d
00000240: 0d67 1dbe 1c42 253d 12a2 fdbd a071 01be
00000250: 2168 29be d3f3 37bd 3400 dc3c 246b 11be
00000260: 2e4e 1fbe c5f7 8fbd 44ba e13d 2ef8 8f3d
00000270: ae0a 273d f340 ad3d db3b fc3b cec3 8dbc
00000280: 5918 40be 1725 10bc 368d ac3d 3e63 f33d
00000290: 9aea e73d f20a bd3b 5189 163d 93e4 2ab8
000002a0: 37fa 733d 064d 8cbc c682 28be ef57 76bd
000002b0: 9277 c8bc 493c 1cbe ab24 96bd 9f96 c8bd
000002c0: baab 8cbe 1b19 d4bc 81bd 303d 893b b6bc
000002d0: 0416 57be 106f 96bd d37c dbbd 9fc1 42bd
000002e0: f17a c3bd 8cc5 743c 98e3 1fbd 5b91 fbbb
000002f0: 4516 d83d 9845 ed3d 3de4 ea3a dc95 ef3d
00000300: d47d 38be 835a 523e 069c d63d 9578 aebd
00000310: 8e56 0bbe d167 8dbe 107a 803c 3681 c33d
00000320: 5396 dd3d 3a0d c23d 8c5a 08bd 5543 f43d
00000330: 4254 f43c 8798 f7bd 8813 943d 5bf9 f63d
00000340: f871 0bbe 7c21 6fbd 7099 4bbd 3766 803d
00000350: 0fbb debc 6158 9b3d a0a3 933d c689 bdbe
00000360: 22db e23d e006 c8bc 61b1 e2bd c4c8 9abd
00000370: 26b1 bcbd e81d 0d3d 351a 83bd c969 df3d
00000380: e1d0 833d 30d0 2fbe 3a78 7fbd f5ec 7b3d
00000390: dd04 3d3e 0d63 773d c0d9 21be ecba 02be
000003a0: 781b 16be 6bd8 7d3d 7470 03bd e30f 1cbe
000003b0: e9b1 843b 4160 c9bd 2fa7 523d 6512 a73d
000003c0: 2ee8 653e e9f5 f63c 3942 6abe da9b b2bc
000003d0: 8bee 3bbe 0789 2abe e17d 04be 42f8 d43b
000003e0: 1120 cebd e07c e7bd c76d 2e3e e11f 863c
000003f0: c9dd e73d dd56 c3bd 2e4d 85bb a33a ec3c

value_fc_hidden.bias f4 [64]
-0.02388884 0.24194908 -0.08966493 -0.04877035 -0.085734315 -0.16264485 -0.06762813 -0.06662415
-0.05728226 -0.024068125 -0.031057995 0.08008532 -0.06659885 -0.03108795 -0.084697895 -0.059305664
-0.23231073 -0.07870185 -0.10910168 -0.04306715 -0.14558214 0.041061293 -0.011031653 -0.11011924
0.21464065 0.20891906 -0.05576278 0.12527871 -0.018555915 0.018382352 0.25250873 0.04917053
-0.05674796 -0.04148814 0.150589 -0.06753545 -0.059411827 0.00071308285 -0.006175589 -0.17706083
-0.08744685 0.15294194 0.097846135 0.092125125 0.053765487 -0.0530181 -0.23167685 -0.05963142
0.1931667 0.014051616 0.0333474 -0.10257888 -0.14323679 0.14191881 0.0015767334 0.2468299
0.02717418 -0.045370817 0.0003643046 -0.037632015 0.26687187 -0.1435118 -0.06733304 0.034547433
00000000: 87b2 c3bc 80c1 773e 3fa2 b7bd 6bc3 47bd
00000010: 7995 afbd 5f8c 26be 9e80 8abd 3e72 88bd
00000020: cea0 6abd 842a c5bc 566d febc c603 a43d
00000030: fa64 88bd 28ac febc 1776 adbd 7fea 72bd
00000040: dde2 6dbe 6f2e a1bd b470 dfbd 2e67 30bd
00000050: 7c13 15be e32f 283d 1bbe 34bc 3286 e1bd
00000060: c2ca 5b3e e1ee 553e 8367 64bd 1049 003e
00000070: 9302 98bc 9696 963c d348 813e 0a67 493d
00000080: 8d70 68bd 78ef 29bd 0134 1a3e 0750 8abd
00000090: d159 73bd 2eee 3a3a 985c cabb 6f4f 35be
000000a0: 5617 b3bd d09c 1c3e 8e63 c83d 19ac bc3d
000000b0: 3339 5c3d 8229 59bd b23c 6dbe 1340 74bd
000000c0: 7ecd 453e c038 663c 4997 083d e014 d2bd
000000d0: aaac 12be 2a53 113e 65aa ce3a fac0 7c3e
000000e0: 639c de3c c0d6 39bd 2300 bf39 0724 1abd
000000f0: 6ea3 883e c2f4 12be e8e5 89bd 9c81 0d3d

value_fc.weight f4 [1, 64]
-0.024236761 0.13338813 -0.13914685 -0.2107959 -0.15220955 -0.19512019 0.18576738 0.25287434
0.12471736 0.043846525 -0.28793442 0.25623274 -0.21629305 -0.09955061 0.17494397 -0.123966426
-0.5099142 0.05443892 -0.26429564 0.11581163 -0.035135284 0.39249894 0.100541644 0.17440338
0.1285156 0.12474602 -0.18960035 0.10072509 -0.26881728 -0.118497714 0.07950336 0.07459278
-0.14521272 -0.12958781 0.081089534 0.08419645 0.3358975 -0.04690279 -0.117281154 -0.023475317
0.32281446 0.06494594 -0.12186089 0.31676212 -0.8665581 -0.0069347904 -0.14189647 -0.04643993
0.10699826 0.07841138 -0.61915755 -0.068481594 -0.092876494 0.19430485 0.12454998 0.15242189
0.090969406 -0.13104424 -0.12036767 -0.27476397 0.11297736 -0.0930465 -0.12624206 0.1026232
00000000: 2c8c c6bc e696 083e 837c 0ebe e1da 57be
00000010: d2dc 1bbe 96cd 47be ce39 3e3e bf78 813e
00000020: d16b ff3d 6a98 333d 246c 93be f030 833e
00000030: ed7b 5dbe 31e1 cbbd 8324 333e 1ce2 fdbd
00000040: bd89 02bf 58fb 5e3d c251 87be a62e ed3d
00000050: 04ea 0fbd 9ff5 c83e c7e8 cd3d cd96 323e
00000060: 9899 033e d77a ff3d 9826 42be f548 ce3d
00000070: 6ba2 89be eeae f2bd a8d2 a23d 19c4 983d
00000080: a5b2 14be abb2 04be 4512 a63d 306f ac3d
00000090: c2fa ab3e 241d 40bd 1a31 f0bd 4f4f c0bc
000000a0: f047 a53e 6102 853d 3492 f9bd a52e a23e
000000b0: c0d6 5dbf 3d3d e3bb 4f4d 11be cc37 3ebd
000000c0: e721 db3d 2596 a03d 1c81 1ebf 1440 8cbd
000000d0: 0836 bebd daf7 463e 0f14 ff3d 7c14 1c3e
000000e0: 2b4e ba3d 7630 06be 5383 f6bd ddad 8cbe
000000f0: ad60 e73d 2a8f bebd 9945 01be 1d2c d23d

advantage_fc_hidden.weight f4 [64, 64]
0.07370609 -0.10918131 -0.038010914 -0.18221161 -0.063844435 -0.08952249 0.17428097 -0.020228611
0.04691147 0.047843285 -0.08312411 -0.13232109 0.07241413 -0.21908236 -0.01177855 0.07229712
-0.11429842 0.02241891 -0.04117402 -0.1403931 0.0328564 -0.002860852 0.19261812 -0.09384772
0.050637912 -0.06781036 -0.0033799314 -0.21769877 -0.060939353 -0.0769746 -0.27614683 0.13435213
-0.058373597 -0.24583504 -0.23051415 -0.0040679653 0.13902399 -0.16121559 0.0069815405 -0.050767183
0.07296003 0.16253424 -0.3692513 0.08281542 -0.025217606 -0.09343801 0.104567535 0.099966854
-0.05825989 0.11839106 0.07778717 -0.06314759 -0.0705851 0.030881438 -0.058462646 0.066889025
-0.0013838432 0.021434858 0.14445695 -0.095551826 -0.03129574 -0.08589145 -0.11628043 -0.16647343
-0.01952043 0.048633672 -0.041310277 -0.21123639 0.07888956 -0.27885643 -0.09391421 0.07528563
0.19659677 0.11655133 -0.036875878 0.010216267 -0.16790023 0.11249899 -0.030166248 0.22065116
-0.036635693 -0.013024722 -0.25192526 0.03985166 -0.14377257 0.1810343 0.023213197 0.142931
0.08637351 -0.017893534 0.050452325 0.053037852 -0.14583352 -0.06411675 0.03714794 -0.05596593
-0.16554184 0.2224084 -0.04350866 0.22527483 0.03315825 -0.14563091 0.124117695 0.11562993
-0.011128243 0.09782569 0.01604367 -0.063154295 0.040205278 -0.037438672 -0.11216157 0.10150327
0.13192877 -0.00077088026 -0.06980752 0.0481095 -0.0036544488 -0.117760055 0.18016389 0.23072045
0.016806636 0.2054446 0.014368189 -0.0003085616 0.16239762 -0.10873063 -0.0652289 -0.24253286
0.014149966 0.07137974 -0.048162755 0.098019324 -0.11801078 -0.058538597 0.12915424 -0.07295121
-0.03277686 0.06032596 -0.041108232 0.15932274 -0.030180896 0.028730774 0.12865636 0.039343785
0.09426447 0.110976085 -0.055949748 -0.04690739 0.046139926 -0.086287044 -0.009121726 -0.24525467
-0.18176374 0.05689463 0.08361276 0.037766635 -0.005893652 0.032387953 0.08375603 -0.19429734
-0.04430131 -0.0077366163 0.029816447 -0.1453842 -0.09140377 -0.024045583 -0.04301165 -0.13329768
0.31751472 0.014136836 -0.025635961 0.026058154 0.003587227 -0.03574667 -0.06922948 0.21402921
0.13637823 0.33698967 -0.16491474 -0.15697494 -0.081735395 -0.168483 -0.14598592 0.0008794795
-0.03031271 0.024315907 0.052873075 -0.08704054 0.13510843 -0.16386841 0.048310913 0.07990118
-0.31069672 0.024385022 0.006353327 0.18606037 -0.10258344 -0.08933498 -0.12700018 -0.022299178
-0.026389323 0.048035122 -0.020209758 0.015594443 0.033868983 -0.047092535 0.28015178 0.07944842
0.09421552 0.23083325 0.14700109 0.044304766 0.13561854 0.2135831 0.08199979 0.039429717
0.06352294 0.074113384 0.07545895 -0.020188835 -0.027266994 0.12734294 0.030310307 0.12069449
-0.07440611 -0.070006385 -0.18792664 0.101254106 0.04820562 0.039056346 -0.093389384 0.08078817
-0.19828178 -0.0692965 -0.10190632 -0.0767462 0.24937104 -0.021953098 0.029009819 -0.019857164
-0.017070351 -0.1317262 -0.06617379 0.09221899 -0.035409514 -0.108695425 0.17050593 0.23846284
0.072587416 0.019765224 -0.12196701 -0.06327747 0.12426675 0.09556863 0.20397641 0.017107585
00000000: 38f3 963d 739a dfbd 55b1 1bbd ae95 3abe
00000010: dfc0 82bd 9157 b7bd b676 323e 79b6 a5bc
00000020: 3e26 403d 52f7 433d f93c aabd 2e7f 07be
00000030: dc4d 943d 2057 60be d2fa 40bc 8310 943d
00000040: 4a15 eabd dda7 b73c 17a6 28bd 35c3 0fbe
00000050: 6f94 063d 227d 3bbb af3d 453e 3c33 c0bd
00000060: b369 4f3d 28e0 8abd d781 5dbb 6dec 5ebe
00000070: 8b9b 79bd dca4 9dbd 1e63 8dbe 9b93 093e
00000080: 2719 6fbd 2ebc 7bbe e70b 6cbe 914c 85bb
00000090: 4e5c 0e3e b315 25be 68c5 e43b 40f1 4fbd
000000a0: 116c 953d 606f 263e 820e bdbe 229b a93d
000000b0: 2795 cebc 6d5c bfbd 8127 d63d 6cbb cc3d
000000c0: eca1 6ebd 0377 f23d e14e 9f3d 8653 81bd
000000d0: ec8e 90bd 12fb fc3c 8776 6fbd 1dfd 883d
000000e0: 1362 b5ba 2898 af3c 86ec 133e adb0 c3bd
000000f0: f62f 00bd dbe7 afbd 6f24 eebd 0378 2abe
00000100: 4fe9 9fbc 1a34 473d f734 29bd 5a4e 58be
00000110: da90 a13d 45c6 8ebe 1856 c0bd 5a2f 9a3d
00000120: aa50 493e 77b2 ee3d 290b 17bd 2162 273c
00000130: 0aee 2bbe df65 e63d 351f f7bc 61f2 613e
00000140: 4f0f 16bd a565 55bc 59fc 80be 7f3b 233d
00000150: 1e39 13be 0e61 393e 9a29 be3c 815c 123e
00000160: 98e4 b03d 7695 92bc 19a7 4e3d 383e 593d
00000170: 6255 15be a54f 83bd 7028 183d 883c 65bd
00000180: cd83 29be 07bf 633e 2336 32bd 72ae 663e
00000190: f2d0 073d 4520 15be 6b31 fe3d 62cf ec3d
000001a0: 3c53 36bc d658 c83d 046e 833c 0a57 81bd
000001b0: 4aae 243d 4b59 19bd f7b4 e5bd f2e0 cf3d
000001c0: 5618 073e e614 4aba 3ff7 8ebd 780e 453d
000001d0: 7a7f 6fbb 2f2c f1bd e27c 383e fb41 6c3e
000001e0: 12ae 893c 1260 523e 8d68 6b3c 70c6 a1b9
000001f0: 904b 263e 2aae debd bb96 85bd 895a 78be
00000200: 42d5 673c 8b2f 923d 4f46 45bd 5bbe c83d
00000210: a3af f1bd 2bc6 6fbd 0241 043e 7267 95bd
00000220: 0741 06bd 5b18 773d 1b61 28bd 8025 233e
00000230: ed3d f7bc cd5c eb3c 7ebe 033e f326 213d
00000240: bb0d c13d 6e47 e33d 902b 65bd f721 40bd
00000250: 38fd 3c3d 43b7 b0bd 4b73 15bc 0a24 7bbe
00000260: 4620 3abe 580a 693d 2b3d ab3d 30b1 1a3d
00000270: 891f c1bb 3ba9 043d 4888 ab3d e2f5 46be
00000280: 4a75 35bd 7183 fdbb 9f41 f43c 99df 14be
00000290: e631 bbbd 3efb c4bc fc2c 30bd 307f 08be
000002a0: 4a91 a23e 309e 673c 8202 d2bc e977 d53c
000002b0: af17 6b3b 1a6b 12bd 30c8 8dbd 792a 5b3e
000002c0: bca6 0b3e e989 ac3e 69df 28be 0abe 20be
000002d0: e364 a7bd cf86 2cbe 557d 15be df8c 663a
000002e0: 5c52 f8bc 2732 c73c 7091 583d 5042 b2bd
000002f0: dd59 0a3e 1fcd 27be aae1 453d 3ba3 a33d
00000300: a413 9fbe 19c3 c73c 922f d03b 9c86 3e3e
00000310: 4417 d2bd 42f5 b6bd 560c 02be c4ac b6bc
00000320: 6c2e d8bc 7ac0 443d ef8e a5bc d67f 7f3c
00000330: 34ba 0a3d 1ae4 40bd 0e70 8f3e dab5 a23d
00000340: 11f4 c03d 8d5f 6c3e 7487 163e ea78 353d
00000350: 96df 0a3e 87b5 5a3e 82ef a73d 0e81 213d
00000360: 5118 823d c2c8 973d 398a 9a3d 0e63 a5bc
00000370: 085f dfbc 3066 023e 524d f83c ac2e f73d
00000380: 3b62 98bd 825f 8fbd d76f 40be 505e cf3d
00000390: 4273 453d 8cf9 1f3d ef42 bfbd 4574 a53d
000003a0: 610a 4bbe 53eb 8dbd 43b4 d0bd 1d2d 9dbd
000003b0: 1f5b 7f3e fcd6 b3bc 00a6 ed3c 7eab a2bc
000003c0: 1fd7 8bbc 3ce3 06be 2086 87bd 4fdd bc3d
000003d0: 9109 11bd b59b debd 1b99 2e3e 9a2f 743e
000003e0: b6a8 943d aeea a13c d7c9 f9bd 9e97 81bd
000003f0: 917f fe3d 7cb9 c33d 31df 503e 3525 8c3c

advantage_fc_hidden.bias f4 [64]
-0.012119735 -0.09179144 0.020549078 -0.09756635 -0.07396931 0.09012533 -0.16662623 -0.008604299
-0.0023479003 -0.099006794 -0.09490552 -0.041174646 0.017538823 -0.005165197 -0.07935087 -0.10273505
-0.016083645 0.10694535 -0.009342815 -0.17298132 0.13146807 -0.101178154 -0.04112579 -0.01614396
-0.0014341315 -0.03545689 -0.004729081 0.11701118 -0.16366483 -0.12071122 0.020482257 -0.012905037
-0.02727293 0.00458703 0.046433445 -0.06401749 -0.09782688 -0.0818564 -0.024740953 -0.010486297
0.019716559 -0.13173513 0.059137404 0.014066217 0.09412511 -0.09964233 0.016399264 -0.07976925
0.020991653 -0.05197677 -0.12964655 -0.13283268 -0.015892675 0.10188138 0.029560415 0.09212822
-0.025098942 -0.05410103 -0.13942954 0.09081185 0.09263843 -0.003856817 -0.0017552902 -0.07994523
00000000: da91 46bc 27fd bbbd 8a56 a83c ded0 c7bd
00000010: 397d 97bd a193 b83d 11a0 2abe 0cf9 0cbc
00000020: 3bdf 19bb 13c4 cabd d35d c2bd bfa6 28bd
00000030: 94ad 8f3c d040 a9bb b582 a2bd c166 d2bd
00000040: d9c1 83bc 2a06 db3d 9b12 19bc 0422 31be
00000050: 919f 063e 7e36 cfbd 8473 28bd 5740 84bc
00000060: 78f9 bbba 3e3b 11bd 68f6 9abb 8fa3 ef3d
00000070: c197 27be 7237 f7bd 68ca a73c a66f 53bc
00000080: 7b6b dfbc cc4e 963b ff30 3e3d 9a1b 83bd
00000090: 7659 c8bd 54a4 a7bd 8aad cabc b8ce 2bbc
000000a0: 9f84 a13c 93e5 06be 103a 723d fd75 663c
000000b0: aac4 c03d 4711 ccbd c057 863c 0f5e a3bd
000000c0: b0f6 ab3c 98e5 54bd 11c2 04be 4a05 08be
000000d0: 5b31 82bc 2fa7 d03d af28 f23c b8ad bc3d
000000e0: 4c9c cdbc 0b99 5dbd 9ec6 0ebe 90fb b93d
000000f0: 38b9 bd3d a7c2 7cbb c411 e6ba 53ba a3bd

advantage_fc.weight f4 [4, 64]
0.018900914 -0.010398202 0.05158941 -0.050480485 0.26741138 -0.14857002 0.08912591 -0.30013826
0.038413197 -0.094344415 0.0017735857 0.10397737 -0.0023493182 0.10927519 -0.046365593 -0.106514536
-0.014071039 -0.21825033 -0.07514394 0.078124575 -0.11559666 0.097898185 0.059820257 -0.062954344
-0.118102446 -0.06151322 0.016611254 -0.18340851 -0.028050734 0.028601194 -0.11871459 0.09964966
0.006460343 -0.023896527 -0.021733202 -0.023321973 0.07058218 0.06686568 0.11190922 -0.12158379
-0.010143402 0.058757924 -0.07474526 0.12037608 -0.1575921 -0.03521629 -0.1463525 0.012456825
-0.13213003 0.085713156 -0.15177855 0.10433245 0.019129632 -0.059552375 -0.0020301482 0.07156704
-0.113282956 -0.032575846 0.09126007 0.14387466 0.061229832 0.009048411 0.11162194 -0.04725053
-0.028038092 0.101465605 0.014213153 -0.042480927 -0.10974745 -0.20317659 -0.40530202 0.06326328
-0.045847807 0.061749388 -0.06667525 0.08087041 0.085430935 -0.090778604 0.024596123 0.111447416
-0.14106758 -0.037584413 -0.08315498 -0.4411876 -0.028208943 -0.050195742 0.08719001 0.23389125
-0.056558706 -0.018007105 -0.0067024813 -0.0031065135 -0.29786614 0.17702138 -0.016502487 -0.29758185
0.05129399 0.023103207 -0.18900476 0.09056592 -0.06450693 0.24785621 0.11751849 -0.10758494
0.059944943 -0.08994079 0.051759906 0.038341727 0.050588466 0.060378477 0.07474453 0.037117284
0.00494349 -0.13396536 0.009448651 -0.03766832 -0.013613687 -0.045342367 -0.014350038 -0.059954163
0.32185492 -0.11568547 -0.012205211 -0.17549872 -0.10458255 -0.06814087 0.020825708 -0.0110899545
0.2169374 0.090002954 -0.066008516 0.04404437 0.12710518 0.05734394 0.3116598 0.27644664
-0.026487278 0.5184081 -0.119600676 0.06454588 -0.381142 -0.16639504 0.03360676 -0.09075553
0.1902264 0.15332659 0.00047382663 -0.3787748 -0.06983743 -0.022645002 -0.07415865 0.018087694
-0.00687449 -0.089645475 -0.06282397 -0.046767544 -0.04786247 0.19544446 -0.09475039 0.18469685
0.20105231 0.14446874 -0.09768282 0.024932263 -0.33868715 -0.13676675 -0.14768218 -0.11474805
-0.0531578 -0.15180285 0.16890469 0.092972405 0.11683939 -0.11437786 0.11956029 -0.04299914
0.15613268 0.082184605 -0.11082711 -0.044532415 0.13956708 0.002458877 0.07330896 -0.07991437
0.14101313 0.0012668588 -0.17530128 0.100053065 -0.07580488 0.03375017 0.0020067524 0.04846176
-0.052460365 -0.055457857 0.18914202 -0.14790632 -0.39240375 0.28306204 -0.39597613 -0.021156464
-0.00086892064 -0.44852582 0.1076423 -0.1793333 0.2290052 -0.23004133 -0.01748359 0.0024370109
-0.18576132 0.091622636 -0.0018144697 0.3964906 0.07451015 0.13178225 0.14751409 -0.1211432
-0.13696647 -0.020832965 0.074081704 0.034988493 0.3176793 -0.034043543 -0.09005839 0.10012237
-0.20094286 -0.04913857 0.30926412 0.13311076 0.08413541 0.078315094 0.1306604 0.12428791
-0.1616931 0.13430096 -0.058527857 -0.15389983 0.028294576 0.17372374 -0.11025509 0.07786443
0.098062575 -0.1275716 0.16952263 0.18758196 -0.090280205 0.056150395 0.089074835 -0.0024847414
-0.30857033 -0.07493049 -0.017979817 0.039224952 -0.057456918 -0.03409766 -0.12907958 0.0025718021
00000000: 17d6 9a3c 385d 2abc 6b4f 533d a0c4 4ebd
00000010: 25ea 883e bd22 18be a587 b63d b9ab 99be
00000020: 2857 1d3d a537 c1bd a977 e83a 16f2 d43d
00000030: 05f7 19bb accb df3d d9e9 3dbd 4b24 dabd
00000040: 378a 66bc 047d 5fbe 11e5 99bd c7ff 9f3d
00000050: f1bd ecbd d87e c83d 1606 753d 35ee 80bd
00000060: b2df f1bd 49f5 7bbd 5314 883c 71cf 3bbe
00000070: a7ca e5bc 0d4d ea3c a320 f3bd 1f15 cc3d
00000080: 49b1 d33b a6c2 c3bc d409 b2bc b90d bfbc
00000090: 648d 903d e0f0 883d a930 e53d ec00 f9bd
000000a0: 8330 26bc 26ac 703d 0b14 99bd bc87 f63d
000000b0: d35f 21be f53e 10bd 6edd 15be b617 4c3c
000000c0: 184d 07be 618a af3d d66b 1bbe 40ac d53d
000000d0: bfb5 9c3c 31ed 73bd 3c0c 05bb be91 923d
000000e0: e500 e8bd 406e 05bd 8fe6 ba3d e153 133e
000000f0: 22cc 7a3d c93f 143c 0b9a e43d c689 41bd
00000100: 24b0 e5bc 33cd cf3d 49de 683c 7b00 2ebd
00000110: 45c3 e0bd 860d 50be bf83 cfbe 2e90 813d
00000120: e9ca 3bbd edec 7c3d 098d 88bd 639f a53d
00000130: 6af6 ae3d 22ea b9bd cf7d c93c 8b3e e43d
00000140: 0574 10be 1df2 19bd 284d aabd 57e3 e1be
00000150: 7116 e7bc 0d9a 4dbd ad90 b23d 3081 6f3e
00000160: 1aaa 67bd a383 93bc 7da0 dbbb a696 4bbb
00000170: e981 98be 1845 353e 3930 87bc a65c 98be
00000180: a619 523d f042 bd3c 778a 41be a07a b93d
00000190: 361c 84bd 05ce 7d3e 89ad f03d 7e55 dcbd
000001a0: d488 753d e032 b8bd 3202 543d 370c 1d3d
000001b0: da35 4f3d 6c4f 773d a913 993d 4b08 183d
000001c0: 00fd a13b 372e 09be 84ce 1a3c 194a 1abd
000001d0: f10b 5fbc ebb8 39bd 6c1c 6bbc 7f92 75bd
000001e0: 2bca a43e 81ec ecbd 5ef8 47bc f0b5 33be
000001f0: 602f d6bd 718d 8bbd ad9a aa3c a4b2 35bc
00000200: d624 5e3e 7853 b83d 792f 87bd df67 343d
00000210: dc27 023e 7be1 6a3d e091 9f3e 6a8a 8d3e
00000220: d9fb d8bc 65b6 043f 33f1 f4bd a130 843d
00000230: 0b25 c3be 7663 2abe 3ea7 093d 09de b9bd
00000240: b6ca 423e a501 1d3e ef6b f839 c5ee c1be
00000250: ed06 8fbd 0382 b9bc 7ee0 97bd a52c 943c
00000260: 6743 e1bb 0c98 b7bd dba9 80bd 538f 3fbd
00000270: 700b 44bd 9822 483e 7e0c c2bd 2c21 3d3e
00000280: a8e0 4d3e 9def 133e ee0d c8bd bf3e cc3c
00000290: 6768 adbe 950c 0cbe ff39 17be 0701 ebbd
000002a0: febb 59bd 3572 1bbe 5af5 2c3e 5168 be3d
000002b0: 7d49 ef3d f13e eabd 06dc f43d de1f 30bd
000002c0: 3fe1 1f3e 6750 a83d 53f9 e2bd 9f67 36bd
000002d0: acea 0e3e 1c25 213b 0223 963d 25aa a3bd
000002e0: bf65 103e ba0c a63a 2e82 33be 9fe8 cc3d
000002f0: 973f 9bbd 9e3d 0a3d b883 033b d77f 463d
00000300: aee0 56bd c727 63bd 72ae 413e c174 17be
00000310: 25e9 c8be 82ed 903e 62bd cabe 5250 adbc
00000320: 47c8 63ba 2da5 e5be 9173 dc3d 26a3 37be
00000330: 5780 6a3e f48f 6bbe bf39 8fbc 42b6 1f3b
00000340: 3738 3ebe a6a4 bb3d 80d3 edba d100 cb3e
00000350: c798 983d edf1 063e ef0d 173e ed19 f8bd
00000360: f040 0cbe e5a9 aabc 26b8 973d 1850 0f3d
00000370: dca6 a23e 3e71 0bbd 8870 b8bd f50c cd3d
00000380: f7c3 4dbe 8645 49bd de57 9e3e 304e 083e
00000390: 304f ac3d aa63 a03d d7cb 053e a98a fe3d
000003a0: e092 25be 3186 093e e8ba 6fbd eb97 1dbe
000003b0: 07ca e73c a3e4 313e 6ccd e1bd 6377 9f3d
000003c0: 08d5 c83d 21a2 02be 5797 2d3e 7c15 403e
000003d0: d4e4 b8bd f5fd 653d de6c b63d 0bd7 22bb
000003e0: eefc 9dbe 2875 99bd 694a 93bc 58aa 203d
000003f0: f257 6bbd fda9 0bbd 702d 04be ae8b 283b

advantage_fc.bias f4 [4]
0.008218764 0.038905084 0.028151667 -0.0023238226
00000000: ffa7 063c f05a 1f3d 539e e63c 464b 18bb
