cur_model.pt (torch, 47871 bytes, 9 tensors)

hidden_fc.weight f4 [64, 37]
00000000: bf70 b93d ec24 c83d 1062 af3d 4958 503d
00000010: 1ebf ce3d 6303 25be 6e01 063e f2a8 d0bb
00000020: b91b ce3d 42b5 c2bd 39c1 163e b48f c9bd
00000030: 44e4 18be 81db 3dbe e2b2 d0be a0dc a33d
00000040: 3bfb 0f3e 584d 423c 734d 7dbd 0f89 493e
00000050: b517 9cbd d557 9e3d 38eb 8f3d 9f36 38be
00000060: 3a4d 8fbd 87b8 e93c b415 903c df5b 1dbd
00000070: aff1 7dbd d94c 2cbe cf07 d13c 8fac cabd
00000080: 1858 543b 1b2a e63d 7cfa 9d3d f786 293e
00000090: 6c12 8fb8 8e38 ed3d f0fa 94bd 4324 96bd
000000a0: 3beb c0bd e7f8 a73c 5fcd 093e fc05 0cbd
000000b0: dedb c73d c093 1c3e 0035 bb3e 447b febd
000000c0: 7484 053e 4bbb d9bc 9a41 aabd d5b4 edbd
000000d0: f01e 5fbd 9c7f 383d 9ece 943d ff95 db3d
000000e0: 166b 5d3e 5ab4 06be c96c 4dbd b3d4 333c
000000f0: e056 a3bd d1eb 2c3e 5eb9 833d 515a ebbd
00000100: 5ae0 1dbe d660 63bd 9783 8c3e 19d5 57be
00000110: 1b16 60be b372 953d 2243 a93d 424e c73d
00000120: eaa4 8f3d 5c37 1d3d e8ba b2bc a159 84bd
00000130: 6740 ddbb b3a4 75bd 36b3 793d c302 ea3d
00000140: 6dc3 9fbc 05ff 2e3e 75d3 eb3c 4954 ffbd
00000150: a950 403e 97db e0bc 7cc2 7ebd 390f 1abe
00000160: 5838 78be 1309 edbd 5a4f 03bd a88e eb3d
00000170: a193 4e3e f9fa dd3d ac71 38bb e926 b6bc
00000180: 1869 d73c d439 2ebe e7d1 6bbe f7a3 bf3d
00000190: 3c1a 63bd 68c6 edbc 1e7e 0fbd 29fe acbe
000001a0: 47e5 043d 21a0 383e a921 a6bc 8e94 4d3e
000001b0: bf1b 643e 87f9 70bc 1cef 6039 2bb4 9fbd
000001c0: 617f 8d3d 8f6e 7abc 1413 3f3d 0bf5 483e
000001d0: 8779 95bc 90ff e83d 3603 103c 6dda f3bc
000001e0: e835 00be 5ffb 03bc 6ab3 fa3d 47e8 523d
000001f0: 9948 cd3d fe85 883c 6f98 0abc 8948 dc3c
00000200: 5aca 923d dde2 313e fb8c 373e 3f5a 7d3b
00000210: 1cc9 bbbd 012d 573d 540f 863c fee1 c93d
00000220: c4ed 9d3e 0746 f2be bd16 bdbe 7da1 cfbe
00000230: fe4e 94bf 554a fa3c b619 1d3e 9e0f b5bc
00000240: de6b 09bd b6e6 1dbe 0205 d5bc 9d51 073c
00000250: 0700 be3c 3e5b 153d 94fd 0b3e a6c3 0a3d
00000260: 1b66 39be c6f0 0f3e 07e2 623d f25f c7bd
00000270: 67e0 96be d1fd 0cbf 9f12 2e3e c476 46be
00000280: 0d1e 93bb 9593 b13d ff13 63be 2b71 893d
00000290: 25ea c93d 334e 1e3e 9e6e c339 c949 683d
000002a0: 1e77 c93d 21b5 343e 3e4d 323d 1e29 0cbe
000002b0: 7b8d 833d f473 213e 5a09 72be abfb b6bc
000002c0: e91a 24bd a056 8ebe 71a6 60bd 38a2 a73c
000002d0: 581f 8d3d 284e c3bd 02b1 14bd 4cd7 833d
000002e0: 5f34 563c e405 d63c 1cb0 0cbc 49b7 103e
000002f0: 74fe f73d e51d 103e 44a2 3c3e 053d 30be
00000300: 219d b6be 243b a0be e9ad 70bf 8ca5 88bd
00000310: a31d 9ebc c300 74be e04e 09bd d6fb adbd
00000320: e047 42be c93f 3fbd f79a e53c ae89 6b3e
00000330: f2fb 03be a2a2 62bc 6aef 3e3b 7188 8ebd
00000340: 8d66 26bd 6b00 8f3d f5bb 083d 986c 023e
00000350: c1be b03d 2aaf 43bc af65 e1bd ff34 b33d
00000360: 0e26 e5bc 87e3 2fbe e28e efbc 5f82 47bd
00000370: eee2 b2bd a796 413d 439e dc3d 3ded 623e
00000380: 6eda 333b 0769 a43d f704 833d 11e8 4ebe
00000390: cca3 943d abf9 413c b015 e63e 2492 fb3e
000003a0: 39f7 613d 908c cfbd eabe 88bc 0aac 2cbc
000003b0: 44c7 a23c 3aeb 923e ee5f 9abd 343e 28be
000003c0: 6344 86bc e761 d5be c94c 493d 6a9e d03d
000003d0: 148f ce3d c6bb 4cbd c322 be3d bea5 da3d
000003e0: 64e1 733c 128c b5bc 1dfc 97bb f732 8f3c
000003f0: 70d5 dc3d ebb4 423e d3ca 49bd 56be ddbd
0.09054708 0.09772667 0.08563626 0.050865445 0.100950465 -0.16114573 0.13086483 -0.006367796
0.100638814 -0.095072284 0.14722146 -0.09841862 -0.14930826 -0.18540765 -0.40761477 0.08001065
0.1406068 0.0118592605 -0.06184144 0.1968119 -0.07621709 0.077315964 0.07027286 -0.17989586
-0.06997152 0.028530372 0.017588474 -0.038417693 -0.061998066 -0.1682619 0.025516419 -0.09896194
0.003240114 0.112385 0.07713792 0.16555391 -6.822203e-05 0.115830526 -0.07274425 -0.07331135
-0.09419867 0.020504428 0.13457249 -0.034185395 0.09758733 0.15290737 0.36563873 -0.12425855
0.13038808 -0.026578566 -0.08313294 -0.116067566 -0.054472864 0.045043573 0.072659716 0.10721969
0.21622881 -0.13154736 -0.050152574 0.010976004 -0.079755545 0.16886832 0.0643184 -0.11491836
-0.15417615 -0.05551227 0.27444145 -0.21077384 -0.21883433 0.07297268 0.08264758 0.09731723
0.07013877 0.038382873 -0.02181764 -0.06462408 -0.006752062 -0.059971523 0.060961924 0.11426308
-0.019502366 0.1708947 0.028787354 -0.12467248 0.1878077 -0.027448459 -0.062197194 -0.1504487
-0.24240243 -0.115739964 -0.032058097 0.11501819 0.20173503 0.10838885 -0.0028143926 -0.02223535
0.02629523 -0.17014247 -0.2302929 0.09357446 -0.05544494 -0.029025272 -0.035032384 -0.3378766
0.03244522 0.18029834 -0.020279722 0.200762 0.2227621 -0.014707929 0.0002145138 -0.07798036
0.06909061 -0.015285148 0.046649054 0.19624726 -0.018246425 0.1137687 0.008789828 -0.02976724
-0.12520564 -0.008055537 0.12241252 0.05149105 0.100236125 0.016665455 -0.008459195 0.026890056
0.07167502 0.17371698 0.17924874 0.0038658527 -0.09169218 0.052533153 0.01636473 0.09857558
0.30845463 -0.47319052 -0.3693141 -0.40552893 -1.1586607 0.030553022 0.15341839 -0.022102173
-0.033550136 -0.1542004 -0.026003364 0.008259204 0.023193372 0.03646397 0.13670951 0.03387799
-0.18105356 0.14056692 0.055391338 -0.09735097 -0.2946808 -0.55074793 0.16999291 -0.19381243
-0.0044896663 0.08670727 -0.22175597 0.06711038 0.09859113 0.15459518 0.00037275715 0.056710992
0.09837173 0.1764722 0.043530695 -0.1368756 0.0642347 0.15766889 -0.2363638 -0.022336802
-0.040064726 -0.27800465 -0.05484623 0.020463094 0.06890744 -0.095363915 -0.03630162 0.06437549
0.01307401 0.026125856 -0.00858691 0.14132418 0.1210908 0.14073904 0.18421274 -0.17210777
-0.35666755 -0.3129512 -0.94015366 -0.066722006 -0.019301241 -0.23828416 -0.033522487 -0.084952995
-0.1897273 -0.04669169 0.028027995 0.2300174 -0.12889078 -0.01383272 0.00291344 -0.06959618
-0.040625144 0.069825016 0.033382375 0.12736738 0.086301334 -0.011943618 -0.11005723 0.087503426
-0.027972247 -0.17176639 -0.029242937 -0.048708316 -0.0873469 0.047262814 0.107723735 0.22160812
0.0027443427 0.08027845 0.06397431 -0.20205714 0.07257804 0.011839311 0.4493842 0.49134934
0.05516741 -0.10134232 -0.016692597 -0.010539064 0.019870408 0.2869509 -0.075378284 -0.16429979
-0.016390031 -0.41676256 0.049145494 0.10186465 0.10085884 -0.049983762 0.09283974 0.10676144
0.01488528 -0.022161517 -0.0046382085 0.017480357 0.107828975 0.19014327 -0.049265694 -0.10827319

hidden_fc.bias f4 [64]
00000000: 3087 03bb bee9 f1bd 16ea fc3d e95f ecbd
00000010: fb68 f13d 2559 90bc 6de2 cdbd 9cec 38be
00000020: d6f7 d63d 20c6 743c ab31 33bd cb15 24bc
00000030: cc66 a53c ee4b 4bbe 3ca5 173d c867 153c
00000040: 5e74 1b3e d38e fbbd 45c7 eb3c 49ed 3ebc
00000050: d4f2 673b 4344 0a3e e46b 17bd 4323 3dbd
00000060: d3bc d63a 4587 9d3d a783 2dbd ff50 0bbd
00000070: 4fdc 1b3c ab92 2ebe d678 1a3d 4a35 0b3d
00000080: f30a e33d 483d 1c3e 3f34 73bc e09e fbbd
00000090: 7db6 663d e875 4b3e 6544 7abe 2676 6d3c
000000a0: 1d41 1ebe ef2e a83a 3e8b 253e cf63 5d3d
000000b0: 2cd3 0b3c 23fd 843d 505d e43c f786 d2bb
000000c0: 6cb0 58bd 3b9f 6abc 208c ed3c 7623 57bd
000000d0: 462f 123e eb02 8d3c 170e 07be a1a4 ddbd
000000e0: fd35 13bc 6a73 913d 9b89 173e 86d9 ebbd
000000f0: ba73 f9bd c7a1 6bbd ceb2 913d 666d 0d3d
-0.0020069592 -0.11812161 0.12349336 -0.11541731 0.117876016 -0.017620632 -0.10052953 -0.1805901
0.1049649 0.014939815 -0.04374854 -0.0100149615 0.020190619 -0.19853184 0.037022814 0.009118982
0.1518111 -0.12283101 0.028781543 -0.011653253 0.003539254 0.13502602 -0.036968127 -0.046176206
0.0016383178 0.07691816 -0.04236188 -0.03401279 0.009512975 -0.17048137 0.037712894 0.033986367
0.11086073 0.15257752 -0.014843999 -0.122861624 0.056326378 0.19869196 -0.24440153 0.014493501
-0.15454526 0.001283137 0.16166398 0.054050263 0.008534234 0.064935945 0.027876526 -0.0064247805
-0.052902624 -0.01432019 0.02899748 -0.052524053 0.14275846 0.017213305 -0.13188969 -0.10822416
-0.00898504 0.071020916 0.14798586 -0.11516099 -0.12180276 -0.05752733 0.071141824 0.03452816

value_fc_hidden.weight f4 [64, 64]
00000000: 116a a5bc fd61 28be 6234 ba3d 73d0 5a3d
00000010: 5f5e 4a3d a703 563c 943d 883c a93f 9dbe
00000020: ab21 653c fa01 cf3d 421b efba 3cd4 663d
00000030: af64 6fbd 3910 723d c253 d0bc adfc 043d
00000040: 9e85 c93c d108 b13d 64d3 813b 1754 41bd
00000050: c2da 68bd 0c30 07bd f88c d7bc d5a4 0cbe
00000060: 6b92 0f3d d79c 25bd 4f64 b83c 1328 833c
00000070: 434b 31bc a3ee b0bd 814b c6bd b552 03be
00000080: d125 4e3b aaf8 ffbc 1701 67bd 8b74 4fbd
00000090: 546a 3a3d c5ee 393c c177 0d3e 178f 7b3d
000000a0: 8424 7bbd 1171 04bc 991b c43c a695 3d3d
000000b0: ac1f 0b3e 0ea2 603c 7829 2b3e 6ac2 8f3d
000000c0: de36 06be c145 33bd 8a7f 513d 065b 073d
000000d0: 19f2 8ebd b7eb edbd c998 933b 67f6 17bd
000000e0: d84c 1b3e dd00 a23d d4fb 863c 1924 3c3d
000000f0: aa2b 32be 26cc 863d 51f9 c83d 7ff0 233e
00000100: 1583 27bc 10f3 0bbd 2a30 953c a37c 8e3d
00000110: dc1a 813c a92f 133e 0f80 e0bd d5f7 073f
00000120: 8bd2 c1be 382a cbbe 3f8c fa3d 479c 343d
00000130: 8dd0 b3bd 610b cbbd 84e9 99be 6457 1a3d
00000140: 8ca5 91be fa31 593e d69e b03c 2948 96bd
00000150: 49a2 033e 8e1a b73a 977c cdbd 5fa4 dcbe
00000160: fced 0abe e585 10bf 8b79 3e3e 4507 9fbe
00000170: 0485 4b3d 942b 87be feeb e63e b691 88be
00000180: 3253 81be 0ded 4f3e 56bb 3ebe e5c8 5cbd
00000190: e79d 1dbe 364d 0dbf c825 88be 9525 37be
000001a0: bb09 c43e 9b6e 8cbe c28e 8b3d b1c9 b2bd
000001b0: 35a2 3d3d 6e8c fb3e dbaf 72be f8e9 b03e
000001c0: 68fb 3f3e ec5d 06bf 2ed6 243d 35b5 c43c
000001d0: 043b e33d f0a7 55be 8406 23bc 5e94 5dbe
000001e0: f6f5 d2be 81ab 1cbf 9f77 23bd 765f f8be
000001f0: 4df7 f5be a652 3dbe e745 163f 2495 693e
00000200: 2674 43bd 70fa 34bd 559c 72be bb51 45be
00000210: 15a2 e9be 9228 69be 3efe 973e b3d7 50be
00000220: 9892 94bc 190a e03d ba9d 0cbe 4df2 a33e
00000230: ee55 0abe d675 c6bc 2cd2 d2ba 2f26 e13d
00000240: 5ce0 fc3d 5134 96ba d19b 333d 784b c1bd
00000250: d6d7 ce3d 624f b9be 15ab f23d 7d5f 9e3c
00000260: acbc 2d3e 29ea 0fbe d1f2 e33c b423 93bd
00000270: 55e5 d2bd 2ab3 0ebd 899b f6bd 6fea e13d
00000280: 8792 4c3d 640f 513e 5645 febd 86e0 1bbc
00000290: ce97 f9bd 0482 c13c 0feb 193b 46d8 dbbd
000002a0: 5a9f 3ebd 0c74 dfbd 407c e2bd 6082 1fbe
000002b0: 554c bf3e 194f 053d a99b b8be ee82 213e
000002c0: 438e febd 2215 cd3d 617c 1a3d d0d5 e1bc
000002d0: 709e 3b3d 4b10 61bd 8caf 193d 9063 febd
000002e0: 5908 303c e561 5dbd acbd 8ebd e675 21bd
000002f0: 0c20 793c 93b5 123d d067 ab3b 94b3 763e
00000300: be3e ff3c 099f c8bd e7a4 e93d 26a2 0b3e
00000310: b8ee 74bd e221 4d3d 0758 093e 089c 30be
00000320: cf9c afbd 13f9 a13d a1db 9bbd f48a 8f3d
00000330: 3304 2fbd 14a6 8c3b 2271 7fbd d143 04bd
00000340: 8221 c03d 142a bc3d d37e cf3c 4cab 043e
00000350: 9238 82ba e5e2 003e 3855 30bd 1800 18bd
00000360: e998 9b3c c841 d13d d295 2e3e 6bff 733d
00000370: 7231 6f3d 43d3 543d 7493 11be a2de 643c
00000380: 1379 763d 8036 5ebd 6b64 143e 9db1 933d
00000390: f0e7 0a3e ea59 ba3d 3cff 2e3d 9f79 99bd
000003a0: 4ea8 96bd b2c2 583d cf4f 3d3d 40a3 0e3e
000003b0: 2673 833e 79ba 8d3c d1c5 c23d dfa1 2dbc
000003c0: 1e75 41bd 3225 693d d700 f73d 9ca8 a83d
000003d0: 64d7 9a3d a8eb cabd 802c 0c3e 8a08 f6bc
000003e0: 678c 3e3e 947a ad3a 8b61 943d 0c45 dbbd
000003f0: 1993 9abc 4a8b 113d 591b 83bb 3c7a 1e3e
-0.020192178 -0.1644363 0.090920225 0.05342145 0.049406406 0.013062394 0.016630925 -0.3071263
0.013985078 0.10107799 -0.0018242376 0.056354746 -0.05844563 0.059097502 -0.025430564 0.032467533
0.024599846 0.0864426 0.0039619673 -0.047199335 -0.05684925 -0.033004805 -0.026312336 -0.13734753
0.035051744 -0.040432777 0.022508768 0.01601032 -0.010821166 -0.08639266 -0.0968237 -0.12824519
0.0031455646 -0.031246502 -0.056397524 -0.050648253 0.04551156 0.011348431 0.13815214 0.061415758
-0.06131412 -0.008083598 0.02393894 0.046285294 0.135863 0.013710512 0.16715038 0.070195034
-0.13106868 -0.043767694 0.05114702 0.03304579 -0.0697977 -0.11617225 0.0045042974 -0.037100222
0.15166032 0.07910321 0.016477503 0.045932863 -0.17399469 0.06581907 0.09813178 0.1600971
-0.0102241235 -0.03416735 0.018211443 0.06957366 0.015759878 0.1437365 -0.10961925 0.53112537
-0.37855944 -0.39680648 0.12233781 0.04409435 -0.08780012 -0.0991428 -0.3006097 0.037681
-0.28446615 0.21210471 0.021560114 -0.07337982 0.12854876 0.0013969706 -0.10033529 -0.43094155
-0.13567346 -0.56454307 0.18601052 -0.31060234 0.0496874 -0.26400435 0.45101923 -0.2667367
-0.25258785 0.20305271 -0.1862615 -0.053902525 -0.15392266 -0.5519594 -0.26591325 -0.1788543
0.38288674 -0.27428135 0.06814338 -0.08729876 0.04629727 0.49130577 -0.23699896 0.34553504
0.18748248 -0.52487063 0.04024332 0.024012187 0.11095241 -0.20864844 -0.009950284 -0.21638629
-0.41203278 -0.61199194 -0.039909 -0.4851033 -0.48040238 -0.18488559 0.5870041 0.22810799
-0.04771819 -0.04418415 -0.23692448 -0.19269459 -0.4563147 -0.22769383 0.2968616 -0.20394783
-0.018136308 0.10939426 -0.13732043 0.32020798 -0.13509342 -0.02422611 -0.0016084365 0.10993611
0.12347481 -0.0011459683 0.04384977 -0.09438223 0.10099761 -0.36193377 0.118490376 0.019332642
0.16966504 -0.14054169 0.027825745 -0.07184544 -0.10297648 -0.034838833 -0.12041385 0.11031043
0.049944427 0.20416027 -0.124155685 -0.00951398 -0.121871576 0.023621567 0.0023486053 -0.1073461
-0.04653869 -0.10910806 -0.11058855 -0.15577078 0.37362924 0.032546137 -0.3605626 0.15772602
-0.12429478 0.100137964 0.037716273 -0.027567774 0.045805395 -0.05494718 0.03752093 -0.12421334
0.010744178 -0.054048438 -0.06969771 -0.039419077 0.0152053945 0.035817694 0.0052308813 0.24091941
0.031157847 -0.097959585 0.11408406 0.13636073 -0.059797972 0.05008114 0.13412486 -0.17247021
-0.08574831 0.07908835 -0.0761025 0.07008925 -0.042728614 0.004292259 -0.06236375 -0.032291237
0.09381391 0.09187713 0.02532903 0.1295597 -0.0009935072 0.12586553 -0.04305002 -0.037109464
0.018993812 0.10217625 0.1704934 0.059569757 0.058396764 0.051959287 -0.14216405 0.013969095
0.06017406 -0.054251194 0.14491431 0.072116114 0.1356504 0.09099181 0.04272388 -0.074939005
-0.0735632 0.05292005 0.04621869 0.13929462 0.2567379 0.017300831 0.09510387 -0.010597675
-0.047230832 0.056920238 0.12060707 0.08235285 0.07560614 -0.09908229 0.1368885 -0.030033369
0.18608247 0.0013235384 0.07245167 -0.10706529 -0.01886897 0.035533227 -0.004001063 0.15476316

value_fc_hidden.bias f4 [64]
00000000: 7497 323e 0999 03be fb0f 903d 0550 6a3e
00000010: cbbb d53d a890 723d cc82 623d 0f95 803c
00000020: c103 66bd 1be0 5d3e 8454 7a3e feba 89bd
00000030: 958b 48bd 5708 083d 4215 d4bc 3b8c b03c
00000040: d2cc 53bc f149 f43c 9287 6b3d 0ef9 083d
00000050: 6606 83bd d8ed da3d 592d 7f3e 4a33 863c
00000060: 3d38 073d 3b56 b7bb 4f57 e63d e14e 263e
00000070: c299 e9bc ece9 983d 523d 08be 4698 693c
00000080: 026f 5d3d 9564 503c 5a33 133e ffd9 1c3d
00000090: 96c8 cabd 3119 663e 722f e2bd ba65 8dbd
000000a0: 81bf 1e3d 2a89 b6bd 3d04 82bd 9b01 aabc
000000b0: af70 a5bd 42bf 59b8 0996 efbd b2c4 b8bd
000000c0: 4bd5 7abd 37b0 163d ec06 403b 05c4 45be
000000d0: 9f2e 053c 0bc1 18bd 34ec ba3d c638 673e
000000e0: 0e7c 30bd e470 893d c52e 70bd 3766 3bbd
000000f0: 2d27 08be 452b 2cbe 3538 0f3e 1e36 9dbd
0.17440587 -0.12851347 0.07034298 0.22882088 0.10436209 0.059219986 0.05530052 0.015696077
-0.056155924 0.2166752 0.24446303 -0.06725119 -0.04896124 0.03321108 -0.025889043 0.021551242
-0.012927251 0.029820414 0.057502337 0.033440642 -0.06397705 0.10689896 0.24919643 0.016381878
0.033012617 -0.0055949963 0.112471215 0.16241027 -0.0285157 0.07466492 -0.13304642 0.014257496
0.054060943 0.012719293 0.14375058 0.038293835 -0.0990154 0.22470547 -0.11044206 -0.069041684
0.03875685 -0.08912881 -0.06348465 -0.020752719 -0.08078133 -5.1914954e-05 -0.11698539 -0.09021892
-0.06123857 0.036789145 0.0029301 -0.19313057 0.008128791 -0.037293475 0.091270834 0.22580251
-0.043087058 0.06710985 -0.058638353 -0.045751777 -0.13296194 -0.16813381 0.13986285 -0.07676338

value_fc.weight f4 [1, 64]
00000000: 9f14 ee3c 4bfd febe 5a9c 903e 5aa9 f43d
00000010: 8ae4 073e 3987 26be e2bb b6bd e3b6 c5bc
00000020: cd22 e63d 19da da3d 08fc 2e3e 1be2 2e3e
00000030: 693e 653e 0e96 df3d d7f1 1dbc 7c52 6abe
00000040: db48 d5bd 2fb2 33be a3ed 0b3e 8367 d2bd
00000050: 7826 07be 19b6 e93d af3f b33d bfec 27be
00000060: 877f 7fbf 6bb0 8c3d ab2e df3d c2a9 cc3d
00000070: ca81 f4be e6f4 103e dfe5 c7bd 50fc 013d
00000080: 778f 463e b58f b3bc 950d e03d 7465 9ebd
00000090: b51d 71be edba fb3d 8115 55bd 7f59 abbe
000000a0: 96f1 a1be f147 91be bb32 5e3e 5348 f33d
000000b0: 80b6 ab3e b7b8 9abd e5a1 d4bd 5b79 47bd
000000c0: e37f b1bb 115f 6ebd b4d9 a0bd 240e edbd
000000d0: 36d6 9abd e54e 0b3d f68b 203d 48ea 9a3d
000000e0: 4e5b 84bc fac6 1dbf 67e7 423e 45ad 15bc
000000f0: 3bd2 c1bc 9f83 67be a2e8 a03d 2d35 31bd
0.029062567 -0.49802622 0.28244287 0.11946364 0.13270774 -0.16262521 -0.089225546 -0.024135059
0.112371065 0.1068613 0.1708833 0.1707844 0.22387089 0.109172925 -0.009640179 -0.22883028
-0.10414287 -0.1754844 0.1366487 -0.102736495 -0.13198268 0.114116855 0.08752381 -0.16398905
-0.99803966 0.068695866 0.10897573 0.09993316 -0.4775527 0.14155921 -0.09760641 0.031734765
0.19390665 -0.02191911 0.109400906 -0.077341944 -0.23546489 0.12291513 -0.05202246 -0.33466718
-0.31629628 -0.283752 0.2169904 0.11879029 0.33537674 -0.07554763 -0.103824414 -0.048699718
-0.0054168566 -0.05819613 -0.078540236 -0.11574963 -0.07560389 0.034010787 0.039195977 0.07564217
-0.016156819 -0.6163174 0.19033585 -0.009135549 -0.023659816 -0.22608803 0.07856871 -0.043263603

advantage_fc_hidden.weight f4 [64, 64]
00000000: 6ff2 bbba 0b6f 193e ccbd ed3c d868 8bbb
00000010: fd76 993d fc2e d7bd c78f 88bd 90b6 77be
00000020: c3c9 fc3d d99f f0bc ed8c 84bc 1ce7 23be
00000030: 59d9 2cbe cc1d 1fbe cdbe 56bd 2f6b 1cbe
00000040: 766e 543e 8975 9bbd 4644 4e3b b42f a13d
00000050: ae3d 68bc 98f7 aebc be95 2b3c b6fd e93d
00000060: eeea 8b3e 6241 c6bd 613d 0d3d a0d9 bebd
00000070: 6ea9 c8bd 4994 0ebd e3b2 c23d e0aa 1cbe
00000080: 73a3 083d 8d9c 9ebd f6fa 763d 31c9 563c
00000090: 14fd 18be 054d 91bd 4110 773d 15a4 d0bd
000000a0: c690 42bd 7335 073e 4714 e13c af31 25be
000000b0: 792f 68bd cbcc c53d 1b68 923d 91a4 4abc
000000c0: 43f2 9a3d 7999 253d 38b1 d83d 3551 a3bd
000000d0: 1c35 b03d 201c 2c3d 62fc e3bd e10c a5bd
000000e0: e55b 6b3d 9bba 863d 4519 203a 1708 0b3e
000000f0: e7da 943d d46f 113e 4749 2d3e 616b 903b
00000100: 59ba e3bd de07 0cbd 55e1 e0bc 0bc1 cbbe
00000110: 6a2c 67bb 5734 c13c 5c04 04bc c6db babd
00000120: 4216 2fbd 02c7 90bd 9762 1fbe 2670 a23d
00000130: 3f54 a63c 0c5c 6bbd 1003 883d 23bf 9dbd
00000140: 7cc0 983d 7d09 823d 7f5f 76bd 2fd3 aa3d
00000150: 0d1e 833c dc44 39bb 99b3 f7bd 0ff7 a43d
00000160: 3c43 803e 5265 92bd a5b6 d6be 321a 89bd
00000170: 9d65 ae3d 39a0 9fbd e6c5 d43d 4d7a 9fbd
00000180: d9b8 2abe 38fe c5bd 2213 17bc 3578 863d
00000190: 0443 febd 148b 6a3c 38b2 31ba 524b 36bc
000001a0: acc2 a53c 8768 903d 24c6 303d f031 3abd
000001b0: cda0 8b3d 9592 8fbe 554b 063f aaa3 c0bd
000001c0: 0504 343d 6e0f 823d 2d85 9d3d 9a1f 993d
000001d0: 2328 013e 30a0 d83d 6298 063b 6220 d93c
000001e0: d99c 3e3d 3f8b 2abb 7620 09be 3b35 173d
000001f0: 303b 4d3d 013c e13d 801b ba3c 6b29 993d
00000200: 3fec 06bc 21ee 85bb 3980 66bd f3c8 d83b
00000210: eeb3 863d 15fb 403e e421 ebbc d442 c6be
00000220: 8086 25bd a4a1 943d b0be b1bd 028d 563e
00000230: 550f ee3c dfa9 c03d b11b d73d ffdb 4b3b
00000240: 40e0 e03d 03f9 14bd ca63 243d cb7e adbc
00000250: b441 15be 9eee ac3c baa1 86bb 3a16 5cbd
00000260: 4f38 c53c 69bf 5ebd 170a b03e 6c2a eb3d
00000270: e1bd 81bc 0929 613d 6145 a03d f987 ea3c
00000280: 98f7 85bd 643f 14bd e7ef 85bc 0eb2 a23c
00000290: f3b9 aabd 42da 6e3c ef13 6b3e 60db 0bbd
000002a0: 84b0 493d 2856 fb3c 4dda 8c3d d2a1 a83d
000002b0: cdfd 063e 8dd7 413e 49b6 613e cb9c 22bc
000002c0: 2fc7 d03d 74d1 f23b 3daf ecbd 467a 103d
000002d0: ff56 be3d cf06 2d3d 5c7c 293d 755d 3c3d
000002e0: d166 1e3c 51ab 13be aacb 173c 742c 1c3e
000002f0: 6257 0f3d 5bd9 56bd f541 0abe abeb 0b3e
00000300: a868 6fbd 140e 03be cc5c 87bd 3b03 e4bc
00000310: 5a44 bc3c d3a0 2abd 61f2 3ebd ea65 433e
00000320: 8822 08be 336c 7cbc 4f16 20be 3c7a 18bd
00000330: 8f78 9c3c a07f 1f3e aa8e babd d3b3 223e
00000340: 685b 823d 3a58 8b3d 483c 87bd b2d8 a33d
00000350: b1bd 963d 7e85 78bd 59af b03b db3e ab3d
00000360: 4aed f23d 2ee9 dbbb 64db 513e c497 bd3d
00000370: 8562 d3bb 4fc8 353c b3e5 263e c22b 10be
00000380: 5de1 023d 4282 bdbd dc04 a0bd 580b 603c
00000390: d649 ffbd 5193 e43d 0c6a 393e 7d80 e2bd
000003a0: 004b 523e 91f2 c7bd d144 293d 927a 1dbe
000003b0: 262a 523e 1d28 82bd f255 993e 84dc 4e3e
000003c0: dcf0 21bd 04e4 ed3c 6af5 9bbd 3575 0f3d
000003d0: a677 48bd 4243 1c3e ee92 fdbb 60ff 8a3c
000003e0: 222f 4abd a94c bc3a febb 993d 10ff b73d
000003f0: 99be d7bd 915d 153d b1e7 18be 3a86 893e
-0.0014339219 0.14983766 0.029021166 -0.0042544417 0.07493398 -0.105070084 -0.06668048 -0.24190736
0.123431705 -0.029373096 -0.01618048 -0.1600613 -0.16879787 -0.1553871 -0.052428056 -0.15275262
0.20745263 -0.075907774 0.00314738 0.07870427 -0.014174862 -0.021358296 0.010472713 0.11425345
0.27327675 -0.096804395 0.034482364 -0.093188524 -0.09797941 -0.034809384 0.09506776 -0.15299559
0.033359002 -0.077447034 0.06029793 0.013109491 -0.14940292 -0.070947684 0.060318235 -0.10187546
-0.047501348 0.13203983 0.02747549 -0.16132234 -0.0566859 0.09658202 0.07148763 -0.012368337
0.07565739 0.040429566 0.10580677 -0.079744734 0.0860388 0.04201901 -0.111321226 -0.08059097
0.057460684 0.06578561 0.0006107281 0.13577305 0.07268315 0.14202815 0.16922484 0.004407332
-0.11119527 -0.03418719 -0.027451197 -0.39795718 -0.0035274276 0.023584528 -0.00805768 -0.0912395
-0.042745836 -0.07069208 -0.15564953 0.07931547 0.020303844 -0.05746083 0.06641209 -0.07702472
0.074585885 0.06349466 -0.060149666 0.08341061 0.01600554 -0.0028269803 -0.120948024 0.08054935
0.25051296 -0.071482316 -0.41936222 -0.066944495 0.08515475 -0.07794232 0.10389309 -0.07786999
-0.16672076 -0.09667629 -0.00922087 0.065658964 -0.12415126 0.014315385 -0.0006778571 -0.011126356
0.020234428 0.07051187 0.04315771 -0.04545778 0.0681778 -0.2804152 0.524587 -0.094062164
0.043949146 0.06350599 0.07691417 0.07476731 0.12612967 0.10577428 0.0020537605 0.0265047
0.0465363 -0.0026022939 -0.13391289 0.036916 0.050105274 0.10997773 0.022718191 0.07478603
-0.008235036 -0.004087225 -0.056274626 0.006615752 0.065772876 0.1884578 -0.028702684 -0.3872286
-0.040411472 0.07257393 -0.08678949 0.20952228 0.029060045 0.094074 0.105033286 0.003110647
0.10980272 -0.03637029 0.04013423 -0.021178624 -0.14575845 0.021109875 -0.004108635 -0.053732134
0.024074702 -0.05438176 0.34382698 0.11482701 -0.015837612 0.054970775 0.07825733 0.02862929
-0.065413654 -0.036193267 -0.016349746 0.019860294 -0.08336248 0.014578404 0.22956823 -0.03414476
0.049240604 0.030680731 0.06877575 0.0823399 0.13182755 0.18929882 0.22042193 -0.009925078
0.10194241 0.0074102227 -0.115568615 0.03527286 0.09293937 0.04224282 0.041378364 0.045987565
0.009668068 -0.14420821 0.009264866 0.15251333 0.034995444 -0.05245338 -0.13501723 0.13664119
-0.058449417 -0.12798339 -0.066094965 -0.027833572 0.022981811 -0.04165728 -0.04661787 0.19081846
-0.13294423 -0.015406656 -0.1563351 -0.037225947 0.019100456 0.15576029 -0.09109242 0.1588891
0.063650906 0.06803937 -0.066032946 0.08000316 0.073603995 -0.060674183 0.005391997 0.08361598
0.118616655 -0.006711147 0.20493847 0.092574626 -0.0064509534 0.011095121 0.16298561 -0.14079192
0.031953204 -0.0925336 -0.07813427 0.01367458 -0.12465255 0.11160911 0.1810686 -0.110596634
0.20536423 -0.09763063 0.041325394 -0.15378788 0.20523891 -0.06355307 0.29948384 0.20201308
-0.039536342 0.02903939 -0.076151684 0.035023887 -0.04894223 0.15260032 -0.0077384626 0.016967475
-0.049361356 0.0014366108 0.0750656 0.08984196 -0.105344005 0.036466185 -0.14932133 0.2686022

advantage_fc_hidden.bias f4 [64]
00000000: abf1 46bc 6367 48bd 015d 8d3c 4bf4 5fbd
00000010: 60a8 483d 71a4 983c 3450 813d addf 803d
00000020: c424 9bbd a4e4 7e3d f8c2 3a3d ea87 1dbe
00000030: aebe b1bd f4cb 85bd 8060 ebbc ae23 6d3d
00000040: c8e5 0cbe 4532 353d bae9 423d 80c3 f7bc
00000050: 3666 ddbd 30a0 ebbc 25d8 aa3b 4757 91bb
00000060: f285 0c3c 6fe2 8bbd cbae d2bd 7ec3 3abd
00000070: 969e 81bd aa7f cdbd 3525 bcbc 0dcd a73d
00000080: ecdb 0ebd 5b08 97bd 2b36 e3bc 1120 92bd
00000090: 9bd5 3fbd 3311 27bd 47be d53b 5e06 aa3d
000000a0: 96fb 78bd 5eb9 6cbc bcff d8bc 9d30 be3d
000000b0: 60f4 04be 80e9 12bd 5d01 c8bd 33c0 053d
000000c0: 382e 953c e4cf 46bc 88c2 b93d 415e b8bd
000000d0: 2f81 8b3d 77de c93d db02 07bd a548 ba3d
000000e0: 8501 bbbd 0115 25bd 2c0f 8a3d b12e 6a3d
000000f0: fec5 99bd a8d3 06be e3cf 19bd 785f 84bd
-0.012142579 -0.048926722 0.017256262 -0.054676335 0.0489887 0.0186331 0.06314126 0.06292663
-0.07575372 0.062229767 0.045596093 -0.15383878 -0.086789474 -0.065330416 -0.028732538 0.057895355
-0.1375953 0.044237394 0.04758618 -0.030244589 -0.10810511 -0.028762907 0.0052137547 -0.004435453
0.008576857 -0.06830298 -0.10287245 -0.045596592 -0.06329076 -0.100341156 -0.02296696 0.08193407
-0.034877703 -0.073746406 -0.02773579 -0.071350224 -0.04683457 -0.040787887 0.006522927 0.08301996
-0.060786806 -0.014448492 -0.026489131 0.09286616 -0.12983847 -0.035867214 -0.09765885 0.032654
0.018210515 -0.012134526 0.09070307 -0.090023525 0.06811749 0.09856885 -0.032961708 0.09095887
-0.09131149 -0.040303234 0.06741175 0.057173435 -0.07508467 -0.13166678 -0.03755177 -0.06463522

advantage_fc.weight f4 [4, 64]
00000000: d22f 9dbd d437 2dbe c293 f5bd 0d84 b0bd
00000010: dcf2 66bd aafa a13d 6f27 ca3d 935b 9a3d
00000020: 62fa 483c 6154 c3bd 8f87 ce3c 0a1b 4a3e
00000030: b019 193c 7b11 733c ff52 35bd 6788 0ebe
00000040: 3c90 6c3e efb7 f23d 8683 d83c d830 cfbd
00000050: 289c 10bd fc52 7f3d aa90 b8bd e055 a8bd
00000060: d14a 5e3e 6675 a7bd 7e3c fc3d 25e1 203e
00000070: fc3a 383d 7b09 183d 5dab 8cbd fe66 1a3d
00000080: a79c 15bd 9a49 113e efd0 c2ba a6d9 83bc
00000090: 506d 67be ade6 783d 9f7a 5ebd dd0f 74bd
000000a0: 855f be3d dc15 083e 0a91 ad3d b1fd 1bbd
000000b0: aca3 993d 797d 563d 920a a03d b20b d9be
000000c0: 112c debc fd53 1b3b 6b27 66bd ecae 56bd
000000d0: ef96 34be cb8d d6bd 609a 16be 9b32 3cbc
000000e0: 8646 743c 8bdf a03e a3e7 c7bd 4845 993d
000000f0: 5db1 e63d 38db 31bd f6a8 9c3d 7691 a93e
00000100: a4d9 21bd 7629 abbd b49e 4cbd 03ad cd3d
00000110: b1ba 8cbd 1946 a5bd 9c5e dfbc 9842 ccbe
00000120: 5289 293d 629e 22bd d5a0 dc3b 807e 173f
00000130: e177 bfbd 9d5d 503e b7d1 313c b32f 433d
00000140: 803a ebbd 5a24 283c 7ff8 d2bd 40e5 a23d
00000150: 4ec6 8dbc 97dc 73bd a057 29be 04c1 be3b
00000160: bc46 1bbe 5f89 a3bd a729 77be a10c 483d
00000170: cf3e b3bd 794e fabd 224d 06bc 12e9 b53e
00000180: 3464 c23d 670c 1c3e 81f8 b3bc eef8 8cbd
00000190: 775e 363e 06ee bebd 2863 c6bd 1636 03be
000001a0: 7bb5 ae3d 8056 c43d a108 c7bd 8c84 c8bc
000001b0: 9743 093e d9ee bebc 6335 ee3c 2d87 873d
000001c0: 047f dfbd bd3a 393d b0dd 013e 0966 1bbe
000001d0: dfea 49be 9819 0abe d949 963d 3b99 ad3c
000001e0: 79a5 cabd cffa dabd 0994 7d3a d0f0 c53c
000001f0: f41b e63d 0d33 913e fc21 cdbb 711a 5cbe
00000200: e87c 64bd 0714 883e e4fd 08bd b5fb 16be
00000210: 889b c1bd d79d 8b3d ad5a 9d3d 02c0 5bbd
00000220: a8c4 c53d 0b5d ef3c 3fdc a33d 87ed a13d
00000230: a9a2 4abe ae84 e33c e331 bf3d b17f 53be
00000240: 840b 5fbe 0ee8 a43d 793c 32be 6e42 c7be
00000250: 2819 5abe 62d7 253d 0090 783e a274 f93d
00000260: 283b fe3d 9309 583d 6a31 a13e 604a c43d
00000270: 13d4 3ebc a264 fc3d f3d2 783a 35b4 8c3e
00000280: 79cb 31be ccce 853e b060 5cbe 2ba0 0b3d
00000290: 5232 503e 69d5 43bd 8419 4fbe c422 98be
000002a0: 2eba 78bd 8389 02bd a07d 943c cc54 8c3d
000002b0: 96a4 c4bd f895 b6bd 5864 e23d ab04 333e
000002c0: a8b1 9a3b 826e 2e3e 0c37 9fbd 7fb6 793d
000002d0: f1a1 3f3e 00ca 733d d9af 6b3d 61a7 103d
000002e0: afdf 13be 4f37 c63e fc4b 913d b8fc fd3c
000002f0: 7fd0 8c3e ffa7 cebc bddb dabe 1a90 f93c
00000300: 86b5 0e3e f44d eb3b d314 d13d 2d06 283e
00000310: 2e79 803d 8273 6fbe 4b29 103d 431d 9b3e
00000320: 3dd5 32be 3cd3 64bc d72f 393d dcfd ffbe
00000330: 5235 613e 4953 5f3d 6886 44bd 5046 a33e
00000340: 5515 a6bd bd63 f0bd 037c 453e 2ae1 173e
00000350: 5853 c73d f6eb 9bbd 0c4e f9bd 352c 3cbd
00000360: 0df6 a9bd da7f 103e 27df 2abe 08bc dcbe
00000370: ef41 903d 3d5e 003e 72cd aabd 03ec 11bf
00000380: 9cff 313d 1ee6 97be 6749 9d3d e909 6a3d
00000390: 50ef 7dbe 26e5 02be 701a 9a3e 7abc 723d
000003a0: 80e4 36bc f6a7 8a3d 01d3 d33c 8fc7 673d
000003b0: 3212 733d c0dc 20bd 90e8 e23c ab93 92bd
000003c0: e9b2 583c 2a51 0ebe 1ad8 0c3e ba95 fa3d
000003d0: 267a 3c3e 5ce3 ce3d cf6f fc3d 06d3 9a3d
000003e0: ac8f 453d 8667 cdbe e195 563d 721a 3f3d
000003f0: 6f80 b5bd 1394 8fbe 2191 823d d060 25be
-0.076751366 -0.16915828 -0.11991073 -0.08618937 -0.056383952 0.079091385 0.098708026 0.07536998
0.012266727 -0.095375784 0.025211124 0.19736877 0.009344503 0.014835711 -0.044268604 -0.13919221
0.23101896 0.11851489 0.026429903 -0.10116738 -0.035305172 0.062335 -0.090119675 -0.08219504
0.21708228 -0.08176689 0.123162255 0.15710886 0.044978127 0.037118416 -0.068686225 0.037695877
-0.03652635 0.14188233 -0.0014863292 -0.016094994 -0.22600293 0.060766865 -0.05431616 -0.05958544
0.09295563 0.13289589 0.0847493 -0.038083736 0.07501921 0.052365754 0.07814516 -0.42391735
-0.027120622 0.0023701184 -0.056189936 -0.052412912 -0.17635702 -0.104762636 -0.14707327 -0.011486675
0.014909392 0.3142055 -0.09760978 0.074839175 0.11264298 -0.043421954 0.07649414 0.3311879
-0.0395142 -0.083575174 -0.04995604 0.10042765 -0.06871546 -0.08070011 -0.027266793 -0.39894557
0.041390724 -0.039701827 0.00673304 0.591774 -0.09349037 0.2034821 0.010853223 0.04765291
-0.11485767 0.010262573 -0.10301303 0.07953882 -0.017306473 -0.059536543 -0.16537333 0.005821349
-0.15163702 -0.07985186 -0.24136983 0.04884017 -0.08752214 -0.12221999 -0.008197101 0.3552938
0.094917685 0.15239106 -0.021969082 -0.06883417 0.17809473 -0.09322743 -0.09686881 -0.12813601
0.085307084 0.09586811 -0.09718443 -0.024477266 0.1340469 -0.02330725 0.029078191 0.066175796
-0.10912898 0.045222033 0.12682223 -0.15175642 -0.19718502 -0.13486326 0.07338304 0.02119123
-0.09894843 -0.10692369 0.0009673243 0.02416268 0.112358004 0.2835926 -0.006260155 -0.21494462
-0.055783182 0.2657778 -0.033445254 -0.14744456 -0.09453493 0.06817215 0.07683311 -0.05364991
0.0965665 0.029219171 0.08000993 0.07906633 -0.19788612 0.027773228 0.09335687 -0.20654179
-0.21781737 0.080520734 -0.17405881 -0.3891787 -0.21298659 0.04048861 0.24273682 0.12180449
0.12413627 0.052743506 0.31483012 0.095844984 -0.011647242 0.12323882 0.0009491883 0.27481237
-0.17362775 0.26134336 -0.21521258 0.034088295 0.20331696 -0.047810946 -0.20224577 -0.29714024
-0.06072443 -0.031869423 0.018126309 0.06852111 -0.09601705 -0.08915323 0.11054295 0.1748225
0.0047208853 0.17034343 -0.07774171 0.060965057 0.1871412 0.059518814 0.05754075 0.035315875
-0.14440797 0.38714072 0.07094571 0.031004295 0.2750282 -0.025226591 -0.42745772 0.03046422
0.13936433 0.0071809236 0.1020905 0.16408606 0.06273113 -0.23383906 0.03519563 0.30295762
-0.17464156 -0.013966378 0.04521164 -0.49998367 0.21992996 0.054522786 -0.047979742 0.31889582
-0.081095375 -0.117377736 0.19285588 0.14831987 0.097326934 -0.07613365 -0.121730894 -0.045940597
-0.082988836 0.14111272 -0.16686688 -0.43112206 0.07043826 0.12535949 -0.08339967 -0.5700075
0.04345666 -0.29667753 0.07680016 0.057138357 -0.24798322 -0.12782726 0.30098295 0.059261777
-0.011162877 0.06770317 0.02585745 0.0565868 0.059343524 -0.039273024 0.027698785 -0.07157072
0.013226249 -0.13898149 0.13754311 0.12235589 0.18405971 0.10101959 0.12326013 0.07559781
0.04823272 -0.40118045 0.05238903 0.04665608 -0.088623874 -0.2804266 0.063753374 -0.16150212

advantage_fc.bias f4 [4]
00000000: 7397 12bd 952c 793d 4774 13bc 3bce 80bc
-0.035788964 0.060833532 -0.008999891 -0.015723338
