eps_95_model.pt (torch, 47871 bytes, 9 tensors)

hidden_fc.weight f4 [64, 37]
000000 4b f0 5d bd c5 3a 73 be ea 52 36 3e 18 e6 1c be
       -0.05418424 -0.23752888 0.17805067 -0.15322149
000010 2b 4a bb bd b2 88 6b 3e 5e ad 95 3c 69 99 1c 3c
       -0.09145006 0.23001364 0.018271144 0.00955806
000020 a2 a8 fa bc a8 ba d5 bc 19 e4 c1 bd 8c 27 a5 bc
       -0.030597989 -0.026089981 -0.09467334 -0.020160459
000030 6c c1 33 be 78 2c 76 bd 06 5b 8e bc c9 39 91 be
       -0.17554253 -0.060101002 -0.017377388 -0.283644
000040 e1 89 81 3d 86 33 d5 bd d7 65 5e 3e 88 24 47 3e
       0.063251264 -0.10410218 0.21718536 0.1944753
000050 06 4a e3 3d a1 10 fc bc 3f 50 eb bd 3e db a0 be
       0.11098103 -0.030769648 -0.11489915 -0.3141727
000060 f5 70 9a bd 75 8e 1e be 39 9d 9a 3d 40 c1 3e 3d
       -0.07541076 -0.1548403 0.07549519 0.046571016
000070 2c c9 9d bb 6b cf 6b be e6 87 f7 3d 2a 2b 03 be
       -0.0048152413 -0.23028342 0.120864674 -0.12809435
000080 b7 cc 4f 3d e2 e6 4d be e9 bd 8b bd 06 98 30 be
       0.05073234 -0.20107606 -0.06823332 -0.17245492
000090 4b f5 bb bc d0 e9 83 3c 4e eb 16 be f0 9d 01 3d
       -0.022944113 0.016102701 -0.14738199 0.03164476
0000a0 39 9f 47 be 7e 1b 70 3d 75 cb 44 be 76 91 fd bc
       -0.19494332 0.05861997 -0.19218238 -0.03095315
0000b0 98 01 8e 3c 19 a4 91 3c fa 89 d3 3d 61 ab 9c be
       0.017334744 0.017778443 0.10329051 -0.30599502
0000c0 89 07 75 3e 6c df 5a 3d 60 09 85 3a 28 9b cd bc
       0.23928656 0.053435728 0.0010149889 -0.025098398
0000d0 b9 2f 11 3d 58 ab 2d 3e 37 57 80 3d 5e b4 2b be
       0.035445902 0.16959894 0.06266635 -0.16768023
0000e0 12 68 32 3c 3b 32 ba 3d 43 4e 1f be fe 92 c9 bd
       0.01088907 0.09091612 -0.15557198 -0.0984249
0000f0 ba e0 4c 3d 8c 3e 86 bd 23 9f 98 3d 1f 2d 45 3e
       0.050019003 -0.065548986 0.07452228 0.19255494
000100 e7 88 67 be 14 48 46 3e 62 52 16 3c 77 33 5b be
       -0.22610818 0.19363433 0.009174915 -0.21406351
000110 ae 8e b5 3d 67 12 13 3e 00 88 c1 be 8c 73 bd bd
       0.088651046 0.14362489 -0.37799072 -0.092505544
000120 0e a4 e2 bb 44 83 d4 bc 69 7b a6 3e 2c 38 bd be
       -0.0069165295 -0.025941499 0.3251603 -0.36956918
000130 54 5b b5 bd 0f 27 ab bd 39 9e 95 bf f2 09 65 3d
       -0.0885531 -0.08357059 -1.1688911 0.055917688
000140 35 f4 95 bc 29 17 8c 3d bb 19 07 3d 4c 06 05 be
       -0.018304924 0.06840355 0.032983523 -0.12990683
000150 8d 38 e1 3d b9 c8 9a 3c 80 4e 29 3c dc 87 b3 3d
       0.10997114 0.01889454 0.010333657 0.087661475
000160 4a ea af 3d a0 24 87 3e 12 ef 52 3e 38 4c 35 bd
       0.08589609 0.2639513 0.2059901 -0.04426214
000170 ce b3 0b be 3c b8 48 bf 13 1b 10 3d 1c ab d2 3d
       -0.13642809 -0.7840612 0.03518207 0.10286543
000180 8b 0e 34 3d 97 0c 31 3c 99 a5 e5 bd 8d 6d 59 be
       0.04395918 0.010806224 -0.11213226 -0.21233197
000190 88 13 47 3d 90 cb 12 3d 63 aa eb 3c 5e 7d 55 3e
       0.04860261 0.035838664 0.02876777 0.20848605
0001a0 a0 9c 03 bd e9 50 b2 3d 77 f4 8a 3d ae a4 dc 3d
       -0.03213179 0.08706839 0.06784909 0.10773598
0001b0 f7 26 94 3c d8 6b ca bb 8f 5a f8 3b 3d 09 71 bb
       0.018084986 -0.0061774068 0.007579155 -0.0036779188
0001c0 c7 9d 0f 3e e1 03 99 3d 0d d8 21 3d 84 d1 a8 bc
       0.14025031 0.07471443 0.039512683 -0.020607717
0001d0 92 3b 88 3d d4 cd b0 3d 77 d0 d2 3d e3 e5 e1 3c
       0.06651987 0.086330086 0.10293668 0.027575439
0001e0 9e 15 d5 bc de 8a ad b9 8d de f1 bd d3 0a f1 bd
       -0.026011284 -0.00033100595 -0.11810026 -0.11769643
0001f0 44 0d 3d be 0b 98 93 be 65 cf f3 bc 9e d7 65 3b
       -0.18462092 -0.28826937 -0.02976198 0.0035071145
000200 5b 7a af bd 4b 7b 29 bd 84 7c 06 3e 2f 6c 95 3e
       -0.08568259 -0.041377347 0.13133436 0.291841
000210 d5 85 07 be ff a9 97 be 7d 89 97 be 97 21 58 bf
       -0.13234647 -0.29621884 -0.29597083 -0.84426254
000220 bf 50 c5 bd 2c 61 0c 3e 41 54 e5 3d 0d 51 e6 3d
       -0.09634542 0.13708943 0.11197711 0.11245928
000230 d7 ce ac 3d 59 5b 1a be a8 0b 34 bd 17 12 0c bd
       0.08437889 -0.15073909 -0.04395643 -0.03419694
000240 74 72 87 bd 25 f4 40 3e b8 f7 7f bc c3 93 2e 3b
       -0.06613627 0.18843134 -0.015623026 0.0026638366
000250 63 ae 93 bd 30 7d ac 3d ea 8c fc 3d 34 19 bc 3d
       -0.07210996 0.08422315 0.12331565 0.091844946
000260 b4 44 00 be e0 11 02 bf 47 43 ad 3c d9 d5 b2 3d
       -0.12526208 -0.50808525 0.021150244 0.087321945
000270 b3 79 dd bd cb 11 27 be 1e 4a a4 bd 33 06 fc 3d
       -0.10814228 -0.16315381 -0.08021949 0.1230587
000280 d1 af 67 3d dd 70 05 3e 1a bc 0a be f5 6d e2 bd
       0.056564156 0.13031335 -0.13548318 -0.11056129
000290 68 36 8e 3e 0d 66 0e 3e 13 df ba 3d b8 93 83 be
       0.27775884 0.13906117 0.09124579 -0.25698638
0002a0 ba 7e ff bc 9d 2a d1 3d 65 f3 08 3e 2e 68 52 3d
       -0.031188358 0.10213206 0.13374098 0.051368885
0002b0 ab ab d6 bd da c8 e9 be dc 0f 14 3e fd b7 02 3e
       -0.10481962 -0.4566105 0.14459175 0.12765498
0002c0 90 94 8e 3c b1 55 e7 be c6 e3 04 be 9a d3 0d 3e
       0.017404824 -0.45182565 -0.12977514 0.13850251
0002d0 f0 f4 08 3e ea 8b bd bb e0 0d ef bb 76 57 9a 3b
       0.13374686 -0.0057845013 -0.007295355 0.004710133
0002e0 c3 b6 35 3c 99 f0 f4 3c eb a2 d7 3d 67 79 5e 3b
       0.011090937 0.029899882 0.10529121 0.0033946873
0002f0 3e b6 2b bd bf 43 2d 3d ec 74 e5 3d 13 cb f3 3d
       -0.041921847 0.042300936 0.11203942 0.11903968
000300 d3 69 59 be 29 cc 07 be 47 37 07 bf 4b e6 87 bc
       -0.21231775 -0.13261475 -0.5281872 -0.016589304
000310 27 ce 9e 3c 1f 44 9e 3d 65 a9 ff 3c 5b bf 9c 3d
       0.01938541 0.07727837 0.031208703 0.07653686
000320 85 65 11 3e 19 22 0a 3e 9e 64 d9 3d d4 1f 8e 3c
       0.14198883 0.1348957 0.10614894 0.017349161
000330 14 aa 0f be 62 e1 a2 bc d1 c3 40 3d 87 47 b5 3d
       -0.14029723 -0.019882862 0.047061745 0.088515334
000340 0a 49 26 3e 45 d0 92 3d 20 81 57 3d 33 fb fb 3c
       0.162388 0.071686305 0.052613378 0.03075943
000350 76 1c 26 3e b6 5c 2b 3e 63 cd 93 3e 52 fe 3b 3e
       0.16221794 0.16734585 0.28867635 0.18358734
000360 47 6e 14 be d6 ba 33 be b5 43 dd bd d2 dd 6c bf
       -0.14495192 -0.17551741 -0.1080393 -0.9252597
000370 f0 de d5 bb b5 35 97 bb 01 d7 1a bd 2d 10 24 bd
       -0.0065268204 -0.0046145567 -0.0378027 -0.04005449
000380 d2 bc 5e 3d d0 a8 3c 3e c6 67 5f 3e 52 84 44 3e
       0.05437929 0.18423772 0.2181693 0.19191101
000390 1a c2 48 bd ab 87 76 bc d3 89 42 3b e1 6d 53 be
       -0.049013235 -0.015046994 0.00296842 -0.20647384
0003a0 84 6f 7a 3e 82 35 30 be 3e 6e 6d bb 4c 30 a6 be
       0.24456602 -0.17207912 -0.003622904 -0.32458723
0003b0 96 e3 96 be db c0 35 3d ec ef 40 be 5a 9e b9 3d
       -0.2947051 0.044373374 -0.18841523 0.09063406
0003c0 31 68 4d 3d c1 84 7c 3d 16 9a 3d bd 50 b9 d0 bd
       0.050148193 0.06165004 -0.046289526 -0.101915956
0003d0 c4 ae 8b bd 43 ba 05 be 97 9a eb be df 1b c6 3d
       -0.06820443 -0.13059334 -0.4601638 0.09673285
0003e0 cc ec 70 3e 33 71 19 3d 68 39 e8 3a 77 b6 ab 3d
       0.23527831 0.03746147 0.0017717304 0.08384412
0003f0 f0 52 9b bd 4d 31 5c bd 5a 84 35 3d b9 49 5c 3e
       -0.075841784 -0.053757954 0.044315673 0.21512498

hidden_fc.bias f4 [64]
000000 9b a4 87 3c 22 89 5d bd 89 bb 8a bb d9 0e 21 3e
       0.016557982 -0.05408586 -0.0042337817 0.1572832
000010 43 85 02 bd 99 82 ec 3d 2f 87 82 3c ba 5b 88 3c
       -0.03186537 0.11548347 0.015933601 0.016645301
000020 54 b9 2e 3c 67 f9 c1 bd 66 63 63 bb b6 bd 5b bc
       0.010664303 -0.09471398 -0.0034696697 -0.01341193
000030 77 f2 20 3d ec a5 95 bc b2 8b e4 bd ba b6 86 3d
       0.039293732 -0.018267594 -0.11159457 0.06577821
000040 cd 89 e3 3d 92 65 3e bc b5 26 79 bd 17 c4 9f bb
       0.11110268 -0.011620896 -0.06082793 -0.0048756707
000050 59 14 60 be c2 fe 21 bd 5e ef 45 be 17 f0 45 be
       -0.21882762 -0.039549597 -0.19329593 -0.19329868
000060 69 5a c5 3d 5b b5 df 3d f5 3f c6 3c 12 61 d6 bd
       0.09636385 0.10923263 0.024200419 -0.104677334
000070 ae bf ec 3d e6 d9 d0 3c 88 35 c5 bc 43 6f 7e bd
       0.115599975 0.025494527 -0.024073377 -0.062117826
000080 12 1a 3a bd 08 40 17 be a3 44 15 3e 20 eb a7 3d
       -0.04543502 -0.1477052 0.14576964 0.081991434
000090 11 24 47 bc fe b1 de 3d 90 72 2c be 17 69 b7 bc
       -0.012154595 0.10873793 -0.16840577 -0.022388978
0000a0 2b 17 d6 bd 99 77 e0 3d ea a4 3f 3d a3 d4 71 bc
       -0.10453638 0.109603114 0.046788134 -0.014760169
0000b0 d5 40 24 3e ad 18 f4 bd 84 3c 56 b9 60 82 0d 3e
       0.16040356 -0.11918769 -0.00020431174 0.13819265
0000c0 cd 0c 78 bc b8 9f 06 be 9c cf b6 bd ce 0f a4 bc
       -0.015139771 -0.13146865 -0.08926317 -0.020027068
0000d0 1a 57 d4 bd f6 71 81 3d ac 59 21 bd 90 bb df 3b
       -0.10368176 0.063205644 -0.03939216 0.006827779
0000e0 30 e5 d8 3d 23 96 dd bb 85 ea b4 bc 01 19 ad 3d
       0.10590589 -0.0067622825 -0.022084484 0.08452035
0000f0 af da f2 3d b3 bc 47 bd 2c ae 6c bd 65 cf 00 be
       0.11858117 -0.048763942 -0.05778329 -0.12579115

value_fc_hidden.weight f4 [64, 64]
000000 0c b5 b0 bd 4b d3 3b 3d 67 d0 46 3d 1f aa 09 be
       -0.08628282 0.0458558 0.04853859 -0.13443802
000010 55 7c 43 3b bc 4c ec bd 8f 68 d3 3d c1 0a c5 bd
       0.0029828746 -0.115380734 0.10322677 -0.09621192
000020 76 c0 7c bd fe 41 90 3d c4 e5 ca bd ed 75 01 be
       -0.061706983 0.07043837 -0.099071056 -0.12642641
000030 18 e8 09 bd 3a fa 97 bd bc 05 d7 bd a5 ae 9b 3d
       -0.033668607 -0.07420774 -0.104991406 0.0760167
000040 38 b9 0c be 63 39 ee bd 5f a8 93 bd c8 6b e7 bc
       -0.1374253 -0.116320394 -0.072098486 -0.028249636
000050 9e 13 e3 bd 5e 08 d0 bc 3c ad 64 3d d2 9c 91 3d
       -0.11087726 -0.025394615 0.05582927 0.07109989
000060 9d c0 c7 3d 5c 8d 9d 3d 21 23 cb bd 7b 6e b8 bd
       0.09753535 0.07692978 -0.0991881 -0.090054475
000070 87 ea 42 3d 11 78 48 3d 59 40 22 3c c8 2d 98 3c
       0.047586944 0.04894263 0.009903037 0.018576518
000080 f8 e4 f1 bc 29 59 c2 bd 68 f3 9b bc 11 ac da 3d
       -0.029528126 -0.09489662 -0.019036964 0.1067735
000090 19 29 75 3d 8f e3 22 bc 24 37 fa bd d3 f6 9a 3d
       0.059853647 -0.0099419495 -0.122175485 0.07566609
0000a0 23 bd bd bd ec 6e 1d be 4f c2 36 3d d8 88 a0 3d
       -0.092645906 -0.15374345 0.0446189 0.07838601
0000b0 da 97 3d bd c4 32 0b be 3c 9a fb bc a0 57 a1 3d
       -0.046287395 -0.13593584 -0.030713193 0.07878041
0000c0 7b 70 de bd aa 7d bc bd 56 29 dc bc 1c 0e 24 3d
       -0.10861298 -0.09203656 -0.02687518 0.04005252
0000d0 be 1e c2 3d 20 0b eb 3c 49 b0 2e bd 6e 06 55 bc
       0.0947852 0.028691828 -0.042648587 -0.013002021
0000e0 8b 98 72 3d 12 8b f4 bc da e9 01 be 09 8b 94 bd
       0.059227508 -0.02985147 -0.12686864 -0.07253081
0000f0 6c 2a 0f be 46 fc 71 bc 9e b5 d1 bd 5c 88 f6 bc
       -0.13981026 -0.014769619 -0.10239719 -0.030094318
000100 39 9e 01 bd 77 e9 8a 3d 26 f6 65 3e 57 91 5a 3e
       -0.031645034 0.06782811 0.2245718 0.21344505
000110 00 1a e0 bd f2 6d 9f 3d 52 b6 1b 3d 6f 43 90 bd
       -0.10942459 0.07784642 0.03801567 -0.07044112
000120 3f 5e 1b bc a0 ae c6 bd ad 5d 8c 3d 3f de 17 3e
       -0.009482919 -0.09701276 0.06853805 0.14830874
000130 36 b0 65 3e 10 84 c2 bb a9 ab f8 bd de 78 34 be
       0.224305 -0.0059361532 -0.121421166 -0.17624232
000140 d2 a9 a4 3d 42 76 48 3c a5 95 de 3d d2 48 09 bd
       0.08040203 0.012235226 0.10868386 -0.033516712
000150 43 5a b4 3d fc e0 9c bd bf 25 35 be 16 97 a7 bd
       0.088062786 -0.076601 -0.1769018 -0.08183114
000160 f7 c2 45 3d 97 06 0d 3d 19 05 6e bd 36 9b d5 bd
       0.048281636 0.034430113 -0.05811033 -0.10429995
000170 d6 99 ad 3d 01 2f fe bc dc 03 b7 bb d6 72 dd 3c
       0.084766075 -0.031028273 -0.005585177 0.027032297
000180 54 47 16 3e 6e ae 47 3d db ab 9c bd 1c 20 aa 3b
       0.14675647 0.048750333 -0.07649966 0.005191816
000190 f5 72 0a 3e cb 9a f9 3c 06 8f ad bd a0 11 06 bd
       0.13520415 0.030469319 -0.08474545 -0.032731652
0001a0 15 dc 22 bd dc 6d a4 bd 4c 5c cd bd 7a a2 60 bd
       -0.039760668 -0.080287665 -0.1002737 -0.05484245
0001b0 16 d9 a7 bd 3e f4 cd bc 2f d4 07 3d d8 7f 38 3d
       -0.08195703 -0.025140878 0.03316134 0.045043796
0001c0 f7 eb 7d 3d bf f8 42 3d 56 2a 5e 3d 32 bc 67 3d
       0.06199261 0.047600504 0.054239593 0.05657596
0001d0 cb 5c f0 bc 54 66 a4 bd e6 ce 51 3e a5 3d 09 3e
       -0.029341122 -0.0802733 0.20489082 0.13402422
0001e0 aa a9 1e 3b 39 b5 f4 3d 5f c9 2c bd 2e 49 06 3e
       0.0024210014 0.11948628 -0.04218423 0.13113853
0001f0 af db dc 3d 32 ab 44 3e e7 9a 49 3d 44 de 9e bd
       0.10784089 0.19205931 0.049219992 -0.077572376
000200 25 ca b1 3d e9 8b 50 be 16 21 bf bb 3a fe 89 3d
       0.08681134 -0.20365871 -0.0058328016 0.06737943
000210 14 db 88 bd 95 be d3 bd 82 36 cb 3c d5 bb c3 3d
       -0.06682411 -0.10339085 0.024806265 0.095573105
000220 dd e0 a8 3d df 73 03 3e 15 48 84 3d c3 a3 57 bd
       0.08246014 0.1283717 0.06459061 -0.05264641
000230 b5 b3 ad bd eb 34 d9 bd e6 e1 cc bd 58 df 6e 3e
       -0.08481542 -0.106057964 -0.10004024 0.23327386
000240 da 59 db 3d c9 b7 cd 3d 27 48 01 be 45 fe c1 bd
       0.10710497 0.1004482 -0.1262518 -0.09472326
000250 7f ab 00 bd 2d 9c 97 bd 89 64 1a 3e c8 66 f2 bd
       -0.03141355 -0.07402835 0.15077414 -0.1183601
000260 ba 67 49 3d 24 91 5a bd 4e 5d b6 bd e4 c9 d9 bd
       0.049171187 -0.053361073 -0.08904515 -0.10634211
000270 21 b9 ae 3c a0 ba ed 3d 3c 38 26 be 8f 7f 8d be
       0.02132851 0.116078615 -0.16232389 -0.27636382
000280 76 9a 56 3d be be 80 bd 58 70 5b 3d 52 e0 8e bc
       0.0523934 -0.06286381 0.053573936 -0.017440949
000290 0a 38 de bd 5f 32 02 be 6c 47 5e 3d 46 bd 62 bd
       -0.10850532 -0.12714528 0.054267332 -0.055356286
0002a0 dc be cf bc 60 04 70 b9 f7 15 f6 bd 63 28 8d 3c
       -0.025359564 -0.00022889813 -0.12015908 0.017231172
0002b0 65 aa 51 be da c2 bb bd 9b 4e 38 be b8 31 b3 3d
       -0.20475157 -0.09168024 -0.17998736 0.087497175
0002c0 c3 55 46 bd 3c 5f 88 bc 1c c6 b4 bd d3 ba 7c bd
       -0.048421632 -0.016646974 -0.08826849 -0.061701607
0002d0 f6 f3 08 be 17 fd 1a be 69 5c 37 3e 3d 38 04 3c
       -0.13374314 -0.15135609 0.17906345 0.008070049
0002e0 cc fe 44 3c 35 aa ca 3d 6b bb 4b bd 72 f8 be bd
       0.012023639 0.09895746 -0.049739283 -0.09324731
0002f0 b6 37 10 be f9 3d ca bb cb 7a 53 bd b0 27 18 bd
       -0.14083752 -0.0061719385 -0.051630776 -0.037147224
000300 93 dc 7c 3d 54 d7 0f be 2d 97 72 3e d2 18 0c 3d
       0.061733793 -0.14046985 0.23690481 0.034203358
000310 e5 cd 81 bc 83 7b 5c 3d d2 30 f4 bd 11 3a 16 bd
       -0.015845248 0.053828727 -0.11923374 -0.03667647
000320 1a 52 a7 bc 2d 3d 26 bd 36 8a 5c be 4a da 8d bd
       -0.020424891 -0.040585686 -0.21537098 -0.06926401
000330 96 a3 a9 3d 60 e2 3c 3e e3 d7 97 bd df 00 08 be
       0.08283155 0.1844573 -0.07414224 -0.13281582
000340 a5 44 45 bd b5 e3 28 3e c5 d0 c3 bd af 7d 95 bd
       -0.048161168 0.16493113 -0.09561304 -0.07299363
000350 2d e4 b1 bd bc c1 89 be 55 6f 3e 3e 65 e0 1e be
       -0.08686099 -0.2690562 0.18597157 -0.15515287
000360 6e f3 90 be 5e 6b f5 3c 4c 58 d1 3d 8e e0 9c 3e
       -0.28310722 0.029958423 0.102219194 0.30640072
000370 fa b6 47 be 89 26 82 bd 5f 65 78 3e 4b 62 4d be
       -0.19503394 -0.06355006 0.2425742 -0.20057027
000380 9c d7 ab 3d 93 f6 8a bd 62 70 c6 bb 0f f6 48 be
       0.083907336 -0.067853115 -0.0060558775 -0.19625114
000390 d3 5f b4 bd 81 26 42 be 40 29 cd bd 87 de f6 3d
       -0.088073395 -0.1896 -0.100176334 0.120541625
0003a0 24 36 84 3e 05 d3 03 be 82 00 84 be 59 d6 c0 3d
       0.25822556 -0.12873466 -0.25781637 0.094158836
0003b0 db d7 90 bd 79 e1 98 3e 69 26 37 be 22 26 9c 3c
       -0.07072421 0.29859522 -0.17885746 0.019061152
0003c0 3f f4 94 bd 0d 98 e7 bd 0f 66 1f be 48 7b 19 3e
       -0.07273149 -0.11308298 -0.15566276 0.14988434
0003d0 17 98 24 be d3 98 0a 3e 21 25 05 bc 4e 0d 56 3e
       -0.16073643 0.1353486 -0.008126528 0.20903513
0003e0 fe 41 e0 bd d3 f3 5b bd 93 3d e8 bd 85 18 48 3d
       -0.10950087 -0.053699326 -0.11339869 0.04885151
0003f0 2c 9e 48 bd 25 1f 08 be 2f 2f 0a 3e cd 75 88 ba
       -0.04897897 -0.1329313 0.13494562 -0.0010411084

value_fc_hidden.bias f4 [64]
000000 e7 07 1a 3d 83 c6 3f 3e a5 dd 83 3d 06 fe 1f bd
       0.037605193 0.1872807 0.0643876 -0.039060615
000010 f4 96 ef bd da 27 57 3d fa f3 6e bd 81 0b 87 bd
       -0.11698714 0.05252824 -0.058338143 -0.06593991
000020 ca b9 df 3d 66 9f f2 bc 84 ba 4b 3e 18 e3 26 bc
       0.10924108 -0.029617023 0.19895369 -0.010185979
000030 db 66 11 be 5d 7b c7 3d b8 12 97 3d 43 59 24 be
       -0.14199392 0.097403266 0.07376617 -0.16049676
000040 8a 44 e1 bd f2 87 04 be f4 a6 1d be 36 09 c1 bd
       -0.10999401 -0.12942484 -0.15395719 -0.09425585
000050 16 5c e8 bd 47 e2 f1 3c 95 3d b4 bc a9 8c bd bd
       -0.11345689 0.029526843 -0.02200202 -0.092553444
000060 54 52 cd 3c 33 04 02 3e 9d 59 fd bb 6f c6 83 3c
       0.025063671 0.12696914 -0.00773163 0.016085831
000070 26 8a 91 bd d4 f8 26 3d 52 49 78 bc 10 0a 97 bd
       -0.07106428 0.040764645 -0.0151542 -0.07374966
000080 3f d3 88 bd b6 36 20 be 93 28 f5 3d ae a9 af bd
       -0.06680917 -0.1564587 0.119706295 -0.08577286
000090 9d d1 38 3d ae 3e 12 bd a0 95 9e bd c9 90 e8 bc
       0.045121778 -0.035704307 -0.077433825 -0.028389351
0000a0 b5 07 39 be 10 88 ba 3c 0a 7c e0 3d d0 a6 d9 3c
       -0.18069346 0.022769958 0.109611586 0.0265688
0000b0 38 ba a6 bd 44 bd 62 3e 1c ac fb bb 3e dd 49 3d
       -0.08140987 0.22142512 -0.007680429 0.04928326
0000c0 a4 46 0d 3e 85 73 82 3c 45 db a6 bd 84 01 92 bd
       0.13796479 0.015924225 -0.08147291 -0.07129195
0000d0 c8 61 85 3e 6d d5 47 be b5 71 08 3e 69 e9 86 3e
       0.26051164 -0.19515009 0.13324626 0.26349953
0000e0 b0 86 b1 3d 3a 19 9c bc 7e 4a a3 bd 3d 26 ed 3d
       0.08668268 -0.019054998 -0.07973193 0.11579559
0000f0 11 e0 49 bd 4c 2f 28 3e 77 c5 a3 3c 16 c7 7b bd
       -0.049285952 0.16424292 0.01999162 -0.06146916

value_fc.weight f4 [1, 64]
000000 55 46 b8 bd b2 5a 38 3e cb a2 f4 bd 06 35 68 3e
       -0.0899779 0.18003348 -0.11945113 0.22676477
000010 37 9e 05 3e c9 3f 8b 3e 86 b7 ef bd 6b ad b3 bd
       0.13048635 0.27197102 -0.11704926 -0.08773311
000020 83 16 dc 3d 38 41 d0 3e a6 d3 a7 3d c4 fe 88 bd
       0.10746481 0.40674758 0.081946656 -0.06689218
000030 59 f8 9b be a3 66 5a 3e 23 28 bc 3d 9c 27 97 be
       -0.30462912 0.21328215 0.09187343 -0.29522407
000040 7c c2 97 3e e8 18 3d be 4b 3b c3 bd 8c be 41 bf
       0.29640567 -0.18466532 -0.095327936 -0.75681376
000050 7a ce 26 bd 75 d1 10 3e 94 2a ec be 09 fe df bd
       -0.040724255 0.14142402 -0.46126235 -0.10937125
000060 12 b1 33 3e 7f 0d c0 3d f1 02 3a 3d 95 90 9f 3d
       0.17548016 0.09377574 0.04541296 0.07791249
000070 a5 74 af bd 06 58 bc 3d 28 ad e8 bb 85 0e 9c be
       -0.0856717 0.09196477 -0.00710072 -0.30479828
000080 59 55 e8 3d 5c 81 0b bd b4 ef 51 3e 70 fa 1e be
       0.11344404 -0.034058914 0.20501596 -0.15525222
000090 04 0d 17 3e 4e 3f 8a 3e 85 28 08 bf 1c 20 93 be
       0.14751059 0.27001423 -0.5318683 -0.28735435
0000a0 0a cd 2e be ef 78 84 3e 81 a2 5f 3e 5e cc 75 be
       -0.17070404 0.25873515 0.21839334 -0.24003741
0000b0 e5 7c 18 be 7b ee f7 3d 97 7c 5b 3d 42 9c 5c 3d
       -0.14891393 0.121060334 0.053585615 0.053859957
0000c0 3d ec 96 3d 2e 64 8c bd 1b a8 60 3e 4a 1d 21 3c
       0.073692776 -0.06855045 0.21939127 0.009833643
0000d0 f7 74 2a 3e db e6 db bd 49 79 a3 3d 57 c4 26 3e
       0.16646181 -0.107373916 0.07982118 0.16285835
0000e0 54 4a 5e 3e 25 ce b0 bd 5c 38 3d 3c f3 35 c2 3d
       0.21708041 -0.08633069 0.011549082 0.09482946
0000f0 ff 3c 1c 3e 28 1b 82 3d 56 5c a8 3c ca 60 b9 be
       0.15257643 0.06352836 0.020551842 -0.36206657

advantage_fc_hidden.weight f4 [64, 64]
000000 20 98 0c bc c6 7d 8a 3d fc 51 b5 bd 55 f2 06 3e
       -0.008581191 0.06762271 -0.08853528 0.1317838
000010 80 28 26 bc 82 5c a8 3d 14 6d 2c bd 9f 03 a3 bd
       -0.010141492 0.082207695 -0.042096213 -0.07959675
000020 5d be ed 3c 5c 7c e7 3d 11 70 f8 3d 19 da 73 bc
       0.029021436 0.113030165 0.1213075 -0.0148835415
000030 fb 25 08 3e 10 8f 14 bd 29 76 df 3c 59 5f 09 bd
       0.13295738 -0.036269248 0.027278023 -0.033538196
000040 9e 2f bf bc f1 92 53 bd 01 49 94 3d 27 50 77 bc
       -0.023338135 -0.051653806 0.07240487 -0.015094793
000050 b1 19 a4 3d 1f 01 ee 3d ad 23 9e 3d a0 cc 8e 3d
       0.08012713 0.116213076 0.07721648 0.06972623
000060 e5 a0 24 bd 6f 4b d1 bd 36 cd e1 bd 5c da ee bc
       -0.040192503 -0.10219466 -0.11025469 -0.029156856
000070 ac a7 30 3c fa ac 70 3d e7 23 77 3d e2 fb 65 bd
       0.010782164 0.058758713 0.060336974 -0.056148417
000080 74 a7 d2 3d 3b 00 c0 3d 95 8b 47 3d 69 7c 18 3d
       0.102858454 0.09375044 0.0487171 0.03722802
000090 f1 38 72 bc ca df 31 3d 3d d1 7f 3b a8 aa d2 bd
       -0.014784084 0.043426313 0.0039034628 -0.10286456
0000a0 e5 63 b1 3d 7b c9 92 3d 90 cb 2d bb 91 0d f5 3c
       0.086616315 0.071673356 -0.0026519038 0.029913696
0000b0 1d 53 4a 3d 70 55 87 3c ff 5f 52 3d e9 a4 31 3e
       0.04939567 0.016520232 0.05136108 0.17348064
0000c0 82 e4 1b be 48 5b 54 3e 5e 1b 3f bd 73 ee db 3c
       -0.15223888 0.20737946 -0.04665696 0.0268471
0000d0 54 d8 a1 bd 8f 0f 11 be 10 3e 9c 3c 1a f3 5e bd
       -0.079025894 -0.14166091 0.019072562 -0.05443106
0000e0 dd b8 ae bd d1 5f 89 3d ed 63 42 3c dd a2 7f bc
       -0.085313536 0.06707729 0.0118646445 -0.0156027945
0000f0 e0 80 71 3d e5 4a b8 bd e6 8b 4f bd 53 dc b8 bd
       0.058960795 -0.0899866 -0.050670527 -0.090263985
000100 94 63 12 3e 76 9f 08 be ff b3 0a 3e cf d0 c7 3d
       0.14295799 -0.1334208 0.13545226 0.09756624
000110 89 bc 80 3d 12 dc 6f be 84 cc 0b be 07 60 51 3d
       0.0628596 -0.23423794 -0.13652235 0.05111697
000120 eb 76 50 bc 48 30 da 3c 0e f3 58 bc 29 09 d4 bd
       -0.012723665 0.02663435 -0.0132415425 -0.1035331
000130 aa 3a 1b be ab bd 1b 3d 8c 42 05 3e c1 a5 42 3e
       -0.15159097 0.03802268 0.13013667 0.19008543
000140 38 03 1d be 29 86 91 3c b8 49 18 bd 5f 7a 1e bd
       -0.15333259 0.017764168 -0.03717968 -0.03869092
000150 dd 45 30 bd 82 0a 08 3e 62 be 3e 3e 66 df ad 3d
       -0.043035377 0.13285258 0.18627313 0.084898755
000160 60 f0 6e 3e c6 18 0c be 15 a0 84 3d 06 5a 76 bd
       0.23333883 -0.13681325 0.06475846 -0.060144447
000170 5d a6 d8 3d a5 0a 31 3d db 3e 11 be b7 5d 45 bd
       0.10578606 0.043223042 -0.14184134 -0.048185077
000180 24 a1 36 bd 9a 81 12 be 9b 9f 80 3d 04 7f 19 be
       -0.04458727 -0.14307252 0.06280442 -0.14989859
000190 51 28 18 be 1d 1f a5 3d 1a 33 f8 3d ce fd db bd
       -0.1485913 0.08062575 0.12119122 -0.10741769
0001a0 c3 79 ef 3d da 4b bf bd d0 6a e6 bb 56 c1 43 3e
       0.11693146 -0.093406394 -0.007031776 0.1911672
0001b0 0e 8d 9c bc 8d e7 8c bd 35 22 5a 3d 13 21 ab 3c
       -0.019110229 -0.06880102 0.05325528 0.020889794
0001c0 b6 bd 52 3e 06 b3 10 be e9 56 fc bc f1 e2 a4 3d
       0.20580181 -0.14130792 -0.03080316 0.08051098
0001d0 c3 2e 04 bd 1e af 59 3e 73 9f fa bd 86 e2 69 3e
       -0.032271158 0.21258208 -0.12237444 0.22840318
0001e0 36 16 73 bd e3 2e 4f bc ea 35 21 bd 4c 27 22 3d
       -0.059347354 -0.012645456 -0.039358057 0.039588258
0001f0 d1 ea e4 3c 12 ca 34 3e 95 06 c3 bd f5 17 94 3c
       0.027944 0.17655209 -0.0952274 0.01807783
000200 8e 01 5f bd a0 e7 98 be 25 f9 a6 3e ea e6 5c bd
       -0.054444842 -0.29864216 0.32611957 -0.053931154
000210 23 83 ef bd e0 ed b2 bc 86 fc 56 3e e5 63 d7 3d
       -0.11694934 -0.021841943 0.20994768 0.105171
000220 f0 01 19 bd db 09 49 be 52 b1 2d 3d 5c aa 97 3c
       -0.037355363 -0.19632666 0.042405434 0.01851385
000230 2d 9a f2 3d 20 44 ed 3d 1a ba 56 3e 53 a2 d2 bd
       0.11845813 0.115852594 0.2096943 -0.10284867
000240 b4 a0 93 bd 07 1a d0 3d 3b 85 05 be ea 0d 6e bd
       -0.07208386 0.10161214 -0.13039105 -0.05811874
000250 cd 0c 8e bd b6 28 b4 3b 1f 08 12 be 67 49 18 3c
       -0.06936035 0.005498017 -0.1426091 0.009294844
000260 b0 b3 16 be 52 94 ed 3d b5 40 41 3d ef c2 dc 3d
       -0.14716983 0.116005555 0.04718085 0.10779368
000270 9e 32 2a be 4d 72 a7 bc 47 17 31 be 92 d6 47 bc
       -0.16620871 -0.020440245 -0.17294036 -0.012197154
000280 6c a9 08 be 91 47 08 be ae 85 8e bd b7 4c db 3d
       -0.1334588 -0.1330855 -0.06959091 0.107079916
000290 e4 4e e5 3b 38 73 c7 bd 68 63 d1 bd 00 14 08 be
       0.00699793 -0.09738773 -0.10224038 -0.1328888
0002a0 b0 d2 8c bc 95 62 6d 3d 02 fe 3a 3e 30 6f 56 be
       -0.017190307 0.057955343 0.18260959 -0.20940852
0002b0 73 65 d5 bd 1e 24 82 3a ca 0f 45 be c9 a5 1d bc
       -0.104197405 0.0009928977 -0.19244304 -0.009622046
0002c0 d9 4e e1 bc f1 6a 92 3d 00 fb 84 bd df cc 33 bd
       -0.027503418 0.07149304 -0.06493187 -0.043896552
0002d0 84 1f 63 bc e6 78 27 3d 20 5a bc bc 7c 9b 5f bb
       -0.013862494 0.040886782 -0.022992194 -0.0034119776
0002e0 49 a6 06 be ce df 0b be 33 20 3e bd 00 19 d8 3d
       -0.1314937 -0.13659593 -0.046417426 0.10551643
0002f0 28 84 67 be 2f 6a 15 3e ec d2 b2 3d ad 1b 09 3e
       -0.22609007 0.14591287 0.087316364 0.13389464
000300 ee 14 06 3e d6 90 43 bd c3 62 5e 3d fe af ab 3c
       0.13093922 -0.04774555 0.054293405 0.020957943
000310 e1 c0 13 bd e3 eb 69 3d 94 bd bb 3d 7b 2e 85 3d
       -0.036072616 0.057109725 0.091670185 0.06503006
000320 ee 68 93 bd fc 00 1a 3e f4 84 20 3d 60 4b fa 3d
       -0.07197748 0.15039438 0.039189294 0.12221408
000330 30 d9 80 3c 59 ea e9 bd 25 47 47 3e 59 17 d6 3d
       0.015728563 -0.114216514 0.19460733 0.10453672
000340 cf 73 09 3d 9a 5d 2f be 8c 59 83 bc 84 eb ce 3d
       0.03355771 -0.1712555 -0.01603391 0.10103515
000350 f3 fa c3 3d ce 3f 80 3d 8c 1d ad 3e 86 69 64 bd
       0.09569349 0.0626217 0.33811605 -0.055764697
000360 5f 5f cc 3d 3d ee 42 3e 31 6d 12 be 93 64 47 3b
       0.09979128 0.19036193 -0.14299466 0.0030424937
000370 97 dd 0b 3e a5 51 4d bc 22 f6 4b 3d bf 60 58 3d
       0.13658749 -0.012531673 0.049795277 0.05282664
000380 07 96 23 3d bf ac 16 be 89 3a 55 bc 05 4c 21 3c
       0.039938 -0.14714335 -0.013014444 0.009844785
000390 af 4f 28 bd 0e b8 db 3b 61 c4 3a be a7 0d 37 3e
       -0.041091617 0.0067052906 -0.18238975 0.17876302
0003a0 79 e0 70 bd 83 24 cf bd dc ee f9 bd 14 35 a2 3d
       -0.058807824 -0.10114386 -0.12203762 0.0792028
0003b0 43 a4 4f ba 65 b7 a3 3d 9c de c4 3d 81 21 64 3c
       -0.00079209 0.07993964 0.09612772 0.013924004
0003c0 81 21 3b 3d 75 14 53 bd d9 8e a6 bd d8 20 06 bd
       0.04568625 -0.05153318 -0.08132715 -0.032746166
0003d0 29 ab 4d bd 32 91 89 bd 35 f0 83 bb d6 9e 38 3d
       -0.05021206 -0.06717147 -0.0040264376 0.045073353
0003e0 34 28 ce bd 68 0d 16 be 01 b3 21 bd 7c ab f0 3d
       -0.10066262 -0.14653552 -0.039477352 0.11751458
0003f0 35 6f 44 bd 2c b3 3b 3e 83 44 d5 3d 6a d4 78 3d
       -0.047957618 0.18330067 0.10413458 0.06074945

advantage_fc_hidden.bias f4 [64]
000000 f1 5e 35 3d 5d 28 aa bd f7 4c 02 be 00 81 f3 bd
       0.044279996 -0.0830848 -0.12724672 -0.11889839
000010 d3 ce 2e bc 17 52 8d 3c 6f b1 0a be 5e 8d 60 3d
       -0.010669428 0.017251058 -0.13544248 0.05482232
000020 06 b3 88 bd 36 55 fa bd fe 44 da bd 32 77 63 bd
       -0.06674771 -0.12223284 -0.106576905 -0.055533595
000030 61 99 1c 3d cb a2 44 bb 5d dc c1 3d a3 d9 89 3d
       0.03823221 -0.0030004259 0.09465859 0.06730964
000040 17 b7 b5 3d 9e ce dc bd 7c 9d e6 bd 60 4a b7 bc
       0.08872812 -0.107815966 -0.112605065 -0.022374332
000050 10 c4 22 3b 08 8b a2 3d 2d e4 88 3b 73 18 16 3e
       0.00248361 0.07936674 0.0041775913 0.14657764
000060 1d f5 69 3d 3c b1 ed bd df 9a 33 3c 55 63 0c be
       0.057118524 -0.116060704 0.010962217 -0.13709767
000070 0d 13 85 3d 65 c0 45 3c d8 43 2d 3d e3 fe 12 3d
       0.06497774 0.012069796 0.04230103 0.03588761
000080 2f df d7 bd 28 46 1c be 1b fe d4 bc 6a 62 17 be
       -0.10540616 -0.15261137 -0.026000073 -0.14783636
000090 ba 56 b5 bd fd 21 df 3c a7 79 a1 3d b7 c5 d8 3d
       -0.088544324 0.027237887 0.078845315 0.10584586
0000a0 05 e9 cd 3b c4 05 24 3d 12 b4 9b bd 19 8b 18 be
       0.0062838816 0.04004456 -0.07602705 -0.14896812
0000b0 0e 04 6b bc a3 ba c9 bd 60 d6 a8 3c 04 b9 a6 3d
       -0.014344228 -0.09850051 0.020610034 0.08140758
0000c0 4e f2 d5 3c ea a9 c0 3c 28 53 d8 bd 28 dc 22 bd
       0.026116516 0.023518521 -0.10562736 -0.03976074
0000d0 2f 8e e2 bd 22 b7 70 bd 4c a9 7f bd b3 f6 09 bd
       -0.110622756 -0.0587684 -0.062417313 -0.033682536
0000e0 05 79 56 bd 33 81 16 3e 87 c6 9b 3d 52 bc b1 3d
       -0.052361507 0.14697723 0.076062255 0.086784974
0000f0 4b 3d dc bb a4 64 5a 3c 5d 1e 91 3d a6 b4 86 bd
       -0.006721174 0.013329659 0.070858695 -0.06577425

advantage_fc.weight f4 [4, 64]
000000 fe 3f a7 bd 7d 97 9b ba ed 72 d4 3e 3b d5 0b 3e
       -0.081665024 -0.0011870709 0.4149393 0.1365556
000010 ae 5f 8b be 44 42 ca be 7e 52 1f 3c f0 95 ed bd
       -0.27221435 -0.39503682 0.0097242575 -0.11600864
000020 4c b4 53 3d 4d 4a a6 3c ff 69 25 bc c1 5a 91 3a
       0.051685616 0.020299101 -0.010096072 0.0011089669
000030 32 58 33 3e 07 e2 66 3e e1 77 bf ba 55 b8 13 3d
       0.17514113 0.2254716 -0.001460787 0.036064465
000040 3d 7a f3 3d b6 fc f6 bc 8b 66 ae 3d c5 23 bb 3c
       0.118885495 -0.030149799 0.08515652 0.022844205
000050 aa bd 66 bd f3 3b b0 bd 4b c7 11 be c6 37 80 bd
       -0.05633322 -0.086051844 -0.1423618 -0.06260638
000060 d2 01 66 3d 22 64 92 3e c3 80 2d bd 3a 88 bf 3c
       0.05615408 0.2859202 -0.042359125 0.023380388
000070 0f fd 68 3d bc 42 78 bc 30 1e 94 3d a3 84 17 3d
       0.05688196 -0.015152629 0.0723232 0.036991727
000080 c4 ef 20 3e 55 92 f5 bd a7 bc da bc 53 fe 8b bd
       0.15716463 -0.11990801 -0.026701285 -0.06835618
000090 86 09 6c bd 36 01 3b 3e df c0 21 3d 5c 15 ec 3a
       -0.05762627 0.1826218 0.039490577 0.0018011737
0000a0 34 b3 9a be 16 39 fa 3c 98 f8 3b bd 4f bf bb 3e
       -0.30214846 0.030544799 -0.045891374 0.36669394
0000b0 d0 a9 2f 3e 89 42 27 3e 24 94 2c 3c 48 52 59 3c
       0.17154622 0.16333975 0.010533366 0.013264246
0000c0 47 4d 73 bd b9 5b 4c 3c 71 d1 e3 bd cb 4b 12 3b
       -0.05939987 0.01247304 -0.11123932 0.0022323008
0000d0 ed 27 18 3e 2b 21 f8 bd e0 82 bf bc db 25 8b bd
       0.1485898 -0.12115701 -0.023377836 -0.0679433
0000e0 0b e2 55 3d 9e 18 d3 bd 23 28 5a 3d 31 17 97 3e
       0.052217524 -0.1030743 0.053260934 0.2950988
0000f0 bd 87 94 3b af 78 d1 bd 51 98 1a 3d 9c 26 a9 bc
       0.004532783 -0.10228097 0.037742916 -0.020648293
000100 6b 01 69 bd fd 61 70 3e e6 55 17 3d 89 46 7d 3d
       -0.056886118 0.2347488 0.036947154 0.061834846
000110 68 13 65 bd a8 1c 71 3c e0 f1 cb 3d df 75 66 bd
       -0.05592671 0.014716305 0.09958243 -0.056264754
000120 a7 b4 cc 3d 25 b6 80 3e bc 20 8a 3d b5 25 a0 bd
       0.09995394 0.25138965 0.06744525 -0.07819692
000130 66 aa be be 7a c0 90 bd 2d 98 fa bc 2c 3b 44 bd
       -0.3723938 -0.07067962 -0.030590141 -0.047907993
000140 21 19 74 be 31 b7 58 3d dd 75 9f bd da 4e 40 be
       -0.23837711 0.05290908 -0.077861525 -0.1878008
000150 7c 28 5f be a5 84 95 bd 94 02 b2 3d 4d c3 77 bd
       -0.21792787 -0.073006906 0.08691898 -0.060488988
000160 54 ec 86 bd f0 98 13 3b 12 f7 2a 3d f8 4f c6 bc
       -0.06588045 0.0022521578 0.04173953 -0.024208054
000170 8f 91 da bd 96 ed bb bd aa ac 64 be 8a ad 29 3d
       -0.10672294 -0.09176175 -0.22331491 0.041425265
000180 10 83 69 3b be 93 bf 3d 82 3b d0 bd e4 fe 1e bd
       0.0035631098 0.093543515 -0.101676 -0.0388173
000190 64 d7 a1 3e 93 e1 4f bd d2 4d 76 bd 51 9d 13 be
       0.31609643 -0.050752234 -0.06013281 -0.1441548
0001a0 bf db 42 3c d8 df ed bc 4d 04 01 be 07 16 3c bd
       0.011893212 -0.029037401 -0.12599297 -0.045919444
0001b0 f3 44 16 3e 3c f7 40 3d 29 21 13 3c f3 e6 fe bd
       0.1467474 0.04711078 0.008980074 -0.12446394
0001c0 8c 98 fe bb 7f be 39 3c fb ad 62 bd 3a 6a 54 3d
       -0.00776965 0.011336922 -0.055341702 0.051859118
0001d0 ab 47 42 3e c5 23 b8 bb 66 99 ef 3d df 4e 60 bd
       0.18972652 -0.0056194984 0.1169918 -0.054762717
0001e0 f3 d0 a4 bc 6d 6d 11 be 74 f0 19 be 68 03 17 bf
       -0.020119166 -0.14201899 -0.15033132 -0.5898957
0001f0 c4 de 82 bc c4 6e 5a 3e 0d f3 8f 3c 26 9c df 3d
       -0.015975364 0.21331316 0.01757195 0.10918455
000200 f5 97 17 bd 2a 56 b2 3b c4 1a 92 be 5b 02 b3 3d
       -0.037010152 0.0054424005 -0.28536046 0.08740684
000210 d3 8a 5a 3e 01 3c 44 3e 4f 5c f6 3d 47 b1 2b 3d
       0.2134202 0.19163515 0.12029325 0.04191711
000220 59 f6 f6 bd b5 ed e9 be 87 58 51 3e 7d f5 85 bd
       -0.12058706 -0.4568917 0.20443927 -0.06540964
000230 6b 52 ae 3e 8d aa 10 3e 22 1c 8b 3d ce e3 8b 3d
       0.34047255 0.1412756 0.06792475 0.0683056
000240 27 10 61 3e 2b 66 31 be 64 08 7b bd 7b 15 99 3e
       0.21978818 -0.1732413 -0.0612873 0.298992
000250 85 2f 47 3e 95 9e 40 bc fc ac 56 bc 4d 2a 81 bd
       0.19451721 -0.011756559 -0.013102766 -0.06306896
000260 3f b4 d5 bd b3 c5 a1 3c f9 4e 65 3e 17 6e 18 3e
       -0.1043477 0.01974759 0.22393407 0.14885746
000270 8b 44 f7 bd 9f 09 3b 3e 9e db 08 3e 2e 9a b8 3d
       -0.120736204 0.18265389 0.13365027 0.090137824
000280 7f 4a 96 be 21 e9 e9 3c ab d7 31 be 8e a9 c7 3c
       -0.2935371 0.028553547 -0.17367427 0.024372842
000290 c8 9a 11 bf e5 73 fd 3d 14 c9 91 bd ba 65 08 3d
       -0.568768 0.12375621 -0.07118431 0.03330014
0002a0 87 ee fe 3c f0 9c 62 bd 71 b8 82 3c 3d 74 3f be
       0.031119598 -0.05532545 0.01595709 -0.18696685
0002b0 04 db f0 bd 4c cb 5d be 5e 3e e4 3d d6 5b 58 3e
       -0.11760524 -0.21659583 0.11144708 0.21128783
0002c0 7c 25 fa bc 42 b4 ac 3b f7 11 ca bc 27 ba cf bd
       -0.030535452 0.005270512 -0.02466677 -0.101429276
0002d0 4c a8 d8 3d 26 a1 a8 be 19 2c 38 be d3 c4 66 3c
       0.10578975 -0.32935447 -0.17985572 0.0140850125
0002e0 c7 70 cb bd 0c db 61 3e db c1 6f 3e 42 d0 a0 3d
       -0.0993362 0.22056216 0.23413794 0.07852222
0002f0 9a b2 78 bd 8e f0 17 3e 71 6d 23 be d4 04 4e 3e
       -0.060717203 0.14837858 -0.15959717 0.2011903
000300 47 5f 46 bc 27 ca e7 bd 3c 57 07 3e 85 4b a0 bd
       -0.012107677 -0.113178544 0.13216871 -0.07826904
000310 e1 32 1b bd 6c 75 bc 3d 4f 06 e2 3c e8 61 27 3d
       -0.03789032 0.09202084 0.027590899 0.040864855
000320 12 33 96 3d 08 67 06 3e f4 f5 3d be 5f 8f e6 3c
       0.0733396 0.13125241 -0.18550855 0.028144537
000330 a1 ba 40 3e 81 51 8a bc 7e 77 a7 3d cb 97 e5 bc
       0.18821193 -0.016884567 0.08177088 -0.028026482
000340 d7 f5 e6 bd 6a eb 66 3e 3a 27 a6 3c 6a c3 71 be
       -0.11277359 0.22550741 0.020282377 -0.23609701
000350 55 56 cc bc 35 cd ef bc 37 2b 05 3d 73 8c 8e 3d
       -0.02494351 -0.029272655 0.032511916 0.06960382
000360 00 32 11 be 71 97 82 bd 33 6f fe bd a6 50 55 be
       -0.1417923 -0.063765414 -0.12423553 -0.20831546
000370 29 07 69 3d be b2 59 be 80 3a 03 3d 32 3b 44 bd
       0.056891594 -0.21259591 0.03203821 -0.047908016
000380 16 1d a4 3e 03 d7 bc bd 87 c1 0a bc 13 b4 20 be
       0.3205344 -0.09220698 -0.008468992 -0.15693693
000390 3e 5a c1 3e cf 56 a9 3b 0a 4a ae 3d 32 0f 1d be
       0.37764162 0.005167819 0.085102156 -0.15337828
0003a0 ca 8b dd 3d 54 48 f5 3d fb a0 82 bd da e8 7f 3d
       0.10817678 0.11976686 -0.06378361 0.062477924
0003b0 02 75 9d 3e bd 3e 81 bd 40 d5 8f bd 75 a1 9d bc
       0.30753332 -0.063107945 -0.07023096 -0.019242028
0003c0 15 b7 0c 3e b4 3a be 3c 8d 0f 67 bd 7d 5c 04 bd
       0.13741715 0.023221351 -0.056411315 -0.032314766
0003d0 f0 1c 93 bd 95 ce 23 3e 40 95 49 3e a7 69 9d bd
       -0.07183254 0.15996774 0.1968584 -0.07686167
0003e0 34 ea 8c 3d cb c7 7a bc 20 24 3c 3e ad 58 5e bd
       0.06880608 -0.015306423 0.18373156 -0.054283787
0003f0 6e e0 f8 3c 1f 2f d8 be c5 9e 52 3e 30 c3 a1 be
       0.030380454 -0.4222345 0.20568378 -0.3159423

advantage_fc.bias f4 [4]
000000 7d 9e 06 bc b2 a3 93 3d 66 7b 1f 3b c0 3e a1 3c
       -0.0082164975 0.07208957 0.0024335026 0.019683242
