g.8_a.8_t.001_e.95_model.pt (torch, 65167 bytes, 11 tensors)

hidden_fc.weight f4 [64, 37]
000000 20 e4 05 be b1 83 9f bd 55 8b 06 3e 47 11 af bd
       -0.13075304 -0.0778879 0.13139088 -0.08548217
000010 21 35 e4 bd b8 88 ba bc 87 9b df 3d 3f 60 0a be
       -0.11142946 -0.02277027 0.10918336 -0.13513277
000020 c3 64 e3 3b 4b ce 4a be 01 e9 e7 3d 06 89 33 bd
       0.006939502 -0.19805257 0.11323739 -0.043831848
000030 9d a3 56 be 59 ad 8e 3d 3f d5 eb 3d 67 27 c6 bd
       -0.20960851 0.06966657 0.11515283 -0.09675484
000040 7e e2 25 be 59 e3 0b 3e 26 40 9c 3c 68 ed 16 bd
       -0.16199681 0.13660945 0.019073557 -0.036847502
000050 f0 00 92 3d ec 62 9c be 80 33 2d 3d b9 a8 cf 3e
       0.07129085 -0.3054422 0.042285442 0.40558413
000060 bd f1 c0 be 90 c1 c6 3d 0b ba 39 be 29 17 13 be
       -0.37684432 0.09704888 -0.18137376 -0.14364304
000070 c5 10 61 3e 6d 35 3c be 6f f1 16 bd 6f 07 c3 bd
       0.21979053 -0.18379755 -0.036851343 -0.09522902
000080 c3 00 3f bd 33 63 dc 3d de 55 bb bd 48 e2 0c be
       -0.046631586 0.10761108 -0.09147237 -0.13758194
000090 c4 eb 6c 3d 8b 9f ac 3d bc 7e 1d be f6 b3 a0 bd
       0.05784203 0.08428868 -0.15380377 -0.07846825
0000a0 0a be 26 3e af e9 9b 3e d3 a7 1e 3d 0d e2 71 bd
       0.16283432 0.30451724 0.03873427 -0.05905347
0000b0 83 8a 2e 3d cb b5 a3 bc be 84 01 be 4b 1b 60 3d
       0.042612564 -0.019984147 -0.12648293 0.05471353
0000c0 cf 9e d2 bc 2e aa 76 3e d8 bc 91 3d d5 78 53 3e
       -0.025710491 0.24088356 0.07116097 0.20651563
0000d0 ee 5b 1b 3e 79 a6 77 3d 66 01 bd bd b8 d3 bc 3d
       0.15171787 0.060461495 -0.09228782 0.0922007
0000e0 9c 33 4d 3e 68 51 a3 3c a9 4c db bd 76 88 e1 bd
       0.20039219 0.019936278 -0.10707981 -0.11012356
0000f0 c7 fb 5c bd c1 aa 86 3d 51 f5 fc 3c ca 32 7c be
       -0.05395105 0.065755375 0.030878695 -0.2462875
000100 e6 18 b3 bd 7d 6b 6f bd fd dc 96 be 21 cd 10 be
       -0.087449834 -0.05845212 -0.29465476 -0.1414075
000110 db db d1 3d ba e1 21 bd c5 a0 c7 3d b5 b6 84 3e
       0.10247012 -0.03952191 0.09747461 0.25920644
000120 20 6b 37 be 92 8f 86 bc 22 4c 55 3e 81 e5 5a bd
       -0.17911959 -0.016425882 0.20829824 -0.05344153
000130 a7 75 b3 3c d9 cd 18 3d 50 1a bd bc f8 75 41 3e
       0.021906687 0.037305687 -0.023083836 0.18892658
000140 3b 2a fe 3c 54 97 80 be 8c ee 0d bf cf 1f 28 c0
       0.031025996 -0.25115454 -0.5544212 -2.6269414
000150 c6 4b d7 bd ea 06 7c 3d 61 b7 05 3e b6 6e 1b 3e
       -0.105124995 0.06153003 0.13058235 0.15178952
000160 a0 91 2c 3e 49 17 87 bd 6c 6c 03 3c e3 6d a0 bc
       0.16852427 -0.06596238 0.008021455 -0.019583648
000170 4f 89 fd 3d ec 42 e6 3d 55 49 b1 3b f9 c6 3b bd
       0.12379705 0.11243233 0.005410353 -0.045844052
000180 13 3a 74 bd 10 b4 85 bc 34 0c 0b 3e ae 60 95 3d
       -0.059625696 -0.016321212 0.13578874 0.07293831
000190 2d 5e 94 3c 3a fb c9 bd af 1e 0f 3d 7f 9f 3b be
       0.018111313 -0.09862371 0.03494137 -0.18322562
0001a0 5a bf ae bd 94 b8 66 3d 9d b9 9b bd 71 f8 68 3c
       -0.08532591 0.05632837 -0.07603762 0.014219389
0001b0 60 ec c9 bc d4 a0 fb 3c f2 4c 96 3d 5d 4b 2c be
       -0.024648845 0.030716337 0.07338895 -0.16825624
0001c0 bc 4f be bd 8c 10 f0 3d 45 cc ab be 95 79 29 be
       -0.09292552 0.11721906 -0.33554283 -0.16550286
0001d0 5b 3a 76 bd 02 10 74 3e 4c 60 3c be e0 94 28 3d
       -0.060114246 0.23834231 -0.1839611 0.041157603
0001e0 eb 19 a0 3d db 22 71 3c 55 8c 91 bd e3 57 2c 3c
       0.078174435 0.014717783 -0.07106844 0.010519001
0001f0 dc fc 0c be c5 4c c7 ba 85 ee 36 be 53 2c 04 3e
       -0.13768333 -0.0015205374 -0.17864425 0.12907533
000200 99 db f9 3d 95 6f 9a 3d e9 b3 6d bd ef 0b 14 be
       0.12200088 0.07540814 -0.058032904 -0.14457677
000210 a8 0e 25 bd 6e 39 07 bf 86 db e4 3d 7f 3a b0 be
       -0.04029718 -0.52822006 0.11174683 -0.3441963
000220 5c 90 59 3e 4e cb 8e 3d d8 1e 42 be 50 0d b5 bd
       0.21246475 0.06972371 -0.18957078 -0.0884043
000230 15 9f 5d be 84 ee 2d 3e cb 7b 10 be 14 4f ea be
       -0.21642716 0.16985518 -0.14109723 -0.45763457
000240 2b 32 19 3d e4 9a fe bd cb 36 28 3e dc 1b 8c bd
       0.03740136 -0.12431887 0.16427152 -0.06841251
000250 c7 ac 44 3e 27 e0 c7 bd 69 e9 13 bd bb 4d ff bd
       0.19206534 -0.097595505 -0.03611127 -0.12465998
000260 8c ff 53 bf 79 0c 46 bd 6b b2 f2 3d d5 97 3f 3d
       -0.8281181 -0.04835174 0.11850437 0.046775658
000270 36 fa db 3d 71 bd 16 3d 5a fc 0e be 8d f7 f6 bd
       0.10741083 0.03680176 -0.13963452 -0.12058935
000280 02 d0 62 bc 88 d8 1a bd 91 6b 8f 3e 5b a1 77 3e
       -0.013843538 -0.037804157 0.28011754 0.24182646
000290 26 a1 a2 be 46 22 b6 3c a6 8a ed be 0b 99 b1 bf
       -0.31763572 0.02223314 -0.46394843 -1.387483
0002a0 01 7c 2b be 1e 9e 91 bd ff 80 a3 bd a9 9c 70 bd
       -0.16746522 -0.071102366 -0.079835884 -0.058743153
0002b0 9b ff 18 be 4d 6d 1c be 92 a5 64 3e d6 25 4e 3e
       -0.14941256 -0.1527607 0.22328785 0.20131621
0002c0 e8 b8 92 be 0d 1a 79 be 14 69 82 bb e5 60 97 3d
       -0.28656697 -0.24326344 -0.0039798114 0.07391528
0002d0 0e cc 0a 3d 57 77 45 bd 72 43 2e 3d f5 bd e9 3d
       0.033886008 -0.048209514 0.04254479 0.114131846
0002e0 cf 52 57 3c 8d 8c 0f bd 11 e8 5c bd 1a 74 9f bd
       0.013142302 -0.03504615 -0.053932253 -0.077858165
0002f0 fc 10 da bc 8f f9 4b bf 8c 96 be bc e2 ff 98 3d
       -0.026619427 -0.7967767 -0.023265146 0.07470681
000300 35 9d d7 bd bb ee 63 3e 7e 22 8e 3e 93 09 96 3d
       -0.10528032 0.22259037 0.2776069 0.07326045
000310 a8 5f 56 be 3c 85 e9 bd 24 2f 15 3e 0d c3 84 3d
       -0.20934927 -0.114023656 0.14568764 0.064825155
000320 3d b3 88 3e cb d3 1c bf eb 04 c2 3b 89 76 04 bf
       0.26699248 -0.6126067 0.0059209964 -0.5174337
000330 04 ba 5a bf 6c fe ad 3d 9d 48 3b bd c3 f2 99 3d
       -0.8544009 0.08495793 -0.045723546 0.07517006
000340 21 68 c0 3d ef f4 2a 3e 86 d7 4b bd 26 42 a4 3e
       0.09394861 0.16694997 -0.049766086 0.32081717
000350 b8 76 20 3e 33 77 38 3c 6e f9 e1 bd 8e 12 0a bd
       0.15670288 0.011258888 -0.11033903 -0.0337091
000360 11 77 16 bc 42 d2 8e bd 06 36 04 bb da 2a ca 3e
       -0.009183661 -0.06973697 -0.0020173802 0.39485818
000370 f3 9b 32 bd b1 6c c6 bc 0d 93 08 bd 51 63 f4 3c
       -0.043605756 -0.02422175 -0.033343364 0.029832514
000380 74 e1 00 be 79 f3 d5 3e 76 14 3b 3e 3a 7b 8d 3d
       -0.12586004 0.41787317 0.18269524 0.06908269
000390 af a8 11 be ca f7 17 3e 3f ff 46 be 62 37 8a be
       -0.14224504 0.14840618 -0.19433306 -0.2699538
0003a0 c2 d1 b3 bc f4 b9 50 3e c6 0b c8 3d b9 76 8c 3d
       -0.021950606 0.20383435 0.097678706 0.06858582
0003b0 48 07 95 3d eb fd ff 3d b6 63 4b be 63 c3 2f be
       0.072767794 0.12499603 -0.19862255 -0.17164378
0003c0 db cc d6 3c 58 d9 55 bc 8f d5 80 3e 98 e1 9d bc
       0.02622073 -0.013052307 0.25162932 -0.01927261
0003d0 cf a3 02 be 7b 52 e8 bd 5e 91 bb 3d 73 78 17 be
       -0.127578 -0.11343857 0.09158586 -0.14792041
0003e0 9b fa 45 be cf ed 22 3d 0e 91 95 3d 60 4f 05 3e
       -0.1933388 0.039777573 0.073030576 0.1301856
0003f0 60 f4 ce 3d 2a 5f a9 3c 14 b4 f5 3d 32 03 e9 bd
       0.101052046 0.02067526 0.11997238 -0.113775626

hidden_fc.bias f4 [64]
000000 d0 c0 47 be 3c c7 d1 3d 11 ef b9 bd ab 75 9a bd
       -0.19507146 0.10243079 -0.090788014 -0.07541975
000010 a5 b2 84 3d 1b 04 38 bd 91 1d 9e bd 5d e5 19 be
       0.06479386 -0.04492579 -0.07720483 -0.15028901
000020 b0 a1 c7 3d e2 a4 87 bb 1d e9 a7 bc 35 0c 61 3d
       0.09747636 -0.0041395286 -0.0204969 0.054943282
000030 7d 11 94 3d 94 1b f4 3d 35 45 27 be c0 4e ab 3d
       0.07229898 0.119193226 -0.16334994 0.0836463
000040 fb 35 bc 3d 43 d4 2a bc f8 ce 52 3d eb 13 d3 3d
       0.091899835 -0.010426584 0.051466912 0.103065334
000050 5b ae 8c 3d 73 8d 1b 3e 40 fe d6 3b ab 40 e1 3d
       0.06869193 0.15190677 0.0065610707 0.109986626
000060 5f 72 2a be 77 84 32 be 9b 14 6a 3d 55 68 61 bd
       -0.16645192 -0.17433344 0.057148557 -0.05503114
000070 69 d5 9c 3d 01 ed 25 bc ac 4c 64 be 38 d1 e3 3d
       0.07657892 -0.010127307 -0.22294873 0.1112389
000080 f2 27 fa 3d ad f3 b0 bd 9a b4 0f be e4 74 2f 3e
       0.1221465 -0.086402275 -0.14033738 0.17134434
000090 1c 54 cc 3d 1b 36 ff 3d 78 f8 04 3e 2f 04 35 be
       0.0997698 0.12461492 0.12985408 -0.17677377
0000a0 78 fb 97 bd 69 04 48 be 54 19 29 bd 72 03 12 be
       -0.07421011 -0.19532932 -0.04128392 -0.14259127
0000b0 8f a3 c2 3d fc 5c 3b be cd c5 c3 3d 60 2a 08 bd
       0.095038526 -0.1829719 0.09559212 -0.033243537
0000c0 8d 54 12 3d 04 6f 6e bc 44 0a a1 3d d3 1b 17 be
       0.035725165 -0.014552835 0.07863286 -0.14756708
0000d0 c1 5a a7 bd ea 56 c3 bd 2d 38 06 3d ae 07 12 be
       -0.08171607 -0.09538062 0.032768417 -0.14260742
0000e0 19 0a e3 bd 8f 02 2c 3e a1 f9 1b be 1e 6d c3 bd
       -0.1108591 0.16797851 -0.15231945 -0.09542297
0000f0 28 78 0f be 5a fc 6e 3d 06 ee 09 be 94 23 03 be
       -0.1401068 0.05834613 -0.13469705 -0.1280654

value_fc_hidden.weight f4 [64, 64]
000000 b7 75 87 bd 14 04 26 bd 17 b8 f1 bc fa 54 fc bd
       -0.06614249 -0.040531233 -0.029506726 -0.123208955
000010 cd ca c8 bc 94 8e e9 bd 4c e2 31 bc c2 c2 2a 3d
       -0.024510765 -0.11404148 -0.010857176 0.04168964
000020 63 a8 8b bc f6 d5 3e be 7c f3 c1 bd 48 48 61 be
       -0.017048066 -0.18636307 -0.09470269 -0.2200023
000030 dc e8 81 bb 00 04 9e 3d 16 49 0a bd 7e 72 fd bd
       -0.0039645266 0.07715607 -0.033761106 -0.12375353
000040 8f 0e 2e bd 7f ad 99 3d c5 53 67 3d 94 58 37 be
       -0.042494353 0.07503795 0.056476373 -0.17904884
000050 e0 11 11 be 78 71 99 bd 4a 69 1b bd 53 43 a0 3c
       -0.14166975 -0.074923456 -0.03794221 0.019563353
000060 55 c6 07 3e 5a 47 07 3d 5a e5 0f be 07 4c b3 3c
       0.13259251 0.03302703 -0.14052334 0.021886839
000070 0b a2 65 bd 5c 15 df 3d 31 bc 41 be 52 9d 06 be
       -0.05606274 0.10892746 -0.18919446 -0.1314595
000080 95 30 c6 3d b6 38 2e 3d 32 7c 9f 3d 15 c0 ea bd
       0.09677235 0.042534553 0.0778736 -0.11462418
000090 b6 c9 cd bd d7 84 99 bc ca 4b 12 bc 83 66 f4 bd
       -0.10048239 -0.0187401 -0.008929202 -0.11933615
0000a0 a5 63 26 3c 64 b8 eb 3c e8 41 61 bd ea dc be 3c
       0.010155593 0.028774448 -0.054994494 0.0232987
0000b0 38 14 2a bd a8 b8 36 bd c0 94 29 3c 2a 39 c8 3d
       -0.04152319 -0.044609696 0.010350406 0.09776528
0000c0 bd f0 19 be eb 55 f6 bb 53 1e 87 3c 0e 8b 01 bd
       -0.1503324 -0.0075175664 0.016493952 -0.031626754
0000d0 24 30 cd bd fd cb 68 bc 62 39 ef bd 89 f9 96 3d
       -0.10018948 -0.014208791 -0.11680867 0.07371814
0000e0 a5 72 00 be 18 d4 42 3d de 8e a1 3d 55 11 ce 3d
       -0.12543733 0.04756555 0.07888578 0.100618996
0000f0 5c 60 65 bd 82 6d d2 3d da d5 a7 bd 94 f1 c8 3d
       -0.0560001 0.10274793 -0.08195086 0.09811702
000100 22 f9 25 be af 28 3f 3d c5 6e 0a 3e 07 12 4a be
       -0.16208318 0.04666966 0.13518818 -0.1973344
000110 bb 4e d5 3d b7 ca 15 3d 58 85 f8 3d cb eb 0f bc
       0.10415407 0.036570277 0.12134808 -0.008784245
000120 d4 c1 61 bd 94 25 75 3d e6 c5 b5 bd 7f 65 23 3d
       -0.05511649 0.05985029 -0.08875637 0.039891716
000130 4e 25 74 bc 82 c1 65 be 37 5b 6c 3e b1 a9 cf bd
       -0.014901472 -0.22437099 0.2308167 -0.10139788
000140 a8 3f 2a be f1 80 cc bb 85 3b df 3d ad c6 90 3d
       -0.16625845 -0.006240957 0.10900024 0.070691444
000150 be de 7e 3e f2 76 34 3d 23 ec 0c 3e 85 77 ba bd
       0.24889657 0.044058748 0.13761954 -0.09104828
000160 3a 89 8f be 4e 76 ab 3d 51 13 ed bd ca 64 b2 bd
       -0.28034383 0.08372174 -0.1157595 -0.0871063
000170 ff 77 cb bc 6b 62 d5 3d 46 8d a7 bd c5 66 f0 bc
       -0.024837492 0.10419162 -0.08181243 -0.02934588
000180 eb bb 52 bd 9b cf c0 bd 04 80 67 bd 70 78 89 bb
       -0.051448744 -0.094145976 -0.05651857 -0.0041952655
000190 11 29 f3 3c 23 59 af bc 8d b1 dc bd a5 7d 1d 3d
       0.029682668 -0.021404808 -0.107760526 0.038449902
0001a0 b0 78 61 bb 51 4c 42 bd 20 84 cf 3c 11 d3 a3 bd
       -0.003440421 -0.047436062 0.025331557 -0.07999242
0001b0 d1 2a cd bd a0 0c dd 3d f8 8b 5a bc 94 92 04 3d
       -0.10017932 0.10793424 -0.013339035 0.03236635
0001c0 4e 76 71 be 19 be 7a bd 22 a1 df bd b5 2f 1c be
       -0.23580286 -0.061216448 -0.109194055 -0.15252574
0001d0 fd e7 44 3b c3 7e 9e bc eb e5 b9 3d 26 26 07 bd
       0.0030045502 -0.019347554 0.090770565 -0.032995366
0001e0 d5 f9 c6 bd b5 1f 28 3e 26 01 d0 bd 3b fb c9 3d
       -0.097156204 0.16418345 -0.10156469 0.098623715
0001f0 51 59 4a 3c aa 22 79 bd 63 40 d8 3b 8f ab 92 3d
       0.012350396 -0.060824074 0.0065994724 0.071616285
000200 d1 5d 1e bd d4 1e 40 3e 85 8f 6e 3e ea 3a 0f 3e
       -0.03866369 0.1876176 0.23296936 0.13987318
000210 db 5f bc bc 2d 8c 83 bd c7 0e 99 bd 60 bf 8a bd
       -0.022994926 -0.06423221 -0.07473522 -0.06774783
000220 22 20 09 bd b4 e0 02 be dd c0 89 bd d9 99 27 3e
       -0.03347791 -0.1278103 -0.06726239 0.16367282
000230 9e 57 9e 3c 9d 71 50 3e 7d 6f 43 3d 71 98 18 be
       0.019328889 0.2035584 0.047713745 -0.14901902
000240 8e ae 53 be 91 8a 40 be 6c 12 92 bc 77 02 f8 bd
       -0.20672056 -0.18802859 -0.01783105 -0.12109845
000250 85 42 ab 3d 06 1a ca 3d 1c 1d ac 3d d2 8a cd bd
       0.08362297 0.09868245 0.0840399 -0.100362435
000260 61 c6 3b 3d af 45 9a 3e 0b 97 05 3e 75 7a ac 3e
       0.045843486 0.3013129 0.130459 0.33687177
000270 db f1 12 3e 1c bc c1 be 2b 5f a8 3d 9a 26 04 3c
       0.14350073 -0.3783883 0.08221277 0.008065844
000280 a1 db 94 be 92 42 f8 bd df 0c 38 be 2c d5 68 bd
       -0.29073814 -0.12122072 -0.1797366 -0.05684392
000290 72 b8 2f bd f3 94 2d 3e e3 0b c7 bd 38 4b 73 bd
       -0.04290051 0.16951351 -0.09719064 -0.059397906
0002a0 2c 23 90 bd a5 a0 44 3d 73 a1 47 be da a4 a2 be
       -0.070379585 0.048004765 -0.19495182 -0.31766397
0002b0 0e c9 38 be dc 5d e9 3d 87 54 d6 bd 76 20 26 3e
       -0.18045446 0.113948554 -0.10465341 0.1622332
0002c0 d3 e3 28 be c3 95 45 3e b0 70 68 3d 7c 04 95 3c
       -0.16493158 0.19295411 0.056748092 0.018190615
0002d0 b0 8d 94 bd 85 24 87 be 85 2f 7a bd 6a a4 06 bd
       -0.07253587 -0.2639505 -0.061080474 -0.03287164
0002e0 5b 03 20 3a e1 62 d5 be 4d 96 b0 bd 5e 20 72 bd
       0.00061040156 -0.41677 -0.086224176 -0.0591129
0002f0 46 93 ad bd d3 d9 dc bd 44 e7 b7 3d a1 6e 25 bd
       -0.08475356 -0.10783734 0.08979657 -0.040388707
000300 eb 99 3d be 0d ba a4 3d 6a 1e 22 be 0b 44 7b bb
       -0.18515746 0.08043299 -0.15831915 -0.0038340117
000310 7c c8 9f 3e a9 ed 4f 3e 1c 35 94 3d e6 f6 49 bd
       0.31207645 0.20305504 0.07236692 -0.049307726
000320 40 06 8c bd a6 4b ae bd c1 fc 85 bd b9 c5 26 bd
       -0.068371296 -0.085105225 -0.065423496 -0.040715907
000330 37 91 8b bb cc 45 01 3e 83 85 c2 3d 59 f2 98 3c
       -0.0042592543 0.12624282 0.094981216 0.018670248
000340 de 86 d7 bd 2b 00 91 be d3 25 0a be e7 d5 96 3c
       -0.10523771 -0.2832044 -0.13490991 0.018412543
000350 aa b3 30 bc 8d 0f 44 3d 0b 77 bb bc 01 25 eb bd
       -0.010785023 0.047866393 -0.022883913 -0.11481667
000360 24 d8 e5 bd 31 51 33 3e 1d db 49 be ca bd 9d bc
       -0.11222866 0.17511441 -0.19712491 -0.019255538
000370 a0 1e 74 bd 69 f5 25 bd 96 31 64 bc 7a 26 ac bd
       -0.05959952 -0.040517244 -0.013927838 -0.08405776
000380 f8 c3 74 be cb ac 9c bd 0d d2 2a 3c b8 6b 9d 3b
       -0.23902881 -0.07650145 0.010426057 0.004804101
000390 65 81 c0 bb dd 96 10 3e 9e 64 4a bd fb 04 9c 3d
       -0.0058748 0.1412005 -0.049412362 0.076181374
0003a0 63 b9 a8 3c 06 8a 30 3d ba 2e 10 3e 96 69 22 3d
       0.020596212 0.04310038 0.14080325 0.039651476
0003b0 5b 90 07 3e 7d 17 ec bd 99 45 92 bd 8f cb 51 3d
       0.13238661 -0.115279175 -0.07142181 0.05121952
0003c0 88 58 00 3d 21 bc e7 3d a9 84 7c bd ba 26 28 3e
       0.03133443 0.113151796 -0.061649952 0.16421023
0003d0 dd fe 1f bd dc e0 8f 3d bf 31 65 3d e1 94 23 be
       -0.039061416 0.070253104 0.055955645 -0.15974762
0003e0 93 8d c3 3b 49 66 28 3e c6 22 4f 3d e1 02 76 3b
       0.0059678047 0.16445269 0.050570272 0.0037538337
0003f0 34 ca 86 3d 13 52 2e be d6 7e 9b bd 57 12 de bc
       0.06581536 -0.17023496 -0.075925514 -0.027108354

value_fc_hidden.bias f4 [64]
000000 3f 11 12 bd ca de 87 bc 27 b2 79 bd f7 8f 4e ba
       -0.03566098 -0.016585726 -0.060960915 -0.0007879729
000010 28 b2 0e bd 54 b1 db bd 19 75 6e bd cf 77 df bd
       -0.03483787 -0.10727182 -0.05821714 -0.109115236
000020 91 dd b3 bd 2c dd e8 bd 8d fe 7c bd bb ee 73 bd
       -0.08782495 -0.1137031 -0.061766196 -0.059553843
000030 ce 64 b5 bc 0e 62 2d 3c e5 0c f8 bc 23 7c b3 bd
       -0.022142794 0.01058246 -0.030279586 -0.087639116
000040 66 48 e9 3b f6 8a 21 be f4 b6 a9 bd 64 49 6b 3d
       0.0071192263 -0.15775666 -0.08286849 0.057443038
000050 28 6a c6 3c 21 b0 20 bd 87 80 74 bc 3a 66 62 bd
       0.024220541 -0.03923047 -0.014923221 -0.055273272
000060 82 69 82 bd 14 8a 09 be 17 5d a8 bd 0a 09 a7 bb
       -0.0636778 -0.13431579 -0.082208805 -0.005097513
000070 5a 86 a3 bd 36 d5 87 3d 9e 0a 22 3d 1a 24 d4 bd
       -0.0798461 0.06632464 0.039560907 -0.10358448
000080 47 27 58 bc 45 75 9d bd 8d 22 10 be a5 8f 92 bd
       -0.013192958 -0.07688383 -0.1407568 -0.07156304
000090 8c b5 9d bd 7b a5 f5 3d 97 c7 14 bd 11 63 c9 bd
       -0.07700643 0.119944535 -0.036323156 -0.098333485
0000a0 c9 ae 10 bb 27 81 5d 3d 30 dd 10 3d 75 1a 93 3d
       -0.0022076836 0.054078247 0.03536719 0.07182781
0000b0 18 ca 94 3d d2 15 71 bd 50 0c 16 3c 0f cf f8 bd
       0.07265109 -0.0588587 0.009158209 -0.12148868
0000c0 16 3d 15 bc 8e e7 3b be 2c ca 7d bc a4 15 4d 3d
       -0.009108802 -0.1835005 -0.015490096 0.050069466
0000d0 66 db 45 bd d6 4b 01 3e cc 29 06 be 0f 02 e5 bd
       -0.048304938 0.12626585 -0.13101882 -0.11182033
0000e0 1c 5f 16 be 25 f2 81 bd 68 e8 77 3d 52 b2 3d 3b
       -0.14684719 -0.063450135 0.060524374 0.0028945399
0000f0 f6 2d db bd a8 06 bf 3d 6b 7b 2d bc 44 5e 32 bd
       -0.10702126 0.093274415 -0.010588507 -0.04354693

value_fc.weight f4 [1, 64]
000000 34 fd d7 3c 36 7b 27 3d 47 26 d2 3e c1 6f 84 bc
       0.026365854 0.040888987 0.41044828 -0.01616657
000010 56 cd f3 be 52 87 9e bd da 63 cf 3e 5c 16 4c bd
       -0.47617596 -0.07740654 0.40505868 -0.04982601
000020 cc 36 c6 3d 18 d4 24 3e 6a 9b f1 3d fe 7f 89 3d
       0.096784204 0.16096532 0.11797221 0.06713866
000030 e6 32 b4 bc c6 eb b9 3c fc 32 69 3e ad 23 90 bf
       -0.021996927 0.022695433 0.22773355 -1.1260887
000040 25 8b 94 bd c3 c3 37 bf 38 3e 62 3d ba dd ac 3c
       -0.07253102 -0.71783084 0.055235118 0.021101821
000050 32 a1 22 ba 27 ff b3 3d b2 38 57 bd e4 07 8e 3e
       -0.00062038295 0.08788901 -0.052544303 0.27740395
000060 7f f3 6e bc 73 1a 2b bf a5 da e3 bd 20 e6 e4 3c
       -0.014584421 -0.66837233 -0.111256875 0.027941763
000070 d3 52 c8 3e c2 33 d6 3c e8 ba 8d 3d cd 76 12 3e
       0.3912569 0.026147727 0.06920415 0.14303131
000080 91 e1 22 3d 27 65 e6 bb a4 91 15 3e e7 38 ab 3e
       0.0397659 -0.0070311013 0.14606339 0.3344185
000090 20 22 d0 bd 7e 4e f5 bc 33 34 ec 3e 35 35 96 3c
       -0.10162759 -0.029944655 0.46133575 0.018335918
0000a0 c5 23 10 bd 53 14 85 be a0 47 87 3c 06 90 b4 bb
       -0.035190362 -0.2599207 0.016513646 -0.005510333
0000b0 94 5b 2e 3d f8 4b 55 3e 46 07 4a 3d d0 f1 23 bd
       0.042567804 0.20829761 0.049323343 -0.040025532
0000c0 c4 eb c1 bd 6b a7 4d 3e df 2b b2 be 39 9a 34 3d
       -0.09468797 0.20083396 -0.34799096 0.04409239
0000d0 a7 f1 3d 3e 20 67 ee bc 69 65 cd 3e b0 29 6c bf
       0.18549214 -0.029101908 0.40116432 -0.9225111
0000e0 88 97 41 3e 65 e1 88 bd 14 47 b9 3c 15 58 db 3d
       0.18905461 -0.066836156 0.0226169 0.1071016
0000f0 74 7b 00 bf f5 f4 29 be 01 f1 d7 be 3f 24 30 3d
       -0.50188375 -0.1659735 -0.4217606 0.043003317

advantage_fc_hidden1.weight f4 [64, 64]
000000 1b 6a e5 bd 9e f5 6c bd ca 26 dc 3c 0d 1d 50 3e
       -0.11201879 -0.057851426 0.026873965 0.20323582
000010 26 c3 59 3e 51 42 bf bd ee 4d 02 be 14 1b 7f 3d
       0.2126585 -0.09338821 -0.1272504 0.062281683
000020 9f e1 31 3d f4 87 ab 3d 53 86 2b 3e b7 0a 50 3d
       0.04342806 0.083755404 0.1675046 0.05079147
000030 37 fb f9 bc 39 a5 0b 3e 6e 8c ea bb 64 a7 5b 3d
       -0.030515296 0.13637246 -0.007157854 0.053626433
000040 2b f0 9c 3e 5d 7f 0f be 2f a0 86 be 58 b9 17 be
       0.30651984 -0.14013429 -0.26294085 -0.14816797
000050 4b 06 cb 3d 23 6e 93 bd b6 29 d6 3d e2 3c a5 bd
       0.0991331 -0.07198741 0.104571745 -0.08068253
000060 9c 6e a7 3b 48 8f cb 3e e8 d3 40 bd 5b c4 90 be
       0.005109621 0.39757752 -0.04707709 -0.28274807
000070 ef 17 87 be 1f 0e 0a 3e 91 b0 35 3e f9 71 75 be
       -0.26385447 0.1348195 0.17743136 -0.23969258
000080 bd 70 81 bb 9c 2d 82 3e 92 5c ec 3d 3a ef 13 be
       -0.003950207 0.25425422 0.11541094 -0.14446726
000090 82 1b 51 3c 4f 70 cc 3b 62 07 9d be 03 bc b2 3d
       0.012762906 0.006238974 -0.30669695 0.08727267
0000a0 08 69 81 bd ec a0 d0 be 4d e1 13 bd 0d b2 ec bd
       -0.06318861 -0.40747774 -0.036103535 -0.11557398
0000b0 95 2b 38 be 32 79 56 be 00 30 8a 3d 8f ca 4e 3e
       -0.17985375 -0.2094467 0.067474365 0.20194457
0000c0 b8 b6 ad 3d 9f ba 66 bd 46 30 18 3e a7 97 71 bd
       0.084821165 -0.05633032 0.14862165 -0.058982518
0000d0 dd 00 5b bd a4 16 bd 3c 48 bc b1 be 93 c3 40 3c
       -0.05346762 0.023082085 -0.3471396 0.0117653785
0000e0 cb 30 6d 3e af 0d 35 3d a9 90 ca bd 00 88 7f 3c
       0.23163144 0.044202503 -0.09890873 0.01559639
0000f0 0d d5 c0 bd 53 49 8a bd de 30 79 bd 22 8c b0 bd
       -0.09415636 -0.06752267 -0.06083762 -0.08620478
000100 99 dc 90 3d 9b f8 00 be 83 d3 7b be 03 69 23 3e
       0.07073326 -0.12594835 -0.24592404 0.15958028
000110 b4 cf 05 3e aa 89 78 3c 1e 62 80 3d d1 ab 82 3d
       0.13067514 0.01516954 0.06268714 0.06380428
000120 29 33 13 be 30 e8 d1 bd 8e 63 ee 3d 99 d0 cb bc
       -0.14374985 -0.102493644 0.11640082 -0.02487974
000130 35 d4 93 bb ab 3f 86 3c d6 3e a2 3b 87 46 f4 3d
       -0.004511381 0.016387781 0.0049513383 0.119275145
000140 fc 58 07 be 95 a9 a6 3d d2 21 c8 bd 32 02 af 3d
       -0.13217539 0.08137814 -0.09772076 0.085453406
000150 c4 8a b4 3d 56 b8 04 3c ca 1e b1 bc ef 03 6a be
       0.0881553 0.00810059 -0.021621127 -0.22853063
000160 f3 25 65 3e dc 95 58 3e a1 72 63 3d 63 f4 65 3e
       0.22377758 0.21150917 0.05552924 0.22456507
000170 b5 22 08 be cc 2b 35 3d 04 76 3d 3d 4e 26 80 be
       -0.1329449 0.04423122 0.046255127 -0.25029224
000180 ba 29 10 be a2 45 9a 3d a6 b2 eb 3d e9 ef 56 be
       -0.14078417 0.07532813 0.11508684 -0.20989956
000190 2a 16 32 be 74 78 0e be 0e 7e b6 bd f1 f9 b6 3d
       -0.17391267 -0.13913137 -0.08910762 0.08934391
0001a0 e0 37 3e be 6f 9a d2 3c 9c 2d 0c 3d 74 eb 7e bd
       -0.18576002 0.025708405 0.034223184 -0.062236264
0001b0 6d ea fc 3c 5a 2a c3 3d e5 4c 21 3e 2e fa d2 bd
       0.030873502 0.09529562 0.15751989 -0.10301624
0001c0 45 73 29 bc e4 f4 66 bc 58 da 21 bd 1a f0 da bd
       -0.010342424 -0.014096472 -0.03951487 -0.10690327
0001d0 e8 ad 6d 3d 95 3d 23 be b0 72 13 bc eb ef d2 3d
       0.058027178 -0.1594146 -0.008999512 0.10299667
0001e0 ba 49 c6 3d 51 51 94 3c f8 59 3b be e7 fa 48 bd
       0.09682031 0.018105181 -0.18296039 -0.049067404
0001f0 f2 a5 98 bc a5 ab 07 3d c7 57 ca bd 41 86 93 3d
       -0.018633816 0.033122677 -0.098800234 0.07203341
000200 ad fc 24 be ae 52 9e bd cb 06 8b 3c 1e 5c b0 be
       -0.16112013 -0.07730614 0.016971013 -0.3444528
000210 00 07 e5 bd b8 d0 5b 3d 16 a9 44 bd 2f 01 16 bd
       -0.11182976 0.053665847 -0.048012815 -0.036622223
000220 9c 2a 70 bd c5 ef 52 bd c9 d1 10 be fa 1b 6e 3c
       -0.058634385 -0.051498193 -0.14142527 0.014533037
000230 fe fb d5 3d d3 68 12 3e da c0 b3 3b 5e b7 cf 3d
       0.10448454 0.142978 0.005485636 0.101423964
000240 4b f1 08 3d 3d 02 db bd 33 d5 7f be d7 b4 4d 3d
       0.03343324 -0.10693786 -0.24983673 0.05022129
000250 ba ee f8 be 38 e5 b8 bd 66 b0 01 bc f2 1c ce 3c
       -0.48619634 -0.09028095 -0.007915592 0.025160287
000260 71 2a c4 3d 08 b5 52 bd de 14 ec be 7e 24 17 be
       0.095784076 -0.051442176 -0.4610967 -0.14760014
000270 0f 92 c7 3b 5b 26 3e be 41 85 2a be 31 bb 64 3e
       0.0060904096 -0.18569319 -0.16652395 0.22337033
000280 93 27 99 be ec c7 d1 bc f0 20 9c 3c 91 92 bb bd
       -0.29913005 -0.025608025 0.019058675 -0.09158815
000290 9c 94 23 be a2 81 a4 3d a8 c5 8c be 4f 8f 61 3e
       -0.15974659 0.08032538 -0.2749455 0.22027324
0002a0 5f 7e fa ba 23 70 06 bf a5 fd d5 bd f1 e8 69 3e
       -0.0019111148 -0.5251486 -0.104487695 0.22842766
0002b0 f1 11 76 3d a9 65 30 bd 26 b4 97 3d 88 3b da 3d
       0.060075704 -0.0430657 0.074074075 0.10655886
0002c0 88 59 cf bd a7 cd 17 3d ef 73 dc 3d 2d 1e 65 3d
       -0.101244986 0.03706136 0.107643 0.05593698
0002d0 ae 6a 9c 3d 32 d3 7b 3d 28 fc b0 bd 4a dc 51 3e
       0.07637535 0.06148071 -0.08641845 0.2049419
0002e0 b7 6a 2f 3e ab 56 11 be 24 88 92 3e 9c 31 cd 3d
       0.17130552 -0.14193217 0.28619492 0.10019228
0002f0 69 a8 8d 3d 9f 2f 3c be 8c e4 83 3e f5 89 81 3e
       0.06916887 -0.18377541 0.25760305 0.25300565
000300 39 e0 83 3d d5 4a 4d 3d 91 f3 f8 bd 93 fd 30 be
       0.064392515 0.050120194 -0.121558316 -0.17284231
000310 32 3e 89 3d 25 cc 2e be d8 7e d3 3d dc 79 18 3b
       0.06701316 -0.17070062 0.10326928 0.0023265993
000320 2c 9b 3d be a1 60 83 bd 5a 7e 61 3d 43 77 11 3d
       -0.18516225 -0.06414915 0.05505214 0.035514127
000330 51 cc 3f be ab aa 26 3b a5 f1 f1 3d 3f 08 28 3d
       -0.18730284 0.0025431316 0.11813668 0.04102349
000340 86 84 30 3e a6 ac 53 bd f8 d0 65 bc dd 00 04 be
       0.17238054 -0.051678322 -0.014026873 -0.12890954
000350 b9 f0 f7 bc 49 ee 7a bd 14 58 6a bd 38 bf 44 3c
       -0.030266153 -0.061262403 -0.057212904 0.012008481
000360 bb ac 9b 3c 18 4e 61 be bc cc 33 bd 2c c4 15 3e
       0.019003263 -0.22002447 -0.04389642 0.14625615
000370 76 b9 c5 ba 54 91 80 bc f0 cf 1e 3e 73 87 dd bc
       -0.0015085179 -0.015694298 0.1550901 -0.027042126
000380 aa 26 21 3e f9 77 04 3e 4e 09 87 3e c9 dc d8 3d
       0.15737405 0.12936391 0.26374286 0.105889864
000390 83 12 06 be 39 6f c3 3d 6b 58 00 3d 2b 43 cd 3c
       -0.13092999 0.095426984 0.031334322 0.025056442
0003a0 ea 63 87 be 8f 25 7b 3e 9d 25 d8 bd 79 c6 fc bb
       -0.26443416 0.24526046 -0.10554049 -0.0077140895
0003b0 ab c3 6d be 0c 3a 23 bc 20 fc b6 bc 2b 66 a7 bd
       -0.23219173 -0.00996257 -0.02233702 -0.08173784
0003c0 0a 96 80 be 5d 68 c8 bd a4 34 30 3e 0f 64 3d 3e
       -0.2511447 -0.09785531 0.17207581 0.184952
0003d0 17 ed da bc 6a 34 12 3e 6c 8a af 3d 73 4c fe 3d
       -0.026724381 0.14277807 0.08571324 0.12416925
0003e0 1a 13 62 3e 93 ed e0 bd 6d 9a ed 3d 48 88 e4 3c
       0.22077599 -0.10982814 0.1160172 0.027897015
0003f0 33 6e 7a bd bd b8 53 bd 36 6a c3 3d 2b ba ce bd
       -0.06114025 -0.051689852 0.095417425 -0.100941025

advantage_fc_hidden1.bias f4 [64]
000000 1a 04 96 3d db 63 57 3c 52 41 8c bd 2a d8 80 bd
       0.07325001 0.013146366 -0.06848396 -0.0629123
000010 ad 2a dc 3c ca 1e c5 bd b3 7c 01 be d2 f6 cb 3d
       0.026875818 -0.09625013 -0.12645225 0.099591866
000020 15 3e d9 3d 8e 0f d4 bc 8c a3 1d be 90 cb d2 3c
       0.10607544 -0.025886323 -0.1539442 0.025731832
000030 8a 89 62 bc 74 72 ae 3d dd e3 08 3e b2 e3 b7 bd
       -0.013826737 0.08517924 0.13368173 -0.08978976
000040 f7 b7 9e 3d bb e2 05 bd 58 63 67 bc 60 4c 64 bd
       0.07749932 -0.03268693 -0.0141228065 -0.0557369
000050 37 4a 85 3d 28 90 12 3a e8 8a 25 3e ed aa 3d bd
       0.06508296 0.0005590939 0.1616627 -0.046305586
000060 16 e6 f0 bb df cd 06 bd 4e 28 58 bc 48 c7 fc 3c
       -0.007351647 -0.032911178 -0.013193203 0.030856743
000070 7c 5a db bc d7 52 a4 3d 05 1c 82 be 19 96 b6 3d
       -0.026776545 0.08023613 -0.25412002 0.089153476
000080 95 20 b0 3c 89 24 a3 bd 2b 1f bf 3c 5a 8d 58 3d
       0.021499911 -0.07965953 0.023330292 0.05286918
000090 b3 f4 c0 3c 7a ce be bd 84 b7 74 3d dc 0f b8 bd
       0.023554182 -0.09316726 0.059745327 -0.089874
0000a0 85 3e 3c be c0 43 b2 bd a6 46 cf bd 8f a8 78 3d
       -0.18383224 -0.087043285 -0.10120897 0.060707625
0000b0 c1 f0 94 3d cb 6f b5 bd f0 1b dd 3d bb 7f 9b 3d
       0.07272483 -0.088592134 0.10796344 0.07592722
0000c0 b9 8d 06 be d6 f4 c9 3d 35 9b df bc a2 f0 82 3d
       -0.1314 0.09861152 -0.027295688 0.06393553
0000d0 fb 9b 31 be a7 52 8d 3d a1 d0 7e 3d 04 e2 db bb
       -0.17344658 0.0690053 0.062210683 -0.006710293
0000e0 aa 15 f2 bd ea 21 99 bc 52 c4 50 bd 5f be c3 bd
       -0.11820538 -0.01869293 -0.050968476 -0.09557795
0000f0 e0 2d d0 bd 27 f8 d2 bd 89 fc 98 bd 60 8d 0b bd
       -0.10165 -0.103012376 -0.07470042 -0.034070373

advantage_fc_hidden2.weight f4 [64, 64]
000000 ce a6 77 3e 9b 8f 94 be 45 ab b9 bd 0c 40 1c bc
       0.24184725 -0.29015812 -0.0906587 -0.009536754
000010 ad 61 d4 3c d8 ab d8 bd 88 1a b3 bd dc c7 54 3e
       0.025925482 -0.105796516 -0.08745295 0.20779365
000020 13 ee 59 be e3 f6 2e bb 7f a1 eb bd 7e 05 f6 bc
       -0.21282224 -0.002669745 -0.11505412 -0.030031916
000030 02 8e b3 bc cd 86 d6 3c 23 88 64 bd d1 be 97 bc
       -0.0219183 0.026187325 -0.055793893 -0.018523606
000040 23 6b 90 bd 85 70 3c be 7a 26 a9 bb 5e 2b 27 be
       -0.07051685 -0.18402298 -0.0051620575 -0.16325137
000050 e8 12 08 be bd 22 8e bd 7c 63 28 be bd 89 c7 bd
       -0.13288462 -0.069402196 -0.164442 -0.09743068
000060 24 aa 1d 3e 5f 65 aa 3d 44 a7 5c 3e 36 79 f9 3c
       0.15396935 0.08320116 0.21548182 0.030453306
000070 12 4d 8c be 62 81 2e bc a5 6c 2b be 82 bf 8c 3e
       -0.2740255 -0.010650964 -0.16740663 0.2748986
000080 13 2c bf 3c 62 d2 96 bd 02 f4 15 bd 2e a9 96 3d
       0.023336446 -0.07364346 -0.036609657 0.07356487
000090 82 c0 27 be 69 a5 b3 3b 08 a9 3e bd 4a 3a 1d be
       -0.1638203 0.005482365 -0.04654792 -0.15354267
0000a0 73 1c 4f be 28 c5 3a be 7a ff 13 be 8d ae bb 3d
       -0.20225696 -0.18239272 -0.14452925 0.09164152
0000b0 7a 4f 1c 3e 2f 81 13 be 13 55 2d 3e 33 f2 49 be
       0.15264693 -0.14404748 0.16926984 -0.19721298
0000c0 c3 dc 12 be 60 ce 1c 3e fe a4 0e be e9 ac 81 bc
       -0.14342026 0.15313101 -0.13930127 -0.01582952
0000d0 66 af 63 3d 2f 36 bc bd 42 13 17 3e 12 69 2d 3d
       0.055587195 -0.09190022 0.1475344 0.04233653
0000e0 74 36 95 bd 7b 5c 0a 3d 1d b3 1d be 29 aa 00 3e
       -0.07285777 0.033779602 -0.15400358 0.12564911
0000f0 f7 24 b5 3e e5 f8 e9 bd 14 fc bd 3b ef 5e 8e be
       0.35379764 -0.11424426 0.0057978723 -0.27806804
000100 c8 c4 27 3e 40 a6 81 be 3a e7 4b 3e 11 23 73 be
       0.1638366 -0.2532215 0.19912425 -0.23743846
000110 7c 17 ea 3b ed f1 0d 3d b5 22 3a be 48 cd 76 3e
       0.007143913 0.034654547 -0.18177302 0.24101746
000120 4d ec 9c be 86 27 8d 3e 2b 3e 1d 3e e7 b0 fa 3c
       -0.30649033 0.27569216 0.15355746 0.030601932
000130 a3 87 15 3d 26 a0 0a 3e 8a 5b 33 be 73 80 b9 be
       0.036506306 0.13537654 -0.17515388 -0.3623081
000140 54 c1 5b be 77 a3 10 3d 30 19 58 bd 1d 86 e9 3d
       -0.21460468 0.035312142 -0.052758396 0.11402533
000150 f6 c2 94 bd b1 61 73 be 9d 2c 80 3a 0e 8b 43 be
       -0.07263748 -0.23767735 0.0009778921 -0.19096014
000160 35 f7 78 bd c9 a3 2c be 03 70 0f 3e fe a9 50 bd
       -0.06078263 -0.16859354 0.14007573 -0.050943367
000170 d0 69 32 be eb 68 2d 3d 4f e5 23 3e 7d 9a e1 3d
       -0.17423177 0.042336386 0.16005443 0.110157944
000180 06 e1 f0 bd 75 f2 e3 3d 49 be 76 bd 4d 6b 7d bd
       -0.1176167 0.111302294 -0.060240064 -0.061869908
000190 dc b8 50 3d 75 b5 5a be c2 1d 2a bd 97 af 05 be
       0.050957546 -0.21358283 -0.041532286 -0.13055263
0001a0 4f 52 01 be 29 77 ea 3d 67 c5 9f 3c 51 76 18 3d
       -0.12629054 0.11448509 0.019503308 0.03722221
0001b0 90 37 a6 bd cc c2 ef bc d0 b0 89 3e 8b a8 84 be
       -0.081160665 -0.029267691 0.2689271 -0.25909838
0001c0 e7 56 0c 3d 8d 9d 39 be c7 34 6d be a0 f6 bb 3d
       0.034262564 -0.18126507 -0.23164664 0.09177899
0001d0 2e 07 8f 3d c3 c8 a0 3d a5 9e d7 bd 88 7a 23 bd
       0.06983791 0.07850792 -0.10528306 -0.039911777
0001e0 0f a5 54 3e 44 c3 87 3d 1b c9 58 be 00 ca 32 3e
       0.2076609 0.06629041 -0.21170466 0.1745987
0001f0 8f aa 07 3f 30 29 3f 3e e1 ae c6 3b ed 15 1e be
       0.52994627 0.18668056 0.0060633277 -0.15438052
000200 5a 48 91 bd d9 f0 98 ba 91 39 ac bd e6 a3 23 bd
       -0.07093878 -0.0011668458 -0.084094174 -0.039951228
000210 ab 84 19 3d b4 1f ee 3d 80 b2 02 bb a5 f1 be 3d
       0.037480038 0.11627141 -0.001994282 0.09323434
000220 43 d3 79 bd 4e 2c 9a bc 3f ac 10 bd 51 80 d6 bd
       -0.06099249 -0.018819954 -0.035320517 -0.10473693
000230 ae b2 ed bd 34 a8 2d bd c8 2f 27 3d bc d0 b9 bd
       -0.11606346 -0.04239674 0.040817052 -0.09073016
000240 aa 7a f2 ba 21 0c 01 3d b6 04 93 3d 7c b7 df bd
       -0.0018499692 0.031505708 0.07178633 -0.10923669
000250 43 10 aa 3d 50 ab 1e 3c 74 22 80 bd 89 c7 8e bd
       0.08303883 0.009684399 -0.062565714 -0.06971652
000260 3e a4 02 be 7e 4b 85 bd 00 4b ec ba f4 a5 a5 3d
       -0.12757966 -0.065085396 -0.0018027723 0.08088294
000270 b1 17 51 3d b0 a5 2c 3c 98 e6 5f bd 7c 60 8b 3d
       0.051047985 0.01053755 -0.05466327 0.06805512
000280 f7 4c a9 3d 2b 4c 40 3d 9d 78 85 bd 63 24 b0 3d
       0.08266633 0.04694764 -0.06517146 0.0860069
000290 db b8 40 bc 38 06 a2 bc 2b 05 76 bd de a0 27 bd
       -0.011762823 -0.019778356 -0.060063522 -0.0409249
0002a0 cc ee 3a 3d b5 ac e3 bd 97 87 98 bd 6c aa 89 3d
       0.04563789 -0.111169256 -0.07447737 0.067219585
0002b0 4f 0e e7 3c b3 ef ea bc 91 a6 83 3d bd 2e 29 3d
       0.028205065 -0.02867875 0.064282544 0.04130434
0002c0 8c ab 39 bd 78 93 93 3d 52 6b e1 bd f7 31 f0 3b
       -0.045329615 0.07205862 -0.11006798 0.007330175
0002d0 b8 78 23 bd 32 c1 c9 bd 80 47 81 3d a0 23 8d bb
       -0.03991005 -0.09851302 0.06312466 -0.0043072253
0002e0 92 7f fc bd de 91 86 bc c5 ac ee 3b 0b 52 b6 3d
       -0.123290196 -0.016426977 0.0072837793 0.08902367
0002f0 9d 08 a8 bc 9e b5 8b 3d 81 be a7 bd a0 d0 34 3d
       -0.02051192 0.0682175 -0.081906326 0.044144273
000300 d2 80 6f be 70 f9 11 bc c0 61 8a be 3e de e2 3d
       -0.23388985 -0.008909568 -0.27027702 0.110775456
000310 13 7a 09 bd 22 d6 80 3d fa 23 18 be c0 4f 6d 3e
       -0.033563685 0.062908426 -0.14857474 0.23174953
000320 4c e0 c4 bd af 90 54 bd fa 06 8c be 1f ed dd bd
       -0.09613094 -0.051895794 -0.27349073 -0.10836243
000330 fc cb 28 3e 84 4e d5 3d af c5 a6 bd 17 9a 28 be
       0.16484064 0.10415366 -0.08143174 -0.1646503
000340 fe 2f 14 bd c0 32 02 be c5 69 b2 be 04 0d 13 3e
       -0.03617858 -0.12714672 -0.3484632 0.14360434
000350 70 32 41 be de 30 68 3e 06 db a6 be f7 58 46 bd
       -0.18866897 0.22674891 -0.32588977 -0.048424687
000360 99 79 b7 3d d6 40 b7 3e c3 cd 77 3e d5 10 07 3e
       0.0895874 0.35791653 0.24199586 0.13190015
000370 2a 39 46 3d b0 1e 13 3e 34 2a 3f bd 8c e7 9c 3e
       0.04839436 0.14367175 -0.046671107 0.30645406
000380 5e 22 93 be 9a a4 1f 3e 0f bc 81 be 4c 8d c8 3e
       -0.28737158 0.15590134 -0.2533879 0.391703
000390 66 6d 96 3d 1d 03 e9 3c 70 25 cf bd 55 ad e5 3d
       0.07345085 0.028443867 -0.101145625 0.11214701
0003a0 cb 00 85 be 36 4c 3b 3d 9b 9b 0e bc 20 33 84 bb
       -0.25977167 0.045726977 -0.008704091 -0.004034415
0003b0 05 28 8e be ef a5 33 bd f9 b1 cc 3e 90 5b 4a be
       -0.27764907 -0.04385942 0.39979532 -0.19761491
0003c0 73 72 ea 3d 82 a4 dc 3d b6 d8 11 be 85 ca 5d 3e
       0.11447611 0.10773565 -0.14242825 0.21659286
0003d0 49 30 a6 3c 7e d5 e8 3c 9a 45 71 3d a2 09 d5 3d
       0.020286696 0.028422114 0.058904268 0.10402228
0003e0 f6 9a a7 3c 82 74 78 3e 59 1d 13 be ab 29 87 3d
       0.020459633 0.24263194 -0.14366664 0.065997444
0003f0 47 b9 4c 3e 59 a2 4a bd b7 ec 0c 3e 7a e3 e2 be
       0.19992553 -0.049471233 0.13762175 -0.44314176

advantage_fc_hidden2.bias f4 [64]
000000 8b d1 4f 3d 65 5a 47 bd 6d 35 d5 bd 45 17 8a bd
       0.050736945 -0.04867019 -0.10410581 -0.067427196
000010 32 bc 0e bd 9b eb b5 bd dd 37 d2 bd 0f 93 e3 bd
       -0.034847446 -0.08882829 -0.10264561 -0.111120336
000020 a0 eb 34 bd 82 05 ea bd 27 74 09 be 86 6d 1c 3d
       -0.044170022 -0.11426832 -0.13423215 0.038190387
000030 5c a7 5e bc fe 9c 53 3c 89 3e c3 bd 05 66 42 bb
       -0.013589706 0.012915848 -0.09533412 -0.002966286
000040 07 9d f9 bd 24 30 a0 bc a1 8f bf 3c 60 1d 9c bd
       -0.12188154 -0.019554205 0.023383917 -0.0762279
000050 61 0a af bd 30 bb 3e be 6a e0 eb 3d 18 59 50 3d
       -0.085469015 -0.18626094 0.11517413 0.050866216
000060 2c 43 22 3e fe 3c 00 3e 60 8b 31 bd 1d 69 8a 3d
       0.15845937 0.12523267 -0.04334581 0.0675833
000070 9b f0 1a be 07 75 94 bd 75 a5 a1 3d a3 3a bd bc
       -0.15130846 -0.07248884 0.078928865 -0.02309925
000080 e3 69 e8 bd 41 b2 83 be bd fc 5e be e2 00 f6 bd
       -0.11348321 -0.25721934 -0.217761 -0.12011887
000090 0d ac 00 be 31 e2 b3 bd bb db b1 3c f5 45 36 be
       -0.12565632 -0.08783377 0.021711221 -0.17800124
0000a0 73 93 bf bd ce d0 9d 3c db 4c 1f bc 21 bd 99 3c
       -0.093542956 0.019264605 -0.009722914 0.018766942
0000b0 21 41 b6 bc 8b e1 ac 3c 41 62 02 3e 51 e8 57 3c
       -0.022247853 0.021103641 0.12732793 0.013177947
0000c0 5c dd 52 3d 77 b7 f6 3d bb 13 99 bd ae 9d 96 3d
       0.051480636 0.12046712 -0.074744664 0.07354294
0000d0 0c da b3 3b 42 a2 50 3c 4c c3 ee bd 22 a0 97 bc
       0.0054886397 0.012733998 -0.11658344 -0.018508974
0000e0 b5 6d 98 3d 1a 9d 40 be b4 b1 c9 bc 82 97 aa bd
       0.074428 -0.1880993 -0.024620868 -0.08329679
0000f0 d9 d0 9d 3d 69 61 31 3c 83 52 96 3d a5 e9 0a 3e
       0.0770585 0.010826447 0.073399566 0.13565691

advantage_fc.weight f4 [4, 64]
000000 b4 a3 57 3e 26 a7 a0 3e 07 57 8e bd 2b 54 77 bc
       0.21058542 0.31377524 -0.06950193 -0.015095751
000010 4b df 43 be be ab 79 be ee 91 c3 3e fb ff 80 bd
       -0.19128148 -0.2438192 0.38197273 -0.062988244
000020 2e ac c2 3d 69 7b f9 bb 8e d1 fb bc b8 c9 3c be
       0.09505497 -0.0076135886 -0.030739572 -0.18436325
000030 e8 4b 20 bc af 30 78 bd 5e f9 23 3e 7d 70 4e be
       -0.009783722 -0.060593303 0.16013095 -0.20160098
000040 82 22 bb 3d 6c e8 5d be ec 97 c4 bd 72 ce e0 3e
       0.09137441 -0.21670693 -0.09599289 0.43907505
000050 2a b5 e8 3c 32 04 9f 3e 62 46 a2 bd a1 61 50 3d
       0.028406698 0.31057888 -0.07923581 0.050874356
000060 7c 96 a5 3c 93 70 b2 bd 59 0d 3a 3e d6 e8 6c 3d
       0.020213358 -0.08712878 0.18169154 0.057839237
000070 4c 53 a6 be 93 63 4f bd 52 7c 4f 3e 42 92 8e 3d
       -0.32485425 -0.05063207 0.20262268 0.0696149
000080 56 04 2d 3d 29 e7 ac 3e 79 9b d6 3d 92 2f ae be
       0.042240463 0.3377011 0.10478873 -0.34020668
000090 19 7e 28 be 3c 95 f8 3e ab 45 36 bd 71 0c c5 bd
       -0.16454352 0.48551357 -0.044500034 -0.09621514
0000a0 40 19 08 3e ef 99 29 be 87 e9 10 bc 40 d4 9e bc
       0.13290882 -0.16562627 -0.00884474 -0.019388318
0000b0 ca 25 c8 3d 78 85 6b bd ce 33 b6 bc bf 43 89 bd
       0.09772833 -0.057500333 -0.0222415 -0.06702375
0000c0 c1 17 45 bd fd ce 8f 3d b6 a5 2a 3f a3 b9 61 bd
       -0.048118357 0.07021902 0.66659105 -0.055108678
0000d0 44 55 d3 bd f9 1c cb 3d 81 4e 0a bd c7 ee 83 3e
       -0.103189975 0.099176355 -0.033766273 0.2576811
0000e0 53 ae ab bd e8 7d 2a 3c f2 2c 94 3d cf bc 3c 3e
       -0.08382859 0.010405995 0.07235135 0.184314
0000f0 5f 33 05 be f6 21 a0 bd f6 c1 38 3e fa 2d 7f be
       -0.13007878 -0.078189775 0.1804274 -0.24919882
000100 a0 b0 1c be f8 9b 98 be c6 c5 aa 3d 9c d7 53 be
       -0.15301752 -0.29806495 0.083385035 -0.20687717
000110 36 ff ba 3d bc 53 0c 3d 0b ca 62 bb e2 7d 42 be
       0.09130709 0.034259543 -0.003460529 -0.18993333
000120 01 9a 68 bd e7 df 74 3d 2c 9b fd ba e4 ca ae 3d
       -0.056787495 0.059783842 -0.0019348613 0.08534792
000130 0a 64 e7 3c d9 9b 72 bd 1a 33 81 be 91 f9 e4 3d
       0.028245945 -0.05923066 -0.252343 0.111804135
000140 a9 0d 2f be 0a e0 41 bd 4e 29 0a 3b 10 47 2f be
       -0.17095055 -0.0473328 0.0021081748 -0.17116952
000150 53 e7 55 3e db 41 b0 be 2d a2 8f bd 31 d8 0a bc
       0.20889024 -0.34425244 -0.070133545 -0.008474396
000160 c5 31 f3 3c dc ba fa 3c 13 8e 14 be 09 c4 82 3d
       0.029686818 0.03060668 -0.14507322 0.06385047
000170 78 57 b1 3d 1a 51 13 3e ce ff 02 bd b2 9e ef bb
       0.086592615 0.14386407 -0.031982236 -0.007312619
000180 f9 ab 76 bd a6 07 36 bf 53 1d 0f bf 69 41 73 3e
       -0.0602226 -0.7110542 -0.5590412 0.2375542
000190 fc d9 ad 3e b7 5c 14 3d ad 27 e1 3d 68 0a c4 bd
       0.3395537 0.036221232 0.10993896 -0.09572297
0001a0 4b b6 30 be 34 d2 6a 3d c1 72 83 bd fa 3a fc 3c
       -0.17257039 0.05732937 -0.06418372 0.030789841
0001b0 ff 6d 9f 3d 0b 2c 2b 3e 78 ac 1c bd 4d 57 4d bd
       0.07784652 0.1671602 -0.038250417 -0.050132085
0001c0 a6 a6 3d 3d b2 12 58 bd fc 03 6a be 80 83 a5 3d
       0.046301506 -0.052752204 -0.22853082 0.08081722
0001d0 ea c6 8c 3b 8b c2 8a 3e eb 69 a1 bd a7 96 7a be
       0.0042961733 0.2710155 -0.078815304 -0.24471532
0001e0 60 af b2 3d 85 d9 e2 be bb 17 6d be 3a f5 fc 3d
       0.087248564 -0.4430658 -0.23153584 0.12351461
0001f0 d8 01 a1 3d e1 8a 04 3e 42 24 2a 3d 0d d3 a1 3d
       0.0786168 0.12943603 0.041538484 0.07901583
000200 9d 0e 10 be ac 9a a3 bd 3c aa b2 bc 79 74 ba be
       -0.14068075 -0.07988486 -0.02180969 -0.36416987
000210 0c db 5b 3d 71 9a 94 3d 73 a8 d2 be 7d 17 0a 3f
       0.053675696 0.0725602 -0.41144142 0.5394209
000220 12 92 b7 be a7 7c 80 3e b7 7d 11 be c0 cc b0 bc
       -0.3585363 0.25095102 -0.14208113 -0.021582007
000230 fc 81 61 be 3d 3a 4e 3e 81 1c 5a 3e 32 c2 2e 3d
       -0.22022241 0.20139404 0.21299936 0.042665668
000240 61 b2 d1 3e 40 69 7b 3c 8c bb 90 3d 9b 97 4e 3e
       0.40956405 0.015344918 0.07067022 0.2017502
000250 bb 3d 3f 3e 45 1d 1b be b0 a7 48 3d f7 29 59 bc
       0.18675892 -0.15147884 0.048988044 -0.013254634
000260 16 58 b5 3d 2e b0 1f 3e d0 67 bf bc bb 9b 35 3c
       0.08854692 0.15594551 -0.023364931 0.011084492
000270 6d 60 87 bd 4e 64 63 be 06 1f 20 be 2f 1e a7 bd
       -0.06610189 -0.22206232 -0.15636835 -0.08160054
000280 9a d1 89 bd 9e 84 ee 3e b4 56 c9 3e 29 e2 eb bd
       -0.067294315 0.46585554 0.39323962 -0.11517746
000290 59 21 18 3f c5 e4 39 bf c8 a5 c7 ba ea 41 9f 3e
       0.59425884 -0.726147 -0.0015231902 0.31104976
0002a0 52 8e 29 3e c0 80 ca bc 58 9b 7e bc 1b 3b b7 3c
       0.16558197 -0.024719596 -0.0155399665 0.02236705
0002b0 17 d7 50 3d b0 8a 07 3e d4 58 9d bb 21 81 fe bd
       0.050986376 0.13236499 -0.004801849 -0.12426973
0002c0 67 4e 2c be 11 05 65 3d 3b eb 93 be e3 ee 45 3e
       -0.16826783 0.055913035 -0.28890404 0.1932941
0002d0 8e ee 0a 3d 27 d5 06 bf 9f 26 4b 3b ec 82 97 bd
       0.03391891 -0.52668995 0.0030998362 -0.07398018
0002e0 4c d5 b1 be 04 e5 7d 3e 8e 79 ee bd bb 25 d4 bb
       -0.34733045 0.24794394 -0.116442785 -0.0064742244
0002f0 56 37 11 bd d1 c7 9d bc 74 4b 97 3b 4f 73 23 3e
       -0.035453163 -0.019260319 0.004617149 0.15961955
000300 76 f9 cd 3d 3a 67 b9 3e 09 fa 68 bd 0a 9d 98 3e
       0.100573465 0.36211568 -0.056879077 0.2980731
000310 1d d1 33 3d 5b 56 f3 3e c5 23 aa 3e 13 6c 29 be
       0.043900598 0.47526821 0.33230415 -0.16545133
000320 79 d3 9d 3e 15 ff bc be 68 ef 1a 3e 60 dc af bc
       0.30825403 -0.36913362 0.15130389 -0.021467388
000330 c9 83 a4 3e 49 85 dc 3d c5 d2 11 3e 03 df 08 be
       0.32131794 0.107676096 0.14240558 -0.13366322
000340 bb ca 7f 3d e8 a9 83 3d 8d a9 74 3d c6 c6 a1 bd
       0.0624492 0.064288914 0.05973201 -0.07899241
000350 fb 0f 9e be 95 6d 56 3d db 66 19 bd a8 fc 06 be
       -0.30871567 0.0523506 -0.037451606 -0.13182318
000360 e0 eb 83 bc 8c 23 5a 3c 26 5b 04 be d1 52 89 be
       -0.016103685 0.013314139 -0.12925395 -0.26820996
000370 27 19 23 3e a2 d3 5f 3d 07 f5 1d be 29 c4 76 3d
       0.15927564 0.05464519 -0.15425502 0.060245667
000380 72 f4 3c bd e3 22 cb bb d0 ab 2c 3e 84 00 3a 3e
       -0.04613156 -0.006199227 0.16862416 0.18164259
000390 3b d8 3a bf 9a c0 0f 3f 14 af 7a be 3e a1 72 3e
       -0.7298619 0.5615326 -0.2448085 0.23694322
0003a0 7f cb 3b bd 69 35 25 3d 78 8e 16 bc e4 1b 1d bd
       -0.045848366 0.04033414 -0.009189241 -0.038356677
0003b0 11 96 64 3d 0f b4 b9 be 71 2f 89 3d da c6 69 3e
       0.055807177 -0.36270186 0.06698502 0.22829762
0003c0 7b 40 b6 bc 9f 3f b5 bc d2 9a a1 be 24 3d 8d be
       -0.022247544 -0.022125063 -0.3156343 -0.2758571
0003d0 6d 06 16 bc 24 e3 26 bd a8 0e 87 3d 0d b2 23 3e
       -0.009156805 -0.040743962 0.06594592 0.1598589
0003e0 b8 73 2b 3d 87 6e 91 bd b1 06 2a 3e c4 3e 19 be
       0.041858405 -0.071011595 0.16604115 -0.1496535
0003f0 09 e5 a5 bb 1c 37 17 3e 74 d2 d4 3b 6c 2c 19 3e
       -0.0050627035 0.14767116 0.0064948145 0.14958352

advantage_fc.bias f4 [4]
000000 79 e3 3c 3d e4 70 8a 3d 98 c9 16 3d ea 25 4a 3d
       0.046115372 0.067598134 0.03681335 0.049352564
