g.9_a.8_t.001_e.95_model.pt (torch, 65167 bytes, 11 tensors)

hidden_fc.weight f4 [64, 37]
0.09889717 0.04249357 -0.024371466 0.12056711 0.1326272 0.32712513 -0.52668786 -0.19424291
0.016059145 -1.190103 0.01259642 0.09244628 0.060305335 0.13804951 0.12440757 0.14799462
0.06922392 0.023492843 0.04238241 -0.05649634 -0.059828702 -0.16098356 0.013993013 0.03353391
0.2817463 0.16162047 0.10465924 -0.08377938 -0.0093787 -0.3445471 0.039378475 0.02496983
0.016936578 0.030738367 0.050990764 0.112127274 0.015523239 0.023807362 -0.045203738 -0.08865873
-0.0860734 -0.0026204374 0.14099765 -0.21564683 -0.10642423 0.2766888 0.80930704 0.041072156
-0.045232136 -0.04133516 0.056684732 0.029910529 -0.29298392 0.04424369 -0.07198003 0.070711836
0.056184582 -0.09180344 -0.19456318 0.12830018 0.0055758264 0.49805513 -0.008241419 0.11816074
0.026753096 -0.06732602 0.01977891 -0.21485242 0.039721023 -0.052563887 0.025191702 0.26397648
-0.13039489 0.04603335 -0.023419747 0.10345178 -0.0022933064 -0.105588265 -0.023118785 0.12787452
0.29825816 0.07174888 -0.087602675 -0.6606408 0.095292166 0.091394134 -0.049195085 -0.061513998
-0.13384123 0.06661361 -0.008387994 0.01777032 0.096273266 0.045499522 0.026044752 -0.011406576
-0.056182086 0.05732235 0.10914318 0.18183044 0.023479197 -0.12917835 0.09373033 -0.15766248
0.27112523 -0.60571367 -0.07549673 -0.22216816 -1.3240228 -0.01963031 0.008172563 0.1355932
-0.26791272 0.12047484 0.09995055 0.090622604 -0.12633593 0.21755895 -0.034449223 -0.31007537
0.2866596 -0.034284223 0.0967689 0.19275106 0.20642786 0.014838907 -0.09834591 -0.18415622
-0.07072287 -0.21495053 0.091107436 -0.15606849 -0.01391236 0.103681445 -0.24337655 0.03903189
-0.043785915 -0.012894137 0.097946376 -0.18754874 0.09337107 -0.10352925 0.20021684 -0.07742663
-0.09307604 -0.16821876 0.06314466 0.030021615 0.055689752 0.032496165 0.05749929 -0.07231906
-0.15043548 0.051022187 -0.19530421 0.1208911 0.046948113 -0.34600568 0.06582066 0.070766196
0.039971255 0.07336497 0.04969344 0.19001818 0.09526665 0.019374872 -0.07716918 -0.20111772
0.019109674 -0.080782615 -0.10662237 0.04733811 -0.14937885 -0.0248788 -0.19522697 -0.0623433
-0.010109879 0.16512936 0.004671702 -0.092541195 -0.2414268 -0.30253336 -0.11640528 0.030932706
0.036628384 -0.0757893 -0.080236346 -0.000594458 -0.0057040285 0.15405792 -0.16530412 -0.43625665
0.07745259 0.30044094 0.96322095 0.07787062 0.11293701 -0.17578703 -0.0890979 0.13200955
0.23963936 0.052176125 0.035761088 0.13884872 0.16470464 0.11000495 -0.15468416 0.10077055
0.075276315 0.060169682 0.16779388 0.0106047625 0.15024509 0.035515584 0.12811364 0.106696576
-0.06169492 0.08941814 -0.056362323 0.13394381 0.01664919 0.018491743 0.055231962 -0.07502619
0.108002335 0.03379421 -0.05574854 -0.043730944 -0.042983577 0.21747729 -0.24442065 0.15084861
0.03637359 0.08579306 -0.15426502 -0.009618967 0.17166653 0.09263711 -0.06056303 0.03732471
-0.12765364 -0.20402123 0.13285713 -0.08881608 0.1739783 0.119789034 0.06732168 0.101550326
-0.13593549 0.136548 0.0690181 0.021211982 -0.15531489 -0.09242174 0.008896174 -0.10972161
00000000: 998a ca3d bd0d 2e3d aba6 c7bc e4eb f63d
00000010: 6dcf 073e f27c a73e 04d5 06bf 9de7 46be
00000020: 788e 833c 4c55 98bf 3761 4e3c 7a54 bd3d
00000030: ba02 773d da5c 0d3e 65c9 fe3d e78b 173e
00000040: 45c5 8d3d 1074 c03c 2e99 2d3d b568 67bd
00000050: f10e 75bd e0d8 24be f342 653c da5a 093d
00000060: 0d41 903e d67f 253e 9557 d63d 8694 abbd
00000070: 1ea9 19bc 7a68 b0be 534b 213d 878d cc3c
00000080: 94be 8a3c 07cf fb3c b1db 503d fca2 e53d
00000090: 2f55 7e3c a807 c33c 8e27 39bd b592 b5bd
000000a0: 4047 b0bd a5bb 2bbb b061 103e 86d2 5cbe
000000b0: f2f4 d9bd 28aa 8d3e bf2e 4f3f 473b 283d
000000c0: 5545 39bd 0f4f 29bd 402e 683d ed06 f53c
000000d0: fd01 96be df38 353d 446a 93bd 5ed1 903d
000000e0: ce21 663d 7103 bcbd 923b 47be 1f61 033e
000000f0: 6cb5 b63b 1501 ff3e 0407 07bc 42fe f13d
00000100: 4f29 db3c 39e2 89bd 6107 a23c 4602 5cbe
00000110: 83b2 223d 3b4d 57bd d45e ce3c ed27 873e
00000120: 3d86 05be 778d 3c3d c5da bfbc 87de d33d
00000130: 4c4b 16bb a93e d8bd 9b63 bdbc 8af1 023e
00000140: 4bb5 983e 14f1 923d 0869 b3bd c11f 29bf
00000150: 8a28 c33d d92c bb3d c980 49bd 1af6 7bbd
00000160: ad0d 09be b76c 883d cc6d 09bc 1093 913c
00000170: eb2a c53d b55d 3a3d ce5b d53c a6e2 3abc
00000180: 301f 66bd d7ca 6a3d 7686 df3d c231 3a3e
00000190: 7257 c03c 5447 04be b0f5 bf3d 4672 21be
000001a0: edd0 8a3e 0d10 1bbf 089e 9abd 0d80 63be
000001b0: 9479 a9bf becf a0bc 37e6 053c f2d8 0a3e
000001c0: db2b 89be 83bb f63d e0b2 cc3d 5898 b93d
000001d0: 355e 01be c6c7 5e3e a11a 0dbd 33c2 9ebe
000001e0: 0cc5 923e 9d6d 0cbd c62e c63d 8960 453e
000001f0: d361 533e e31e 733c 9569 c9bd 7393 3cbe
00000200: 27d7 90bd fe1b 5cbe 8996 ba3d 6bd0 1fbe
00000210: abf0 63bc f056 d43d b437 79be e7df 1f3d
00000220: dc58 33bd ee41 53bc 1c98 c83d c70c 40be
00000230: 5539 bf3d 2507 d4bd a505 4d3e da91 9ebd
00000240: a79e bebd 8a41 2cbe fd51 813d e4ef f53c
00000250: f01a 643d b31a 053d 6084 6b3d 041c 94bd
00000260: c20b 1abe a4fc 503d d4fd 47be c195 f73d
00000270: aa4c 403d a827 b1be fbcc 863d deed 903d
00000280: e6b8 233d 6040 963d 598b 4b3d 2094 423e
00000290: 291b c33d 0db8 9e3c e00a 9ebd cef1 4dbe
000002a0: e48b 9c3c 5b71 a5bd d45c dabd 9be5 413d
000002b0: c5f6 18be a0ce cbbc 94e9 47be b05b 7fbd
000002c0: e8a3 25bc ac17 293e 1415 993b 3d86 bdbd
000002d0: 9638 77be a7e5 9abe e465 eebd 9666 fd3c
000002e0: a507 163d 6c37 9bbd f452 a4bd 67d5 1bba
000002f0: dce8 babb 5cc1 1d3e 7c45 29be 085d dfbe
00000300: 779f 9e3d 65d3 993e a695 763f a27a 9f3d
00000310: 854b e73d 8401 34be f678 b6bd 832d 073e
00000320: 0564 753e a2b6 553d 387a 123d 5c2e 0e3e
00000330: 55a8 283e 464a e13d 8665 1ebe ca60 ce3d
00000340: 782a 9a3d 7c74 763d 29d2 2b3e 99bf 2d3c
00000350: d9d9 193e ca78 113d 3930 033e bc83 da3d
00000360: d0b3 7cbd dc20 b73d 2edc 66bd 9128 093e
00000370: e263 883c ff7b 973c e93a 623d 55a7 99bd
00000380: 5430 dd3d cc6b 0a3d 9558 64bd 381f 33bd
00000390: 8c0f 30bd 5eb2 5e3e 6849 7abe 0f78 1a3e
000003a0: 79fc 143d 46b4 af3d a6f7 1dbe df98 1dbc
000003b0: 5ac9 2f3e 86b8 bd3d f110 78bd cce1 183d
000003c0: a3b7 02be f1ea 50be b30b 083e 34e5 b5bd
000003d0: 5e27 323e f453 f53d f3df 893d 9ef9 cf3d
000003e0: ac32 0bbe 3dd3 0b3e 5d59 8d3d c0c4 ad3c
000003f0: de0a 1fbe 9c47 bdbd 42c1 113c b9b5 e0bd

hidden_fc.bias f4 [64]
-0.037949488 -0.17658001 0.00026463173 0.033874027 -0.049255308 -0.1266893 -0.17642903 0.09205143
0.07616472 0.06351823 0.04159963 0.07666732 0.096295826 -0.09496777 -0.080458015 0.06984739
-0.04986578 -0.017514192 -0.13006593 0.06478977 -0.10183899 0.033203766 -0.12326362 0.0051499414
-0.037574086 -0.15678315 -0.013420274 -0.07686259 0.09140535 0.08356687 -0.001389002 -0.03347353
-0.1570939 -0.029585935 0.1157662 -0.080163084 -0.20513506 -0.10720614 0.08464145 0.12501043
-0.07279715 -0.14247376 0.08168911 -0.0882211 -0.017402478 -0.20780385 -0.18914503 0.0034721855
0.016221657 0.008198979 -0.06997755 0.0795219 0.017457934 -0.025628958 -0.0061183115 0.09650845
-0.09684897 0.13641332 -0.13947769 -0.09911069 -0.13165204 0.01650065 -0.0477737 0.09390509
00000000: ec70 1bbd 64d1 34be 45be 8a39 7ebf 0a3d
00000010: efbf 49bd d7ba 01be d0a9 34be 7685 bc3d
00000020: 40fc 9b3d d915 823d 6064 2a3d c203 9d3d
00000030: bf36 c53d 767e c2bd 2cc7 a4bd 260c 8f3d
00000040: 0f40 4cbd ec79 8fbc 0130 05be 80b0 843d
00000050: f690 d0bd ac00 083d a371 fcbd d7c0 a83b
00000060: 49e7 19bd c38b 20be b5e0 5bbc 226a 9dbd
00000070: ba32 bb3d 1b25 ab3d 2c0f b6ba 8a1b 09bd
00000080: 39dd 20be 345e f2bc d416 ed3d 8b2c a4bd
00000090: ed0e 52be e58e dbbd 7f58 ad3d bc02 003e
000000a0: ac16 95bd a4e4 11be 9f4c a73d 44ad b4bd
000000b0: a48f 8ebc 88ca 54be 3caf 41be 9b8d 633b
000000c0: 48e3 843c 0355 063c 6450 8fbd 61dc a23d
000000d0: f103 8f3c d2f3 d1bc 1e7c c8bb 39a6 c53d
000000e0: c158 c6bd efaf 0b3e 3dd3 0ebe 8cfa cabd
000000f0: cbcf 06be 5f2c 873c 5bae 43bd 5051 c03d

value_fc_hidden.weight f4 [64, 64]
-0.16572617 -0.026616119 0.06279291 -0.28043112 0.0781423 -0.058491386 -0.39725748 0.16134287
0.16702136 -0.07699195 0.05341352 0.023293566 -0.0024500173 -0.15719599 0.14779153 0.046914786
-0.086426616 -0.13188507 -0.044680838 -0.01948045 0.06789746 -0.057022657 -0.11184042 -0.019885207
0.07603967 -0.07523685 -0.04020526 -0.1582393 0.03845146 -0.0005032319 0.13899383 -0.042437144
-0.085807905 -0.1808365 -0.064451635 0.05232838 -0.03412101 0.03638459 -0.12342357 -0.09505461
0.07610271 -0.0021007666 0.15505083 0.055153135 -0.14430097 0.009913391 0.070563555 -0.008197535
-0.3810991 -0.056758445 -0.35249043 0.004248129 0.106734246 0.07945949 -0.13498583 0.06324713
-0.1578472 -0.08245204 -0.074151866 -0.044656567 -0.054612625 -0.06730324 -0.06605869 -0.012007741
-0.09699283 0.01657232 0.09251532 0.10399094 -0.23245414 0.12651445 0.022049049 0.08491098
0.16385712 0.0013943127 -0.12220493 0.08544274 -0.0036593885 0.022682045 -0.1833805 -0.1125724
0.076721884 -0.008872662 -0.008274247 -0.0479598 -0.31753913 -0.24873254 -0.17553343 0.055603534
0.019341791 -0.066868275 0.040558863 -0.024874782 0.12108639 0.11249144 0.07991977 0.10771226
0.05984922 0.008488864 -0.011126315 -0.028687008 0.012221925 0.33567092 0.042168424 -0.19063711
0.027820311 0.17112665 -0.006931985 0.06684082 0.17251803 0.10337784 -0.16956212 -0.12532532
-0.008236898 -0.057743378 -0.15785673 0.008888675 0.017232446 -0.26408884 0.025232445 -0.07131838
-0.06397984 -0.09375359 -0.059778955 0.15010807 0.14487049 -0.11024663 -0.09626066 -0.08579513
0.083762355 -0.11998757 -0.0096459165 -0.029981438 -0.060743246 0.03322253 0.048150588 0.05735027
-0.0659594 0.07859511 -0.13845147 0.08068878 0.094437316 -0.024571268 -0.2135779 -0.04129445
-0.117590174 0.0021318546 -0.0019659158 0.11019528 -0.13387626 0.0010208288 -0.04809716 -0.27409002
-0.057252374 0.030155838 -0.24573192 -0.07625936 -0.11251632 -0.08747793 -0.12265749 0.083574496
0.0012247465 -0.09383389 0.024048828 0.13371873 -0.17144294 -0.10056203 0.021423131 -0.030387122
0.006888068 0.036840715 -0.0010086435 0.1218996 -0.10513823 0.0813803 0.28515348 0.019092226
0.09232009 -0.046722673 -0.18491472 0.05408875 -0.16765216 0.11377305 -0.100958794 0.016360192
0.047132663 -0.13000345 0.11504063 -0.15013014 0.07161017 0.0669978 -0.075983904 -0.1972772
-0.09342756 0.015402138 -0.1284225 -0.08187454 0.14894034 -0.074536145 -0.056148704 -0.09242375
0.112660214 -0.064839795 -0.11708591 -0.13387859 0.06752362 -0.076203726 0.001370677 0.04105486
-0.0050039683 0.13450724 0.046998944 -0.16393206 0.05969458 -0.058328204 -0.16710599 0.12165454
-0.022689974 0.053602748 -0.0058566667 -0.043997582 0.17826684 0.09050937 -0.14697005 -0.05531
-0.06232307 0.123862736 -0.014522482 -0.14240101 0.13499875 -0.27874038 0.10057187 -0.09242002
-0.01119389 0.060005084 -0.24461533 0.09602584 0.029527988 0.12748168 0.119978316 -0.14191297
-0.09477209 -0.009740931 -0.08478053 0.04635628 0.07426523 0.15976949 0.033245627 0.05677157
-0.01351468 -0.13449 0.007547156 0.018829731 -0.037139144 0.023435624 0.16407686 -0.068809055
00000000: 1fb4 29be 0c0a dabc 9299 803d ab94 8fbe
00000010: 1209 a03d aa94 6fbd 5565 cbbe 1137 253e
00000020: a607 2b3e f5ad 9dbd 23c8 5a3d 26d2 be3c
00000030: 7890 20bb fcf7 20be aa56 173e b829 403d
00000040: 7000 b1bd e10c 07be 4103 37bd 7795 9fbc
00000050: d30d 8b3d 9790 69bd 970c e5bd 4de6 a2bc
00000060: b0ba 9b3d c715 9abd 45ae 24bd 7c09 22be
00000070: 477f 1d3d 52eb 03ba 6654 0e3e 92d2 2dbd
00000080: 0ebc afbd 342d 39be 38ff 83bd 4956 563d
00000090: 79c2 0bbd 0208 153d 7fc5 fcbd feab c2bd
000000a0: bddb 9b3d 04ad 09bb a5c5 1e3e 41e8 613d
000000b0: a2c3 13be c76b 223c a083 903d f44e 06bc
000000c0: 6c1f c3be 8b7b 68bd a079 b4be e433 8b3b
000000d0: 7c97 da3d a8bb a23d ba39 0abe b687 813d
000000e0: b2a2 21be 9ddc a8bd efdc 97bd cee9 36bd
000000f0: 7db1 5fbd 48d6 89bd c749 87bd 1ebc 44bc
00000100: 2da4 c6bd adc2 873c ac78 bd3d 34f9 d43d
00000110: 7508 6ebe 018d 013e 35a0 b43c cfe5 ad3d
00000120: 29ca 273e 5fc1 b63a 9446 fabd 9afc ae3d
00000130: 5ad2 6fbb b2cf b93c 19c8 3bbe 5c8c e6bd
00000140: 5d20 9d3d a45e 11bc b590 07bc 7f71 44bd
00000150: 7d94 a2be beb3 7ebe 09bf 33be 88c0 633d
00000160: ad72 9e3c 3cf2 88bd 0d21 263d 33c6 cbbc
00000170: 24fc f73d e961 e63d faac a33d 3f98 dc3d
00000180: 7524 753d e014 0b3c 264b 36bc 0401 ebbc
00000190: 783e 483c 0fdd ab3e ccb8 2c3d 6036 43be
000001a0: 6ce7 e33c d33b 2f3e b425 e3bb d7e3 883d
000001b0: 91a8 303e c3b7 d33d b1a1 2dbe 4855 00be
000001c0: 0ef4 06bc 5284 6cbd 32a5 21be cea1 113c
000001d0: 0f2b 8d3c a736 87be 46b4 ce3c 5f0f 92bd
000001e0: dd07 83bd e201 c0bd c7da 74bd eeb5 193e
000001f0: ee58 143e fcc8 e1bd 4f24 c5bd 5bb5 afbd
00000200: 998b ab3d 0bbc f5bd e809 1ebc a29b f5bc
00000210: e9cd 78bd 5914 083d 8d39 453d 1ee8 6a3d
00000220: b915 87bd 79f6 a03d 39c6 0dbe 2940 a53d
00000230: 5a68 c13d af49 c9bc 2ab4 5abe 5f24 29bd
00000240: 1ed3 f0bd 96b6 0b3b 98d6 00bb 10ae e13d
00000250: dc16 09be 55cd 853a 8701 45bd 8755 8cbe
00000260: 7781 6abd 6009 f73c 26a1 7bbe de2d 9cbd
00000270: f56e e6bd a127 b3bd da33 fbbd 1b29 ab3d
00000280: ac87 a03a fc2b c0bd 0c02 c53c 90ed 083e
00000290: bd8e 2fbe 77f3 cdbd 907f af3c 6aee f8bc
000002a0: 4db5 e13b 4ae6 163d 7634 84ba 7fa6 f93d
000002b0: b652 d7bd b7aa a63d a3ff 913e 4d67 9c3c
000002c0: 5112 bd3d 4660 3fbd 495a 3dbe 2a8c 5d3d
000002d0: 02ad 2bbe d801 e93d 7cc3 cebd cf05 863c
000002e0: 2e0e 413d a01f 05be 6c9a eb3d b7bb 19be
000002f0: 5aa8 923d 2436 893d 739d 9bbd 0903 4abe
00000300: f356 bfbd 4059 7c3c 3081 03be d7ad a7bd
00000310: d183 183e 68a6 98bd 2ffc 65bd aa48 bdbd
00000320: 66ba e63d baca 84bd bdca efbd 7817 09be
00000330: d349 8a3d b310 9cbd 4aa8 b33a 2429 283d
00000340: 54f8 a3bb 44bc 093e f781 403d cedd 27be
00000350: 4e82 743d 8ee9 6ebd d51d 2bbe 0426 f93d
00000360: 53e0 b9bc 8e8e 5b3d 48e9 bfbb cf36 34bd
00000370: 958b 363e fa5c b93d 517f 16be bd8c 62bd
00000380: 7a46 7fbd bfab fd3d b4ef 6dbc 92d1 11be
00000390: 1d3d 0a3e 0fb7 8ebe a0f8 cd3d b546 bdbd
000003a0: 9466 37bc e4c7 753d 717c 7abe 32a9 c43d
000003b0: aee4 f13c 8f8a 023e 31b7 f53d a251 11be
000003c0: df17 c2bd 6d98 1fbc 6aa1 adbd 15e0 3d3d
000003d0: 5e18 983d 9d9a 233e 912c 083d 4e89 683d
000003e0: ad6c 5dbc bfb7 09be 224e f73b cf40 9a3c
000003f0: 371f 18bd 11fc bf3c c403 283e c3eb 8cbd

value_fc_hidden.bias f4 [64]
0.07188002 -0.055423044 0.06955661 0.094084196 0.04346037 -0.12610549 -0.15381162 -0.07466454
-0.012314486 0.043994788 0.006147698 -0.110875554 -0.16689084 0.10073749 -0.1456872 -0.07093098
0.029516459 -0.081476465 -0.045468688 -0.009308929 0.05417692 -0.1611457 -0.085000075 -0.011675953
-0.030285943 -0.017206483 -0.11261144 0.14600411 -0.09417422 0.02681583 -0.02930928 0.032077137
0.0008729112 -0.0815333 0.025684671 -0.046470724 0.0429176 0.018256709 0.06804507 0.027409237
0.07890501 -0.0099123195 0.013631638 0.10302236 -0.05765601 0.06375015 0.07067828 -0.06751293
-0.103349626 -0.14298409 -0.07333123 -0.015958646 0.117425814 -0.012780995 -0.10150723 -0.03381689
-0.08795892 0.054722268 0.015125309 -0.015401716 0.0594359 0.10551972 0.027864078 -0.052956615
00000000: d535 933d 4603 63bd b273 8e3d 37af c03d
00000010: 8003 323d cc21 01be cb80 1dbe b9e9 98bd
00000020: b3c2 49bc e133 343d a172 c93b b912 e3bd
00000030: 6fe5 2abe 754f ce3d 062f 15be 4344 91bd
00000040: 80cc f13c 22dd a6bd 603d 3abd 7a84 18bc
00000050: 9ee8 5d3d 6103 25be 8514 aebd 7f4c 3fbc
00000060: 3a1a f8bc 9cf4 8cbc d4a0 e6bd 1a82 153e
00000070: 6ade c0bd dfac db3c 041a f0bc 5163 033d
00000080: 14d4 643a eefa a6bd a968 d23c 1658 3ebd
00000090: 5eca 2f3d 188f 953c 375b 8b3d 5689 e03c
000000a0: f398 a13d 4867 22bc 3c57 5f3c 63fd d23d
000000b0: b528 6cbd 708f 823d c6bf 903d 3844 8abd
000000c0: f8a8 d3bd 6c6a 12be af2e 96bd b5bb 82bc
000000d0: f27c f03d 6167 51bc 06e3 cfbd 9483 0abd
000000e0: ce23 b4bd 7524 603d 25d0 773c 7b57 7cbc
000000f0: 0f73 733d b91a d83d 3543 e43c 09e9 58bd

value_fc.weight f4 [1, 64]
0.15829708 0.17017338 -0.07156088 -0.059647378 0.031962037 0.40348867 0.028183341 -0.06961283
-0.030397087 0.2027586 0.081446886 -0.051778022 -0.026481278 0.043807197 -0.18212917 0.16626354
-0.20743817 -0.07898731 0.044507448 -0.79933774 -0.041776404 -0.8922397 -0.028555742 -0.081377245
-0.17159876 0.037236962 -0.034485325 0.043354098 -0.0629264 -0.3637216 -0.37047648 0.16036837
-0.27103794 0.109253936 -1.0765885 -0.13210513 -0.0085237855 -0.04565832 0.019771293 0.07321464
0.2017356 0.06300379 0.21104996 0.17372791 -0.12078791 0.11198645 -0.1300216 -0.1061819
-0.05735667 0.0325774 -0.03505828 0.043526735 0.061837338 -0.28852722 0.09611853 0.119337566
0.028174533 0.09722833 -0.030905817 -0.16195498 -0.059349515 0.04989877 0.10436933 -0.55505997
00000000: a118 223e ee41 2e3e 838e 92bd cf50 74bd
00000010: a0ea 023d 1196 ce3e c0e0 e63c 2c91 8ebd
00000020: 5003 f9bc f39f 4f3e a0cd a63d 3115 54bd
00000030: 44ef d8bc 2d6f 333d 1280 3abe fd40 2a3e
00000040: ac6a 54be 19c4 a1bd 714d 363d 66a1 4cbf
00000050: bc1d 2bbd d269 64bf bbed e9bc 1da9 a6bd
00000060: 96b7 2fbe c985 183d 7c40 0dbd 1194 313d
00000070: 8edf 80bd b839 babe 18af bdbe 9b37 243e
00000080: 7cc5 8abe 87c0 df3d a7cd 89bf 9146 07be
00000090: 59a7 0bbc 3804 3bbd 68f7 a13c 8ff1 953d
000000a0: c793 4e3e 2208 813d 7b1d 583e bbe5 313e
000000b0: a75f f7bd 2759 e53d 6224 05be e575 d9bd
000000c0: d4ee 6abd e16f 053d 4599 0fbd 1749 323d
000000d0: 2649 7d3d d7b9 93be cbd9 c43d 4167 f43d
000000e0: 47ce e63c a61f c73d 322e fdbc 87d7 25be
000000f0: 7a18 73bd a762 4c3d 96bf d53d 6918 0ebf

advantage_fc_hidden1.weight f4 [64, 64]
0.012796134 -0.048160747 -0.0539662 -0.052329898 -0.038757607 -0.0643354 0.051990777 0.106370434
0.07800223 -0.05105904 -0.055067353 0.0709261 0.09443368 0.17911467 0.06545022 0.119697966
-0.015896909 -0.047608923 -0.21741995 0.101672746 0.048328437 -0.21794625 0.21814409 -0.014476164
-0.06422737 0.014177121 0.09783245 0.06270006 -0.0331752 -0.09441461 0.007624724 0.18356863
-0.19767962 0.045885503 -0.11469355 -0.06352245 0.0863553 -0.21635018 0.0046605044 0.07713303
0.11181836 -0.01955934 -0.008195203 -0.016940197 0.15628427 0.030713879 0.080592535 0.13258293
-0.057638615 0.07155067 0.14151226 -0.085921995 -0.07303301 0.21147905 -0.016455194 -0.10057118
0.019217106 -0.03285435 -0.047724947 0.17267719 -0.017435584 -0.16780026 0.063338876 0.0963599
-0.15231149 -0.0076081953 -0.27353436 -0.041310124 -0.07161211 -0.022651164 0.052293297 0.12279207
0.044845115 -0.08209208 -0.026024744 -0.15034288 0.13675056 -0.007292496 0.031658173 -0.13238049
0.13709028 0.12699345 0.045341756 0.11829457 -0.14718263 -0.2778565 0.034192093 0.0078513045
-0.25072497 -0.07214023 0.035060287 0.06018826 -0.04455624 0.013033886 0.026226232 -0.084875435
0.02826175 -0.0047179535 0.2510203 -0.03463494 0.011599896 -0.048432223 0.025478806 -0.07080621
-0.13372757 0.124352455 -0.12702309 0.094898455 -0.083557576 0.07516038 0.23148325 -0.0057278
0.1034969 -0.00075926894 -0.021055797 0.18045221 0.03133882 0.14709665 -0.08791661 -0.0010771903
0.011264329 -0.041997977 0.061686777 0.00037998386 0.17680739 0.13391125 0.03116713 0.053861767
-0.106872186 -0.1685828 -0.2973703 0.08930528 0.047643807 0.086867236 -0.06896105 0.06424433
0.065258496 -0.026769223 -0.103397384 -0.202903 0.068620086 -0.22766931 -0.024975471 0.036184784
-0.014342194 0.054253977 -0.058887556 -0.017162038 -0.22908938 -0.08978391 0.08012426 0.049871143
-0.011867195 0.0458866 -0.074888475 0.0482453 0.10344398 0.0821721 -0.20380671 -0.1373763
-0.20065717 -0.022636104 0.22208375 -0.052856933 0.14863613 0.17253578 0.0142687615 -0.024091857
-0.12875387 -0.14059666 -0.01064181 -0.07058471 -0.19298723 0.10877987 0.24733293 -0.02746928
-0.06669684 -0.14739253 0.0039661345 -0.06430754 0.17670552 0.10082616 0.017601013 -0.04207051
-0.03709425 0.07383293 0.052366998 -0.26238433 -0.20344187 -0.05395846 -0.018721811 0.017760884
-0.0030077586 -0.021363812 -0.27350932 -0.008162255 -0.027471919 0.08249206 0.1167356 0.08144709
-0.34298116 -0.09391337 -0.021164656 -0.07222226 -0.05112442 0.104530126 0.19658479 -0.020191541
0.065733485 -0.09917526 -0.09224204 0.028232856 -0.24403675 -0.14459969 0.044300556 0.06389093
-0.023690691 0.0710658 0.14888857 0.04385717 -0.22347414 -0.10352229 0.02950654 0.0439971
0.12087891 -0.09460528 0.007086555 0.01173577 0.059158668 -0.086036995 -0.039833095 0.18074095
0.16856615 0.0068237344 0.026529618 -0.055495054 -0.0018018392 0.044030897 0.009798002 -0.0032535056
-0.024757132 0.07924617 0.07625796 -0.10688915 -0.0285722 -0.09067671 0.103518054 -0.11626013
0.05470786 0.23175947 0.008709481 0.16836043 0.12831067 0.061418902 0.07524224 0.011868488
00000000: e0a6 513c 3444 45bd aa0b 5dbd e057 56bd
00000010: 4cc0 1ebd 47c2 83bd 48f4 543d bed8 d93d
00000020: a2bf 9f3d 4923 51bd 4e8e 61bd b441 913d
00000030: 7266 c13d d669 373e c40a 863d 3524 f53d
00000040: 3c3a 82bc 9301 43bd 56a3 5ebe cd39 d03d
00000050: 0af4 453d 4d2d 5fbe 2a61 5f3e 6f2d 6dbc
00000060: a489 83bd 2847 683c 615c c83d e468 803d
00000070: b8e2 07bd 725c c1bd d2d8 f93b 6af9 3b3e
00000080: 876c 4abe 70f2 3b3d 74e4 eabd 0f18 82bd
00000090: 0cdb b03d e78a 5dbe 25b7 983b ecf7 9d3d
000000a0: 0601 e53d e93a a0bc 2c45 06bc 2bc6 8abc
000000b0: fc08 203e ac9b fb3c b30d a53d d2c3 073e
000000c0: 7816 6cbd 2889 923d 97e8 103e dff7 afbd
000000d0: 5592 95bd f78d 583e 0bcd 86bc 43f8 cdbd
000000e0: 316d 9d3c 4892 06bd 3c7b 43bd 4ad2 303e
000000f0: 12d5 8ebc d5d3 2bbe d0b7 813d 5758 c53d
00000100: 8bf7 1bbe 2b4e f9bb b20c 8cbe ce34 29bd
00000110: 5fa9 92bd ef8e b9bc 7f31 563d 697a fb3d
00000120: 83af 373d e41f a8bd d831 d5bc 7cf3 19be
00000130: 5708 0c3e e4f5 eebb 00ac 013d c08e 07be
00000140: 6561 0c3e 920a 023e 47b8 393d 6c44 f23d
00000150: 0bb7 16be 3543 8ebe 020d 0c3d c2a2 003c
00000160: 065f 80be 42be 93bd 609b 0f3d f787 763d
00000170: 9b80 36bd 158c 553c 65d8 d63c 2cd3 adbd
00000180: 2f85 e73c 1099 9abb bc85 803e 5edd 0dbd
00000190: 7d0d 3e3c de60 46bd eeb8 d03c d902 91bd
000001a0: e1ef 08be 80ac fe3d 5712 02be 1f5a c23d
000001b0: 3c20 abbd afed 993d f209 6d3e 45b0 bbbb
000001c0: 2ff6 d33d ad09 47ba 357d acbc 77c8 383e
000001d0: 225d 003d 81a0 163e a00d b4bd 8230 8dba
000001e0: 058e 383c 1206 2cbd 46ab 7c3d 9238 c739
000001f0: ff0c 353e 0820 093e 3652 ff3c 289e 5c3d
00000200: cedf dabd f8a0 2cbe ec40 98be b0e5 b63d
00000210: 2726 433d 73e7 b13d 733b 8dbd 8892 833d
00000220: 3fa6 853d 214b dbbc 02c2 d3bd cec5 4fbe
00000230: b088 8c3d 2522 69be 5c99 ccbc 7f36 143d
00000240: 86fb 6abc 6b39 5e3d 1434 71bd 6797 8cbc
00000250: 6896 6abe a0e0 b7bd 3018 a43d af45 4c3d
00000260: a06e 42bc 96f3 3b3d 215f 99bd dd9c 453d
00000270: 70da d33d d949 a83d b5b2 50be 5fac 0cbe
00000280: 1379 4dbe 5a6f b9bc ec69 633e 8380 58bd
00000290: 1234 183e 38ad 303e 86c7 693c 495c c5bc
000002a0: 0ed8 03be 92f8 0fbe fc5a 2ebc b78e 90bd
000002b0: 729e 45be fbc7 de3d d844 7d3e 4107 e1bc
000002c0: 5a98 88bd 11ee 16be 59f6 813b acb3 83bd
000002d0: 4bf2 343e f27d ce3d 0030 903c 2152 2cbd
000002e0: 24f0 17bd b835 973d c77e 563d 3d57 86be
000002f0: 1153 50be 8c03 5dbd 7c5e 99bc 467f 913c
00000300: d11d 45bb 2903 afbc 6a09 8cbe fbba 05bc
00000310: ca0c e1bc 99f1 a83d 1313 ef3d bbcd a63d
00000320: 3a9b afbe a755 c0bd 8061 adbc 44e9 93bd
00000330: d767 51bd e413 d63d 864d 493e bb68 a5bc
00000340: 479f 863d 661c cbbd 65e9 bcbd 9748 e73c
00000350: c5e4 79be f111 14be 8074 353d 3fd9 823d
00000360: fb12 c2bc f28a 913d 3f76 183e 93a3 333d
00000370: 68d6 64be 7f03 d4bd b3b7 f13c 4e36 343d
00000380: 5d8f f73d 6ac0 c1bd 5536 e83b 6347 403c
00000390: 5c50 723d 2a34 b0bd 0728 23bd 2814 393e
000003a0: 9b9c 2c3e a299 df3b a454 d93c c84e 63bd
000003b0: b12b ecba be59 343d cd87 203c c438 55bb
000003c0: 78cf cabc d14b a23d 222d 9c3d b3e8 dabd
000003d0: 3f10 eabc b6b4 b9bd 4601 d43d cb19 eebd
000003e0: 5915 603d 5b52 6d3e 36b2 0e3c ad66 2c3e
000003f0: df63 033e 6392 7b3d 9b18 9a3d 0c74 423c

advantage_fc_hidden1.bias f4 [64]
0.020567322 -0.06854187 0.07584391 0.019991577 0.09303989 0.022103392 -0.10077445 -0.017722173
0.014660148 -0.091084346 0.03385836 -0.07587182 -0.030946208 -0.032841 0.060532656 0.118554905
-0.059449885 0.062183913 0.07525841 -0.084977865 0.09372635 0.07208634 -0.05444405 -0.099113956
0.07639374 -0.09362125 -0.0630944 0.045249037 -0.03043368 -0.16404018 -0.03934058 0.02850683
0.089231715 -0.05117104 -0.0069574327 0.017000306 -0.064595975 0.15137346 -0.06760202 0.016513614
-0.08957433 -0.08047497 0.047690142 0.01999498 -0.085183494 0.03587998 0.022291549 0.051822446
0.058403037 -0.01508415 0.060488567 0.0320866 0.0793052 0.06892828 -0.0029403213 -0.044694033
-0.14176054 0.03663293 0.022123916 0.048544556 -0.045808114 0.017398726 0.021276738 0.030723836
00000000: cd7c a83c ae5f 8cbd 0d54 9b3d 60c5 a33c
00000010: b38b be3d 2c12 b53c d662 cebd 172e 91bc
00000020: 1e31 703c 6e8a babd 10af 0a3d af62 9bbd
00000030: e782 fdbc 4984 06bd 17f1 773d eacc f23d
00000040: b981 73bd 8fb4 7e3d 1521 9a3d e008 aebd
00000050: 9af3 bf3d 01a2 933d b900 5fbd 42fc cabd
00000060: 5274 9c3d 7fbc bfbd a337 81bd 0e57 393d
00000070: 0e50 f9bc 26fa 27be 9723 21bd 2887 e93c
00000080: 1ebf b63d b998 51bd 2dfb e3bb 3a44 8b3c
00000090: e54a 84bd a501 1b3e ee72 8abd 8f47 873c
000000a0: bf72 b7bd 10d0 a4bd bd56 433d 83cc a33c
000000b0: af74 aebd e3f6 123d c49c b63c c643 543d
000000c0: 0638 6f3d 8323 77bc dcc2 773d 3d6d 033d
000000d0: c46a a23d 452a 8d3d 68b2 40bb 1711 37bd
000000e0: ad29 11be 690c 163d 373d b53c a8d6 463d
000000f0: 4aa1 3bbd c687 8e3c 8e4c ae3c 8eb0 fb3c

advantage_fc_hidden2.weight f4 [64, 64]
0.09612536 -0.0116344625 0.04035778 -0.0019992506 0.0257955 -0.048447795 -0.019872239 -0.05540744
0.15125035 0.3382163 -0.0008582548 -0.19342454 -0.12804657 0.038572676 0.021482276 0.04853356
0.006465798 0.041585997 -0.015424464 -0.14886688 -0.21653724 0.04766473 0.06689974 0.05972392
0.13133445 -0.17474422 0.34483266 0.02292573 0.14688784 -0.12191006 0.66397095 -0.08512996
-0.09996758 -0.18100998 -0.23270585 0.083493605 0.114009686 0.009630344 0.11384649 0.061969664
0.09634983 0.026298314 -0.13386236 0.12015036 -0.00343795 0.01380426 -0.0037986247 0.14528497
0.009295958 -0.15792017 -0.060042713 -0.111169316 0.02539638 -0.0899059 -0.0047605927 0.19627002
0.20026289 -0.119244836 -0.01755234 0.16198643 0.1738182 0.11143202 0.025514217 -0.09438045
-0.027585465 0.05234708 -0.14086455 0.061407614 -0.04672346 0.03066656 0.030810842 -0.070415296
-0.016558109 -0.05131624 0.05699622 0.04279189 0.07587086 0.022106258 0.12187756 -0.010213284
0.11801131 0.09570436 -0.10192901 -0.0475129 0.015866784 -0.1263001 0.039179668 0.05782599
0.029105168 0.011580825 -0.0817962 0.028189087 -0.061673917 -0.03127127 0.30547482 -0.09232613
0.17715721 -0.008177862 0.101732686 0.014772086 -0.040821448 0.115327515 -0.052826103 -0.061498113
-0.27288845 0.027016072 -0.06536289 0.032278746 -0.145718 -0.15181997 -0.043584287 -0.13417767
0.082643 -0.08808177 0.02349282 0.02832501 -0.006013142 0.087642774 -0.16139889 -0.04583236
-0.1783821 -0.023390759 -0.041297104 0.046463996 -0.05880749 0.01854922 -0.10797247 0.06465055
-0.018538732 0.06519576 0.028494013 -0.38916555 0.0418996 -0.13667734 0.005516016 -0.24187551
0.06753922 0.43227372 -0.15899917 0.03316744 0.07598276 -0.49848786 -0.098133124 0.060685676
0.041888606 -0.054906964 -0.12285783 0.11613849 0.03268635 -0.14022242 0.13267066 0.014274443
0.04249501 0.27152592 0.17524827 -0.22884077 -0.0018134271 0.043374557 -0.05349278 -0.3725916
0.058904406 -0.10750771 -0.11429125 0.18275762 0.22929367 0.06301371 0.004051828 -0.4393936
-0.11254176 -0.009581998 -0.12753762 -0.11817625 0.19535454 0.0050716153 0.20458111 0.18429571
0.0644652 0.11504081 -0.0055880593 0.022953931 -0.056359682 -0.022419823 0.33051914 0.315719
0.11641094 0.07722718 -0.03075685 0.12534271 0.15067513 -0.35593334 0.10581642 0.029288435
-0.14490333 0.115612075 0.05000513 -0.015864704 -0.04907881 -0.17665659 0.030958816 0.030846862
0.08605631 -0.35251904 -0.007750161 -0.032690037 0.057814408 0.0986634 -0.072949514 -0.13669145
0.044974297 -0.032985203 -0.11966919 0.016014587 0.13433428 0.17985603 0.12131171 -0.10985575
-0.2507827 -0.07830537 -0.02891579 -0.022142747 0.078518726 -0.059476655 -0.12118303 -0.06956371
0.029450506 0.0541641 -0.066635095 -0.05741908 0.08265272 0.087066025 0.082467616 -0.025806414
0.013855685 -0.073209524 0.06668483 -0.07376687 -0.20592244 0.109659284 8.360861e-05 -0.2148569
0.32896385 -0.11109794 0.039676093 -0.04693664 0.04632191 -0.04306702 -0.050499406 0.017672755
-0.028401025 -0.14716959 -0.068718135 -0.064596795 0.018161941 0.12953396 0.025644597 0.0050777504
00000000: 5fdd c43d 799e 3ebc 334e 253d dc05 03bb
00000010: 1651 d33c 3271 46bd 1bcb a2bc e9f2 62bd
00000020: 5fe1 1a3e b02a ad3e 81fc 60ba 1511 46be
00000030: a41e 03be 62fe 1d3d 99fb af3c 20cb 463d
00000040: 0bdf d33b 1456 2a3d e4b6 7cbc 8f70 18be
00000050: f0bb 5dbe 183c 433d bb02 893d 12a1 743d
00000060: 8a7c 063e 26f0 32be e88d b03e bece bb3c
00000070: c469 163e fbab f9bd 00fa 293f 9e58 aebd
00000080: cdbb ccbd ae5a 39be 714a 6ebe b2fe aa3d
00000090: e97d e93d 97c8 1d3c 5928 e93d e7d3 7d3d
000000a0: 0f53 c53d 906f d73c 3713 09be 6411 f63d
000000b0: 3b4f 61bb 432b 623c 59f2 78bb 95c5 143e
000000c0: 134e 183c d3b5 21be 59ef 75bd bdac e3bd
000000d0: 120c d03c 9620 b8bd bffe 9bbb 02fb 483e
000000e0: b711 4d3e a336 f4bd edc9 8fbc c5df 253e
000000f0: 66fd 313e 7936 e43d 3103 d13c 8a4a c1bd
00000100: eafa e1bc e469 563d cc3e 10be 8d86 7b3d
00000110: 1961 3fbd 7038 fb3c 0567 fc3c e535 90bd
00000120: dfa4 87bc fa30 52bd de74 693d 8d46 2f3d
00000130: 2e62 9b3d 2f18 b53c f19a f93d 9e55 27bc
00000140: eaaf f13d a600 c43d 28c0 d0bd e39c 42bd
00000150: 0ffb 813c d054 01be dc7a 203d f2da 6c3d
00000160: f66d ee3c 80bd 3d3c c484 a7bd cdec e63c
00000170: ca9d 7cbd 4e16 00bd 3267 9c3e 7b15 bdbd
00000180: b368 353e 70fc 05bc 3a59 d03d 9f06 723c
00000190: 6434 27bd d530 ec3d 2f60 58bd 72e5 7bbd
000001a0: 09b8 8bbe cf50 dd3c fbdc 85bd b836 043d
000001b0: 1937 15be b276 1bbe 7085 32bd df65 09be
000001c0: bc40 a93d 3764 b4bd 0474 c03c da09 e83c
000001d0: e409 c5bb 0e7e b33d c045 25be b6ba 3bbd
000001e0: cca9 36be fa9d bfbc 2727 29bd 0851 3e3d
000001f0: 1fe0 70bd 89f4 973c ac20 ddbd 8267 843d
00000200: 8ade 97bc 5b85 853d 476c e93c b540 c7be
00000210: ea9e 2b3d 25f5 0bbe b2bf b43b 37ae 77be
00000220: 0152 8a3d fb52 dd3e aed0 22be 95da 073d
00000230: d99c 9b3d cd39 ffbe 05fa c8bd 8b91 783d
00000240: 6393 2b3d 20e6 60bd e39c fbbd 04da ed3d
00000250: 1fe2 053d 7796 0fbe d1da 073e 5adf 693c
00000260: 3f0f 2e3d 7205 8b3e 4874 333e 3c55 6abe
00000270: 84b0 edba 85a9 313d 3f1b 5bbd 54c4 bebe
00000280: bf45 713d 012d dcbd 8811 eabd d024 3b3e
00000290: f6cb 6a3e 550d 813d 32c5 843b 33f8 e0be
000002a0: 4b7c e6bd d0fd 1cbc 3999 02be 6406 f2bd
000002b0: 050b 483e cb2f a63b b67d 513e 04b8 3c3e
000002c0: 5506 843d 849a eb3d 0a1c b7bb e209 bc3c
000002d0: 69d9 66bd c7a9 b7bc ce39 a93e eca5 a13e
000002e0: dc68 ee3d 4929 9e3d caf5 fbbc d759 003e
000002f0: 954a 1a3e e53c b6be 47b6 d83d 4dee ef3c
00000300: 8a61 14be 06c6 ec3d 2ed2 4c3d b2f6 81bc
00000310: dd06 49bd 77e5 34be 589d fd3c 8fb2 fc3c
00000320: 4a3e b03d 607d b4be 10f5 fdbb fde5 05bd
00000330: cdce 6c3d 0910 ca3d 8e66 95bd d8f8 0bbe
00000340: f836 383d 7e1b 07bd 1f15 f5bd 0631 833c
00000350: ed8e 093e 2e2c 383e 4672 f83d 0dfc e0bd
00000360: 9766 80be 915e a0bd cfe0 ecbc b564 b5bc
00000370: 6dce a03d cb9d 73bd cf2e f8bd 6b77 8ebd
00000380: 3042 f13c 2ddb 5d3d fb77 88bd 4530 6bbd
00000390: d445 a93d ac4f b23d c8e4 a83d f967 d3bc
000003a0: f402 633c e0ee 95bd 0e92 883d 1613 97bd
000003b0: 55dd 52be 0c95 e03d 0857 af38 7203 5cbe
000003c0: f36d a83e 5187 e3bd 6683 223d a240 40bd
000003d0: 0bbc 3d3d 0b67 30bd 77d8 4ebd 74c6 903c
000003e0: 44a9 e8bc a0b3 16be 18bc 8cbd 534b 84bd
000003f0: 5ac8 943c 8da4 043e 9e14 d23c 4263 a63b

advantage_fc_hidden2.bias f4 [64]
-0.056928277 0.027573494 -0.1567647 0.08604013 0.056788974 -0.07957176 0.024211895 -0.09558058
-0.028496437 -0.0027498575 -0.08177021 -0.14149238 -0.072458535 0.074755915 0.06454084 -0.0026254093
0.08427757 -0.01301392 -0.07460784 0.07393558 -0.016121639 -0.13406609 0.07369378 0.063564256
-0.024387052 -0.031681776 -0.061414 -0.035123043 0.08460893 -0.07271023 0.09662613 0.018436465
0.08661975 0.004491472 -0.09084317 0.09529445 -0.07399462 -0.049571525 0.03017554 0.08945191
-0.050815843 0.09162636 -0.09934728 -0.12221707 -0.09830461 -0.060520377 -0.07522268 0.04829267
0.08491307 0.093893595 0.08288317 -0.104328476 0.03133463 0.06430292 0.044298213 -0.19412102
-0.07088728 0.008745081 -0.10755343 -0.14468564 0.059161864 -0.075447716 -0.07950623 0.0004884666
00000000: a02d 69bd cfe1 e13c ed86 20be cf35 b03d
00000010: 8e9b 683d 85f6 a2bd 0658 c63c c0bf c3bd
00000020: 5c71 e9bc f436 34bb 2477 a7bd 61e3 10be
00000030: 2465 94bd a119 993d fd2d 843d 0f0f 2cbb
00000040: b899 ac3d 5638 55bc ffcb 98bd 8a6b 973d
00000050: 8711 84bc 9f48 09be c4ec 963d fa2d 823d
00000060: 5bc7 c7bc c0c4 01bd 3f8d 7bbd 2edd 0fbd
00000070: 7247 ad3d 1ae9 94bd ece3 c53d 1208 973c
00000080: b265 b13d 332d 933b fc0b babd bd29 c33d
00000090: 7e8a 97bd 830b 4bbd b232 f73c 9032 b73d
000000a0: 4624 50bd 9aa6 bb3d 9676 cbbd f14c fabd
000000b0: ed53 c9bd 37e4 77bd 590e 9abd 89ce 453d
000000c0: e7e6 ad3d 494b c03d a7be a93d 2baa d5bd
000000d0: be58 003d 40b1 833d 0b72 353d a9c7 46be
000000e0: 5a2d 91bd 8747 0f3c f944 dcbd 7928 14be
000000f0: b653 723d 5584 9abd 2ad4 a2bd 700c 003a

advantage_fc.weight f4 [4, 64]
0.040309317 0.043848604 0.40405962 -0.14325695 0.14417836 -0.12092714 0.10614762 0.24741584
-0.14720805 -0.031667642 0.16892326 0.1177674 -0.11387761 -0.02239744 -0.16634348 0.2581111
0.16404241 0.16643237 0.09014862 -0.067555524 0.016201379 -0.06544211 -0.08286103 0.107325874
-0.13215262 0.3463006 0.11687022 0.09995683 -0.050045628 0.14206502 -0.046292786 0.0134000145
-0.21552548 0.04453433 -0.09694405 -0.09853828 0.017498866 -0.16219275 -0.13100666 0.086893156
0.045142762 0.0852707 0.03850489 -0.106765054 0.15081954 -0.051885225 -0.09578523 -0.066884734
-0.06630256 0.026252339 -0.11544941 0.12704517 -0.06119138 0.10193541 -0.025650404 0.08806879
0.035256296 -0.01120774 0.0055328114 0.3555817 -0.022765081 0.4614009 0.034540154 -0.14710093
-0.09415902 -0.035902873 -0.18722023 -0.050168954 0.11612377 0.09451923 0.015944483 -0.39106798
0.14308839 -0.053933024 0.12997968 -0.2223506 -0.05637114 0.14379345 -0.13853912 0.050061338
0.077739626 -0.1402051 0.26716837 0.09341297 0.066683896 0.08400525 -0.086861804 0.043591715
0.21116254 -0.09263169 0.04685811 -0.10206784 -0.068213336 -0.23710725 0.016458329 0.17202266
0.13800995 0.030975508 -0.09563195 0.014889748 0.2478551 -0.063774645 0.065919265 0.008510851
0.03869605 -0.14698902 -0.061452273 0.1914528 0.092451155 -0.029168615 -0.11958758 4.7158e-05
-0.117026664 0.111112975 -0.0628182 0.050384574 0.07612137 -0.045782663 -0.07463414 0.06565164
0.09520096 0.09921115 0.092681035 -0.1493653 0.0001552168 -0.20612706 -0.074700184 0.21723026
0.23327549 0.025197485 -0.3000454 -0.057921935 0.12898871 -0.06963589 0.07627323 -0.34127158
-0.120749295 0.01559224 0.24779539 -0.1487987 0.081041336 -0.07433632 -0.07960337 -0.0012745386
-0.15895355 -0.08550317 -0.31318712 0.115926884 0.09810472 0.096853234 0.03320729 0.06959268
-0.27365908 0.209424 0.15412241 -0.09500656 0.026698433 0.012385077 0.076621436 0.18055217
-0.12979835 -0.21515097 0.084257625 0.070539415 -0.20106825 0.0775074 -0.28153777 0.14409065
0.09623904 0.026713466 -0.13935202 -0.09007062 0.27352625 0.02032603 0.22696427 -0.017017556
0.14691104 -0.05901295 0.088452585 0.013118637 0.07893258 -0.13626233 -0.057017814 -0.45502013
-0.08357095 -0.274709 0.20733045 0.41159922 0.039851684 -0.095548525 0.18775485 -0.01967273
0.0302711 0.1413883 0.15359749 0.06694891 -0.18873212 0.10331492 -0.13517205 0.33169255
0.11660523 0.105868384 -0.34394136 0.32137898 -0.014164375 0.18358769 -0.024567775 0.03793054
-0.11833947 0.14738108 -0.07631148 0.024384944 -0.0062738936 0.0844222 -0.008747089 0.10851661
0.08003639 -0.20529653 -0.019411243 0.22184594 0.0323105 0.07141137 0.1931801 -0.17544252
0.0076490804 0.14465855 0.0641239 0.05545111 -0.21087007 -0.023769274 0.10574819 0.04416586
-0.07959983 0.112083174 -0.10945057 -0.24535167 -0.32727057 -0.04961912 -0.20116459 0.08206284
-0.05809011 0.16979977 0.031633798 -0.11310093 0.07368367 -0.0493502 0.04552929 0.33100414
-0.100586675 -0.03809376 -0.10213348 -0.5967457 0.01436707 -0.35037604 -0.07444995 0.062239002
00000000: 621b 253d 989a 333d e7e0 ce3e f3b1 12be
00000010: 7ea3 133e a6a8 f7bd ec63 d93d 945a 7d3e
00000020: b5bd 16be eeb5 01bd 38fa 2c3e 0930 f13d
00000030: aa38 e9bd d67a b7bc f255 2abe 2327 843e
00000040: bcfa 273e 3f6d 2a3e d79f b83d 8d5a 8abd
00000050: c1b8 843c 8306 86bd 0bb3 a9bd abcd db3d
00000060: 0453 07be 504e b13e a759 ef3d 2bb6 cc3d
00000070: a5fc 4cbd 7e79 113e 819d 3dbd bc8b 5b3c
00000080: b6b2 5cbe a169 363d 9a8a c6bd 70ce c9bd
00000090: c859 8f3c db15 26be 9c26 06be 0af5 b13d
000000a0: 9ee7 383d 68a2 ae3d 4eb7 1d3d a3a7 dabd
000000b0: 7070 1a3e 9a85 54bd 0c2b c4bd ddfa 88bd
000000c0: a3c9 87bd 250f d73c be70 ecbd 2118 023e
000000d0: d0a3 7abd 83c3 d03d cc20 d2bc 695d b43d
000000e0: e868 103d aba0 37bc 964c b53b ce0e b63e
000000f0: d67d babc bd3c ec3e fa79 0d3d a0a1 16be
00000100: 72d6 c0bd e40e 13bd a9b6 3fbe f67d 4dbd
00000110: 4dd2 ed3d 4c93 c13d 019e 823c 103a c8be
00000120: c385 123e e0e8 5cbd 6519 053e e0af 63be
00000130: 6de5 66bd 973e 133e 33dd 0dbe 1e0d 4d3d
00000140: f435 9f3d ed91 0fbe 4bca 883e 4d4f bf3d
00000150: 9191 883d f20a ac3d 9ae4 b1bd 3a8d 323d
00000160: fe3a 583e afb5 bdbd 4aee 3f3d f208 d1bd
00000170: 6fb3 8bbd 3ecc 72be 9ed3 863c b526 303e
00000180: 7b52 0d3e 59c0 fd3c afda c3bd 21f4 733c
00000190: bacd 7d3e 489c 82bd ae00 873d 1971 0b3c
000001a0: c07f 1e3d 4a84 16be 61b5 7bbd 340c 443e
000001b0: 0857 bd3d 05f3 eebc 55ea f4bd 84cb 4538
000001c0: adab efbd 338f e33d d4a6 80bd 0e60 4e3d
000001d0: 85e5 9b3d 9a86 3bbd c9d9 98bd 5e74 863d
000001e0: b9f8 c23d 372f cb3d 8ecf bd3d 38f3 18be
000001f0: b1c1 2239 f912 53be 69fc 98bd 9c71 5e3e
00000200: c5df 6e3e f56a ce3c 8d9f 99be 8d3f 6dbd
00000210: 9e15 043e 439d 8ebd 2435 9c3d 26bb aebe
00000220: 684b f7bd 9876 7f3c 13be 7d3e b05e 18be
00000230: 00f9 a53d a43d 98bd 1707 a3bd 6b0e a7ba
00000240: b8c4 22be 491c afbd 105a a0be 136b ed3d
00000250: 21eb c83d fd5a c63d 5e04 083d 9b86 8e3d
00000260: 0b1d 8cbe 3f73 563e 44d2 1d3e cd92 c2bd
00000270: acb6 da3c c7ea 4a3c b3eb 9c3d abe2 383e
00000280: dce9 04be 8950 5cbe 438f ac3d f876 903d
00000290: d6e4 4dbe 33bc 9e3d b825 90be 808c 133e
000002a0: f918 c53d 33d6 da3c 4cb2 0ebe f276 b8bd
000002b0: a20b 8c3e c682 a63c 5269 683e 6768 8bbc
000002c0: d96f 163e 90b7 71bd a126 b53d 8def 563c
000002d0: 68a7 a13d 5a88 0bbe 838b 69bd 66f8 e8be
000002e0: 3f27 abbd a8a6 8cbe 6f4e 543e 22bd d23e
000002f0: 853b 233d f2ae c3bd cf42 403e b428 a1bc
00000300: 19fb f73c 18c8 103e a948 1d3e 831c 893d
00000310: fe42 41be c696 d33d 8b6a 0abe 9bd3 a93e
00000320: b9ce ee3d 86d1 d83d 1519 b0be c98b a43e
00000330: b211 68bc 69fe 3b3e 5c42 c9bc 0e5d 1b3d
00000340: f75b f2bd 11eb 163e 3149 9cbd efc2 c73c
00000350: 3c95 cdbb 8ce5 ac3d f34f 0fbc f53d de3d
00000360: 1eea a33d 4139 52be 5404 9fbc 952b 633e
00000370: 0458 043d 2040 923d 01d1 453e 34a7 33be
00000380: 23a5 fa3b 5f21 143e 6453 833d b420 633d
00000390: 53ee 57be c8b7 c2bc 8292 d83d 43e7 343d
000003a0: 3c05 a3bd dd8b e53d 9f27 e0bd 783d 7bbe
000003b0: 0290 a7be 6b3d 4bbd 17fe 4dbe 9010 a83d
000003c0: e5ef 6dbd fedf 2d3e 7192 013d 76a1 e7bd
000003d0: 77e7 963d 6f23 4abd ec7c 3a3d 6079 a93e
000003e0: 6300 cebd 3408 1cbd 5c2b d1bd 54c4 18bf
000003f0: dc63 6b3c 7d64 b3be 3779 98bd 53ee 7e3d

advantage_fc.bias f4 [4]
0.005760688 0.022462921 -0.049960077 -0.069464624
00000000: 27c4 bc3b 2904 b83c f0a2 4cbd 7843 8ebd
