model.pt (torch, 65167 bytes, 11 tensors)

hidden_fc.weight f4 [64, 37]
000000 ad a5 ef 3c 9a 5d 2e bc de 42 09 3b b1 b9 5a 3e
       0.029253805 -0.010642434 0.0020944397 0.21359898
000010 9f d3 07 3e 16 1d 13 bd 57 76 90 be 84 36 c8 bd
       0.13264321 -0.03591641 -0.28215286 -0.09776023
000020 e1 39 d2 3e 0c b6 b4 3f 29 db 81 3d 31 b9 2b 3e
       0.41059783 1.4118056 0.063406296 0.16769864
000030 21 1d db 3d 81 c5 93 3d 6d 56 9b 3b b6 7a a1 bd
       0.10698915 0.07215405 0.0047405274 -0.078847334
000040 2e 55 a7 bd a9 b2 9d 3d 80 8d e5 3d 76 51 13 3e
       -0.081705436 0.07700092 0.112086296 0.14386544
000050 66 2b be 3d 8b 6c 06 3e 3e 8b c7 bb aa 8b 9b 3b
       0.09285621 0.13127343 -0.006089597 0.004746874
000060 cd 2c 14 be f0 6a 3f 3d 7f 1d 86 bd 30 5d 15 bc
       -0.14470215 0.046732843 -0.06548595 -0.009116456
000070 60 69 0d 3e ad da 39 3e e0 ad 49 3d 8a 03 8b bd
       0.13809729 0.18149824 0.049238086 -0.067877844
000080 29 d0 3a 3d dd 1f c2 3c dc 80 e8 bd dc 47 d7 bb
       0.045608673 0.023696834 -0.11352703 -0.0065698456
000090 d7 66 37 3c 57 54 73 be 7c 3f 49 3d a8 d6 94 3d
       0.0111939525 -0.23762642 0.04913281 0.07267505
0000a0 2b 28 12 3e 0e 6b e9 bc 69 2b 88 bf 1a 3e 04 3e
       0.14273135 -0.02849343 -1.0638248 0.12914315
0000b0 8f 21 33 3e 3e e1 30 be ad 42 bc bf 95 be 88 3d
       0.1749327 -0.17273423 -1.4707848 0.06676976
0000c0 77 44 93 bc 0d 62 ac bb ce 85 6a be f1 2a f9 3d
       -0.017976983 -0.005260712 -0.22902605 0.121663935
0000d0 5d 93 5c be 94 61 5f 3d f8 49 7d 3c 8d d3 1e be
       -0.2154059 0.054536417 0.01545953 -0.15510388
0000e0 88 ec 0d bd 1b 09 7c 3e bb db 11 3d 77 c2 54 be
       -0.034649402 0.24612848 0.035609942 -0.20777307
0000f0 79 17 b1 3e 4f 33 9c bd 5e 7e 5b be 3b 72 82 3e
       0.3458822 -0.07626974 -0.21434924 0.25477776
000100 c0 f9 69 bd 47 14 3c 3e 60 ea 0d bf 85 27 6e be
       -0.057122946 0.1836711 -0.5543575 -0.23257263
000110 0f 28 8c 3d fe 1a 33 3e 5f 80 85 bc 78 fb 2c be
       0.06843578 0.17490765 -0.016296564 -0.16892803
000120 a6 c6 cf bd 64 e7 1c 3d 7a c4 4f 3d fb 77 1b 3c
       -0.10145311 0.03830661 0.050724484 0.009489055
000130 2f 67 c8 3d 6f e2 fb 3d f3 cd 90 3d d7 b9 49 bc
       0.09785306 0.12299048 0.07070532 -0.012312374
000140 7a 83 e0 3d be a0 c4 bc f9 46 ac 3d bc ab 76 3c
       0.10962577 -0.02400243 0.084119745 0.015055593
000150 b9 b5 e2 3d f4 e7 de 3d 26 e8 81 3d 4a 55 cb 3d
       0.11069817 0.10884085 0.06343107 0.09928377
000160 dc e0 97 bd 58 9f 8f 3d f0 c9 61 bd ac 8e 5b 3d
       -0.074159354 0.07012814 -0.055124223 0.05360286
000170 28 6f 97 bd c4 10 18 be 04 1f 01 3e 67 f0 fa 3c
       -0.07394248 -0.14850146 0.12609488 0.03063221
000180 6e 96 8e 3d 68 58 e2 bc 43 c5 3b be 92 68 3c 3d
       0.06962286 -0.027630046 -0.18336968 0.045998164
000190 24 33 3c 3e e2 f7 31 3d a0 14 16 be c2 06 c1 be
       0.18378884 0.04344929 -0.14656305 -0.37700468
0001a0 60 07 61 3e cc d0 80 be 76 1a 01 be dc af a2 be
       0.2197547 -0.251593 -0.1260775 -0.31774795
0001b0 d2 53 91 bf 79 3f 96 b8 1d 39 9a 3b f0 f3 2a 3c
       -1.1353705 -7.16438e-05 0.0047065155 0.010434136
0001c0 a9 43 65 3d a9 67 be 3d a7 b2 0b 3d 41 61 25 3e
       0.05597273 0.09297115 0.034105923 0.1615038
0001d0 a6 be e8 bd aa 9a ec 3d ac 6e 7f bd de 87 3f 3f
       -0.11364488 0.11552937 -0.062361404 0.7481669
0001e0 b3 f9 d7 3f dc 69 7d b9 de c8 94 3d e1 49 9e bc
       1.6873077 -0.00024167396 0.07264875 -0.019322338
0001f0 34 a2 ea bc cd 1a 22 3d 46 6c 36 bd ff e7 0f 3e
       -0.028641798 0.03957634 -0.04453685 0.14053343
000200 a7 2d 05 3d 84 48 8b bc 2d 8b 9e 3c 1a f3 15 3e
       0.03251424 -0.017002352 0.019353474 0.14643517
000210 d3 ad 86 bd 57 8f 51 3e bb d8 0f 3e 4d 40 3a 3e
       -0.06576123 0.20464836 0.1404752 0.18188591
000220 77 a9 d9 3d 9d b7 fd 3d 36 44 2f 3e 0e b1 cc bc
       0.10628026 0.12388537 0.17115864 -0.02498677
000230 e7 8c 79 3e 5f 8a e6 bc f4 ed 4a 3d f0 2b e7 bc
       0.24370156 -0.028142152 0.049543336 -0.028219193
000240 8e 0b 6d bb 7f 57 b0 3d 91 44 84 bc 77 b1 ab bc
       -0.0036170217 0.086104386 -0.016145976 -0.020958645
000250 0a 86 82 bc 80 25 f0 bc 48 5d 4d be ff d6 79 be
       -0.015933055 -0.029314756 -0.20055115 -0.24398421
000260 2e a8 d5 3d 5d 1e 86 bf f0 1a 7b bd 07 4a 37 3e
       0.10432468 -1.0478016 -0.061304986 0.17899333
000270 a7 32 97 3e b0 56 cf be 23 28 f4 be a1 e3 c5 bc
       0.29530832 -0.40495825 -0.47686872 -0.024156393
000280 21 b1 e8 3d 7a 90 44 3e 25 ec e6 3d 7c 2b bf be
       0.1136191 0.19195738 0.1127551 -0.37337863
000290 75 85 9a 3e d8 9a 20 be 72 1e 41 3d ee 2b de 3d
       0.30179945 -0.15684068 0.047148176 0.10848223
0002a0 65 bb ab be 46 77 09 bf e1 50 9b 3e 22 bc 8c be
       -0.33541408 -0.5369762 0.30335143 -0.27487284
0002b0 d2 81 38 3e 74 43 b9 be b3 95 59 3e ea 87 34 3e
       0.18018273 -0.36184275 0.21248512 0.17629972
0002c0 c5 15 95 be 0f 9c 8b 3b 01 e2 a6 3d 81 59 07 bf
       -0.2911817 0.004260547 0.081485756 -0.5287095
0002d0 84 76 21 be 9f dc 3b be 96 23 0f 3e 6b c6 3d bd
       -0.15767866 -0.18345879 0.13978419 -0.046331804
0002e0 61 77 99 bb a0 2b 8d bf a7 1b ad 3e a9 f9 48 3e
       -0.0046834205 -1.1028938 0.3381016 0.19626488
0002f0 8c 53 59 3e 59 19 3b bf 58 88 09 be e4 f6 d3 3c
       0.21223277 -0.7308555 -0.13430917 0.025874563
000300 c0 1e d1 3d 7c cf 5f 3e 32 85 99 be 23 04 c1 3c
       0.10210943 0.21856493 -0.29984432 0.023561543
000310 43 15 5d bd 91 2d 86 3d 7c 40 d6 bd a8 0a 09 be
       -0.053975355 0.0655166 -0.10461518 -0.13382971
000320 60 ae f5 bd cd b3 c2 bd cb 1d dd 3d 3c f5 da 3d
       -0.1199615 -0.095069505 0.10796698 0.10691306
000330 44 77 9e 3e 4f c4 e9 3d 01 9a b8 3c c1 6c 57 3d
       0.30950367 0.11414396 0.022534372 0.05259395
000340 e6 2f 14 3e bd b9 a3 3e 3f f2 c3 3d 25 5e 3b 3d
       0.14471397 0.31977645 0.09567689 0.04574408
000350 86 28 bb 3d 55 8f 1c 3e 9d 08 f5 3d a3 66 32 3d
       0.091385886 0.15289052 0.119645335 0.043554913
000360 3d 2d 53 bd da de 0a 3e f8 bf e6 3d 87 69 75 bd
       -0.051556814 0.13561574 0.11267084 -0.05991509
000370 91 78 92 3d 13 8a 84 bc a2 e4 96 3e 43 f2 9a be
       0.071519025 -0.01617912 0.29471308 -0.30262956
000380 30 35 30 3e ab 9c 14 be 3e f0 ca bb b4 c1 51 3d
       0.1720779 -0.14512889 -0.00619319 0.05121012
000390 2e 1b 0b 3d 60 0f 9d 3d 18 75 4e be f6 f6 2e 3d
       0.033961467 0.07668948 -0.20161855 0.04271599
0003a0 c1 c2 99 3d 2e 8b b9 bd 91 c9 6b 3e 7d da e3 be
       0.075078495 -0.090597495 0.2302611 -0.4450263
0003b0 8e 3d 83 3e 13 02 8e 3e 25 36 fe 3d 2a 95 aa 3c
       0.256329 0.27735958 0.12412671 0.02082308
0003c0 b0 69 e2 be e4 dd 16 bc d8 df cb 3e 6e ee a1 bd
       -0.44221258 -0.009208176 0.39819217 -0.07906805
0003d0 5f 86 fd be 1a cd c3 be 10 0a 16 bf 2e dd ab 3d
       -0.4951658 -0.38242418 -0.58609104 0.08391796
0003e0 e7 39 f5 3c bd ae 40 3e 49 13 27 bf 37 f9 8d 3e
       0.029934837 0.18816657 -0.652638 0.27729198
0003f0 5f 01 80 3d 32 e2 32 3e f5 01 1d bd 44 62 81 3e
       0.062502615 0.17469099 -0.038331944 0.25270283

hidden_fc.bias f4 [64]
000000 f4 eb c7 bd 6d 5a 48 be 16 65 a8 3d 2a 78 6c 3e
       -0.09761801 -0.19565745 0.082224056 0.23092714
000010 1c 97 04 3e a8 c6 6f 3e e7 c1 f3 bd a9 66 e8 bd
       0.12948269 0.23415625 -0.11902218 -0.11347706
000020 eb bd 39 bd 92 5e 43 be 7c 86 cc bd fd 5c 48 be
       -0.045347136 -0.19079044 -0.09986588 -0.19566722
000030 89 65 7d be 31 6d 98 3b 91 ad 48 3e cc c7 c7 bd
       -0.24745764 0.0046516885 0.1959746 -0.09754905
000040 18 c8 68 be 07 18 8a be 17 e2 00 be 75 48 15 bd
       -0.2273258 -0.26971456 -0.12586246 -0.036446054
000050 30 f2 1a bc 96 ab df be 44 bc 0b 3c fc e2 48 3e
       -0.009457156 -0.43685597 0.008528773 0.19617838
000060 ab 9e 38 bd 98 e5 b9 bc 6f 44 1c be 6e 99 ee bd
       -0.045073193 -0.022692487 -0.1526048 -0.11650358
000070 6a 5c 48 3c 60 73 17 3e 80 62 01 3c b9 22 33 be
       0.0122290645 0.14790106 0.007897019 -0.17493714
000080 da 50 a7 be 36 8a 22 be 8f de 38 3d 67 29 ba bc
       -0.32678872 -0.15873036 0.045134123 -0.02272482
000090 b3 d3 1b be 73 6e 13 bc 3e 43 95 bd 7f 07 99 3d
       -0.15217476 -0.008998501 -0.07288216 0.07472133
0000a0 59 6b a9 bd b6 5b 8e bc cc 28 cb bd d5 7f b0 3d
       -0.08272428 -0.017377716 -0.09919891 0.08618132
0000b0 46 65 3e bd 48 92 27 3e 95 a8 ad be 09 6a 93 3d
       -0.0464833 0.16364396 -0.3391768 0.07197959
0000c0 f0 aa 74 be b7 52 1f be 96 2a c7 3d 50 e7 9a bc
       -0.23893332 -0.15558897 0.097249195 -0.018909127
0000d0 60 17 38 3d fc 95 8e be a8 f4 92 bd fa 17 15 3e
       0.044944167 -0.27848804 -0.07175571 0.14559928
0000e0 07 f3 a9 bd db b0 3c be 7a ac 0e bd 05 9b 06 be
       -0.08298307 -0.1842684 -0.034832455 -0.13145073
0000f0 03 79 8a 3d 53 d0 a3 be 14 da 70 bd 2e 36 59 3c
       0.067613624 -0.31994876 -0.058801726 0.013257546

value_fc_hidden.weight f4 [64, 64]
000000 57 67 5b 3d fc 28 7f 3e 16 c5 36 3b 0e d6 3c 3d
       0.05356535 0.24917978 0.0027888468 0.046102576
000010 8d 5b 5e 3e f3 2e d8 3d 6e 90 74 bb 32 ca 3d bc
       0.21714611 0.1055583 -0.0037317532 -0.011583852
000020 7f 55 20 3c 64 8f e6 3c 0f 44 da 3d 60 68 5e be
       0.009786009 0.028144546 0.106575124 -0.21719503
000030 bf 5e b7 be 4a 26 f6 3b 5c c7 88 bc b9 f6 a0 3c
       -0.35814473 0.0075118886 -0.016696624 0.019648897
000040 1d 23 f5 bb 2a ba df bc 31 82 88 bd ce 80 91 3e
       -0.0074809925 -0.02731045 -0.06665457 0.28418583
000050 0a db f8 3c a2 ff 0b 3e c8 ea 71 3b 8c 47 da bd
       0.030377883 0.13671735 0.0036913622 -0.10658178
000060 35 e2 06 bd 5b 6b 1d be fb 8b 66 3e b8 4e 13 3e
       -0.03293057 -0.15372984 0.22514336 0.14385498
000070 cf 68 33 bf 11 b3 5b bc b5 48 a5 bd a5 1e 3a 3f
       -0.700818 -0.013409392 -0.080705084 0.7270301
000080 4f a3 d2 bc ee 7f ba bd 01 e4 e5 3d 63 d0 45 be
       -0.025712637 -0.09106432 0.11225129 -0.19317774
000090 ad 2e f9 3d 83 78 aa bd 21 7e 09 3d f6 0e be bd
       0.12167106 -0.08323767 0.03356755 -0.09280197
0000a0 87 3c ae 3c 03 21 40 3d 39 c5 14 be 0d 1f 14 3f
       0.021269096 0.046906482 -0.1452836 0.5785988
0000b0 f7 2f a7 3d 1e c9 22 bd 3c 89 86 3d 41 2e 20 be
       0.081634454 -0.03974258 0.06569144 -0.15642644
0000c0 3f 68 ae bd fc bf 89 3d bc 3f 8e be 4b 37 50 3d
       -0.08515977 0.06726071 -0.27783 0.05083398
0000d0 79 3b 55 3d f7 fa 91 bd 1c 12 84 bf bf 3b 21 3e
       0.05205867 -0.07127946 -1.0318027 0.15745448
0000e0 83 9f 73 3e 8a 8f 96 be 2b fa 12 3d be 90 ab 3d
       0.23791318 -0.29406387 0.03588311 0.08377217
0000f0 40 75 c6 3d 5a c3 8f bc d6 c9 0a 3d a2 e8 37 be
       0.096903324 -0.017549206 0.033883892 -0.17959836
000100 57 9d 8f be d1 e7 28 3e ca 29 13 3d 2b 71 ac be
       -0.28049728 0.16494681 0.035928525 -0.3368009
000110 1c 8a fd bd 70 c4 ca bc 99 8b b1 bd f2 e8 16 bf
       -0.12379858 -0.024751872 -0.08669204 -0.58949196
000120 db 6a 09 3e 76 15 0d bd 21 ad d6 be 2e 80 9a be
       0.13419668 -0.034444295 -0.41928962 -0.30175918
000130 8f 02 04 3e a0 7a 83 be fe 28 80 be 9a c9 80 bd
       0.12891601 -0.25679493 -0.25031275 -0.062884524
000140 55 45 18 bd 8e a6 77 be 8e 12 86 3d f3 81 9c be
       -0.037175495 -0.2418463 0.06546508 -0.30567893
000150 f8 75 ee 3d 13 7b f1 bd b7 18 d9 3d 4a c8 47 be
       0.116435945 -0.11791053 0.10600417 -0.19509998
000160 b6 97 37 3c d9 2e ef 3d df 36 0c 3e e2 ba 21 be
       0.011205604 0.11678857 0.13692807 -0.15793946
000170 0d e5 a2 bd 50 cf dc bd 4e 05 b2 3d 3b 2a e8 3c
       -0.07953844 -0.10781729 0.08692418 0.02834045
000180 46 13 38 3e f0 d1 54 be 10 fa d0 be c9 90 f3 3d
       0.17976102 -0.2078321 -0.40815783 0.1189285
000190 af 0a b5 bd d2 0f 03 bd 3d b1 7f 3e c0 f9 c7 bd
       -0.08839928 -0.03199751 0.24969955 -0.09764433
0001a0 0c 1a ca 3e 76 b5 eb bc 37 6e f5 3c 0e 73 7f be
       0.39472997 -0.02877305 0.029959781 -0.24946234
0001b0 fa 59 9c be b4 fb fd be 33 51 d8 bc b1 ce b4 3d
       -0.30537397 -0.49606097 -0.026405906 0.08828486
0001c0 1d 80 05 3e 14 be 83 3e 5c 7b 30 be 08 1c 98 bd
       0.13037153 0.25730956 -0.17234558 -0.074272215
0001d0 5c 17 e9 bd 1b 98 2b 3d 7c de 3a 3e ec 28 72 be
       -0.113814086 0.041893106 0.18248934 -0.23648423
0001e0 53 b7 0c be 20 a7 01 bf eb 2a 30 be 7e 8e d4 be
       -0.13741808 -0.5064564 -0.17203872 -0.41514963
0001f0 2c ef 7c bc f4 5a 74 3d 71 ee 8e 3e 45 83 4e 3e
       -0.015437882 0.059657052 0.2791629 0.20167263
000200 99 fa c8 bd f3 5e a1 3e 21 15 23 be ae bb 5e be
       -0.09813423 0.31517753 -0.15926029 -0.21751282
000210 72 d1 04 bd 05 93 0b 3e a9 ab 1a be 4c 73 36 3b
       -0.032426305 0.13630302 -0.15104546 0.0027839718
000220 ed 21 a7 3e 85 67 49 be 42 0a 5c be ba 8a d2 3d
       0.3264307 -0.19668396 -0.21488288 0.10280366
000230 86 96 00 bd 60 6f 55 3d 7d cb d4 bd 87 8d 45 be
       -0.03139355 0.05210817 -0.10390375 -0.1929227
000240 03 61 46 be b4 7e 18 3c 0f 9b b6 be 7e 47 89 be
       -0.19372945 0.009307552 -0.35665175 -0.26812357
000250 f4 7c 88 be 43 58 4b 3e 77 68 7e 3e 67 bd c8 3a
       -0.26657832 0.19857888 0.24844538 0.0015315235
000260 b2 ca a0 be 3b 90 86 bd e4 35 f7 bd 41 22 00 3e
       -0.31404644 -0.065704785 -0.12070826 0.12513067
000270 38 59 3c bf f0 a3 b3 be 09 dd db 3d e2 76 11 bf
       -0.73573637 -0.35086012 0.107355185 -0.56822026
000280 b8 2c 98 3e d1 ed 9d bd a8 2b e8 be 44 68 2b 3e
       0.29721618 -0.077113755 -0.45345807 0.16738993
000290 84 ab c0 bd 79 04 db be 3f c4 dd 3d ca 14 b2 be
       -0.09407714 -0.4277685 0.108284466 -0.34781486
0002a0 03 0f 79 be 25 55 31 be ad d3 a7 bd a3 b8 2a be
       -0.24322133 -0.17317636 -0.08194671 -0.16671996
0002b0 85 71 c0 3e 35 2e 8d bd 6b f0 bc 3e 71 de a2 bc
       0.3758661 -0.06893579 0.36902174 -0.019881459
0002c0 32 19 00 3e cc ab 97 3c a4 08 0f 3d 28 c3 df be
       0.12509611 0.018514536 0.03492035 -0.4370358
0002d0 5a 1b 33 be a3 39 1b 3d d7 c0 ea be cc cf bc bd
       -0.17490903 0.037896764 -0.4585025 -0.092193216
0002e0 26 13 10 3e b2 96 38 3e 25 e6 36 bf cc 5c 3a be
       0.14069805 0.18026236 -0.7144492 -0.18199462
0002f0 e8 a7 c6 be 8a f8 c6 be 49 c6 a5 bd 02 40 bb be
       -0.38799977 -0.38861495 -0.080944605 -0.36572272
000300 97 f1 87 3d 6f 00 2e bf cb 6a c4 3d d8 65 28 be
       0.066378765 -0.6796941 0.09590682 -0.164451
000310 40 bf 53 3e 2f 53 51 3e ac b5 34 3e 13 9b 10 3e
       0.20678425 0.20441888 0.17647427 0.14121656
000320 9a 9c 40 3c 1c 18 ef be f9 c8 8d be 9a bf d5 3e
       0.011756087 -0.46698081 -0.27692392 0.41747743
000330 51 d3 4c 3e 61 c2 02 bf 10 84 d9 be 23 11 bc bd
       0.20002486 -0.5107785 -0.42483568 -0.09182956
000340 da d9 02 be 70 00 9e 3e d6 32 a7 3c b4 41 24 3d
       -0.12778416 0.3085971 0.020409983 0.040101722
000350 b7 0d 3d be 35 9a 73 be d5 5c af 3d fc f1 b7 3d
       -0.18462263 -0.23789294 0.08562628 0.08981702
000360 cf f8 7d 3e 0c a2 6d be 08 49 96 3e d3 28 fd 3d
       0.24801944 -0.23206347 0.29352593 0.12361302
000370 80 34 15 3c fd f9 0c be e6 8d 09 be 4b 33 88 3e
       0.009106755 -0.13767238 -0.13433036 0.26601633
000380 13 cf 22 be 82 93 da 3e 25 0b 87 be 1d 78 9c be
       -0.15899305 0.42690665 -0.2637569 -0.3056039
000390 df d6 b6 bd ce 08 ce 3b f0 8b 2f bd b7 52 5f bd
       -0.08927702 0.0062876707 -0.042858064 -0.054522242
0003a0 ac 3c d6 3e e2 b1 0a be 8b 57 19 be 24 73 ca bd
       0.41843164 -0.1354442 -0.14974801 -0.098852426
0003b0 15 a6 00 bf be b6 9c bd b9 03 dd be be a0 50 3e
       -0.5025342 -0.07652043 -0.43166903 0.20373818
0003c0 77 8a c8 be f7 df 73 bd 6c d8 c0 3d d0 79 16 be
       -0.3916814 -0.05953976 0.09416279 -0.14694905
0003d0 9e 8f e4 be 4c a1 0e 3d 9e 21 84 3d 53 a9 af 3d
       -0.4464082 0.034821793 0.064517245 0.08577218
0003e0 9e 25 e1 be 96 82 ab 3b fd 82 5c be ab 33 ed be
       -0.43974012 0.005234073 -0.21534343 -0.46328482
0003f0 32 45 94 3e 66 ec ef bd ee 0f b3 3d 58 11 86 be
       0.28959042 -0.11715011 0.08743273 -0.26185107

value_fc_hidden.bias f4 [64]
000000 7d db 82 3b e0 0b 53 be b9 85 d0 bd 14 fd 9c bd
       0.00399345 -0.20609999 -0.101817556 -0.07665458
000010 e4 e7 00 be 96 71 96 be d3 f6 78 be 53 74 70 3d
       -0.12588459 -0.29383534 -0.24312906 0.058704685
000020 19 e2 26 3b 29 97 87 bd cb 7e 6a be 25 64 6d be
       0.0025464355 -0.066206284 -0.2289993 -0.23182733
000030 23 ee 42 be 90 30 71 be d6 f3 ca 3d 32 09 44 be
       -0.19036154 -0.23553681 0.09909789 -0.19144133
000040 21 1a 2f bd 03 6a 34 be 6e c7 02 3c 56 6f 12 be
       -0.042749528 -0.17618565 0.007982118 -0.14300284
000050 55 02 bd bc 69 1e 9c bc f6 b8 eb bd fd 72 fb bd
       -0.023072401 -0.01905747 -0.11509888 -0.12277792
000060 c1 60 75 be de 97 39 be a4 1f 3d be 2e 06 a6 bd
       -0.2396269 -0.18124339 -0.18469101 -0.081066474
000070 3c b3 2e be 8b ec 34 be 15 ac 31 be 5b fc 0b be
       -0.1706056 -0.17668359 -0.173508 -0.13670485
000080 2e c7 88 bc 73 8f 38 be c1 bb 5a 3d 4a bc e9 bc
       -0.016696539 -0.18023472 0.053401712 -0.028532166
000090 d1 b2 ba bd 73 78 86 be e2 11 ae 3a bf 23 40 be
       -0.09116138 -0.2626377 0.0013280476 -0.18763636
0000a0 ed 16 18 be d9 a2 35 be 58 c9 0b 3d af 04 93 bd
       -0.14852495 -0.17737903 0.034127563 -0.07178628
0000b0 bd 0c b7 3d 42 33 c9 3c 97 78 30 3e 39 d3 f5 3d
       0.089379765 0.024560574 0.17233501 0.12003178
0000c0 ac 08 fe bd b4 09 c4 bd ce 53 85 be fc 7a 32 bd
       -0.12403998 -0.09572163 -0.260405 -0.04357432
0000d0 ad 85 4c 3d 62 cf 91 3d 00 52 8b be df 7c 47 be
       0.04993217 0.07119633 -0.27211 -0.19481228
0000e0 c8 ff 2f 3e 85 5a 6a bc 30 83 a3 be 40 ac 41 be
       0.17187417 -0.014303808 -0.31936026 -0.18913364
0000f0 c1 b4 14 bc e2 cc 15 bd ae bd 52 bc cd d3 7f be
       -0.009076298 -0.036572345 -0.012862606 -0.2498314

value_fc.weight f4 [1, 64]
000000 7d 1e 81 3d 09 9d 4e bf 9e 9e 7c 3f 4c e3 4c bf
       0.06304643 -0.80708367 0.9867953 -0.8003433
000010 17 7a 26 bf 78 e2 24 bf 3b ad 64 bf e6 92 76 3d
       -0.65030044 -0.64408064 -0.8932683 0.060198687
000020 35 81 3c 3c 69 f2 5c be 08 49 12 bf 02 34 20 bf
       0.011505415 -0.21576847 -0.57142687 -0.6257936
000030 13 7e 42 bd a9 5a 56 bf e0 65 c5 3d 0e 60 34 3e
       -0.047483515 -0.83732086 0.09638572 0.17614767
000040 3e d5 e7 be 8e 18 f6 3e 39 76 97 3e 2a a6 73 3d
       -0.45279878 0.4806561 0.29582384 0.05948464
000050 b2 10 7f bf 98 9b 3d 3e 17 cd e9 3d ec 7d 66 bf
       -0.9963485 0.18516386 0.11416071 -0.9003589
000060 3c fb 31 bf f4 38 83 3d 65 d6 ae 3e 16 90 03 3d
       -0.6952398 0.06407347 0.34147945 0.032119833
000070 d6 3e 84 bf 40 fa 8e be 84 26 52 3e fd ec 2d 3e
       -1.0331676 -0.279253 0.20522505 0.16984935
000080 78 cf 5e 3d 1b 3c 12 3e 15 28 f9 bd 5d 2d 4e 3e
       0.054397076 0.14280741 -0.12165848 0.20134492
000090 c4 92 56 be 3f a0 50 3f 21 d4 3c 3e 28 37 5e bf
       -0.20954424 0.81494516 0.18440296 -0.8680291
0000a0 eb e2 fa be 99 09 8a be b6 9c 13 be bb a0 5c 3d
       -0.4900125 -0.26960447 -0.14415249 0.053864222
0000b0 81 7b f8 3c c2 9a ee 3d ce c9 89 3d db 9e a7 3c
       0.030332329 0.116506115 0.06727944 0.02046149
0000c0 b3 da 33 bf b7 8a 19 3d 7a da d6 be 93 5b 27 3d
       -0.70255584 0.037485804 -0.4196356 0.040858816
0000d0 f6 b9 dd bd 80 c3 6a bd aa b3 0e be d0 03 36 bf
       -0.10826485 -0.05731535 -0.13935724 -0.7109957
0000e0 11 ec 1f 3d e0 e2 90 bd 01 8f a6 bf eb 9a a8 bf
       0.03904349 -0.07074523 -1.3012391 -1.3172277
0000f0 ad ee 43 bf 5d 7d 28 3d 7d 53 8e 3d 06 c7 5a bf
       -0.76536065 0.04113518 0.06949518 -0.85459936

advantage_fc_hidden1.weight f4 [64, 64]
000000 65 73 9b be a7 3c a4 be 09 ba a6 bd af 02 3f be
       -0.30361477 -0.32077524 -0.08140952 -0.18653367
000010 5b 87 b1 be 55 c6 d7 be 05 64 dc 3c 79 42 81 be
       -0.3467358 -0.42143503 0.026903162 -0.25246027
000020 09 6f 15 3d c1 73 16 bf 9e 8b 80 bd c2 e5 3d 3e
       0.036482845 -0.58770376 -0.0627663 0.18544677
000030 15 c2 b6 3c bd 9a a7 be ea 9a 17 be b3 e9 9c bc
       0.022309342 -0.32735243 -0.14805189 -0.019154405
000040 af c1 36 3e 93 24 ab 3e f4 e3 1b 3c 12 4a d9 3e
       0.17847322 0.3342634 0.0095147975 0.42439324
000050 e7 44 71 bd e6 d3 9e bd e4 ee 3e be 2b f2 43 be
       -0.0589036 -0.0775526 -0.18645817 -0.19135348
000060 61 93 8c 3b 39 23 c1 3d d3 77 36 be f7 d0 f3 bd
       0.00429003 0.09430546 -0.17819147 -0.11905091
000070 c8 bb 5a bc 35 8e 91 3b 1b 80 db bd d1 e4 95 bd
       -0.013350435 0.004442001 -0.107177936 -0.07319034
000080 1f a0 eb bd 86 ce 7b 3e e8 3d 25 3e e0 c5 05 3e
       -0.1150515 0.24590501 0.16136897 0.13063765
000090 c9 d4 24 3e fc db 8b bd b5 59 7d 3e 8a bf d3 bd
       0.16096796 -0.06829068 0.24741252 -0.103392676
0000a0 12 2c 31 3e c3 2a 43 bc 43 a6 22 be 91 ef 4f bc
       0.17301968 -0.011912051 -0.15883736 -0.012691394
0000b0 53 8b b3 bb c3 29 49 be 19 f6 6c bd 55 dd 97 3d
       -0.005479255 -0.19644837 -0.057851885 0.074152626
0000c0 48 da d2 be ef 7c 70 bc de 9e 3b be ea 2f 28 be
       -0.4118216 -0.014678224 -0.18322322 -0.16424528
0000d0 a8 54 3d be f0 25 40 3e 1d 28 2f 3e fe b5 a2 3e
       -0.18489325 0.18764472 0.17105146 0.31779474
0000e0 55 f3 06 be d9 f7 54 bd 10 ac 0f 3e a6 6b bd 3e
       -0.13178761 -0.05199418 0.1403048 0.36996192
0000f0 c8 16 b6 3e b1 d3 5d be e2 61 ad 3e 7f 6f 98 bc
       0.35564256 -0.21662785 0.3386374 -0.018607853
000100 02 98 9f bd 21 c7 a1 bb ed 57 00 be a8 62 6f 3c
       -0.07792665 -0.004937068 -0.12533541 0.014610924
000110 4b 39 99 3c fb ce ec bd c4 d4 1a bb 4c 27 d5 bc
       0.018704077 -0.11562916 -0.0023625353 -0.026019715
000120 36 1e b9 3d 46 31 45 3d bb 9f 2e 3d e6 2d a6 3e
       0.090389654 0.048142694 0.0426328 0.32456893
000130 91 cc 46 3d f3 6d df bd 7a 54 22 bf 3d ff 19 3e
       0.048534933 -0.10909643 -0.6341015 0.15038772
000140 de 45 41 bc 3d e7 f6 bd 07 89 8c bd 2c 11 49 3f
       -0.011796443 -0.12055824 -0.068620734 0.7854183
000150 a3 05 c2 bd 22 20 9b 3c f5 f6 2b 3e 36 3e c7 bc
       -0.09473731 0.01893622 0.16793425 -0.024321657
000160 c5 d2 85 3e d9 64 f8 3d a3 22 bc 3e b8 34 40 be
       0.26137367 0.1212861 0.36745176 -0.1877011
000170 b2 da 8a bd 71 91 01 bc 6b c9 dc 3d b2 fb 9d be
       -0.06779994 -0.007908211 0.10780605 -0.3085609
000180 5d 13 6b 3d 0f 3d 79 3b d9 8f 1e bd 5e 01 89 3c
       0.057391513 0.0038030779 -0.038711403 0.016724285
000190 c9 e3 b4 bd a5 7a 9c 3d 7b 42 0e 3e cd c2 02 be
       -0.08832509 0.0764058 0.13892548 -0.12769623
0001a0 5f 40 b5 bd 77 73 3c 3d 0e 39 07 3c d5 4e 0e bf
       -0.088501684 0.046008553 0.008253349 -0.5558904
0001b0 33 db 00 3e 31 ec 84 bb 52 af a7 3d 10 18 11 bd
       0.12583618 -0.0040564765 0.081877366 -0.03542334
0001c0 f7 f3 63 be b2 28 4c bd a6 e8 8a 3d 9f bc 8d 3d
       -0.22261034 -0.049843498 0.067826554 0.06920742
0001d0 30 7b d3 bd 63 40 d0 bb f8 fa 9e be 79 83 8a bc
       -0.103262305 -0.0063553317 -0.3105085 -0.016908394
0001e0 50 b2 32 bc 10 9c fd be 77 89 f7 bd ea 4d be bd
       -0.010906771 -0.4953313 -0.12086766 -0.09292205
0001f0 64 a7 f6 3e 20 6e ba 3b 91 5a a6 be a6 54 85 bd
       0.48174584 0.0056893975 -0.32490972 -0.06510286
000200 2c ac 13 be 08 a1 8b 3e 4a c3 aa bd 4a be da bd
       -0.14421147 0.27271295 -0.0833803 -0.10680826
000210 62 d8 0d bf 5f 3c 1e 3e e7 06 b3 be c0 e7 a6 bd
       -0.554083 0.15452717 -0.34966204 -0.081496716
000220 57 68 f3 bd b0 96 16 be a3 ce 65 be cc 1a 6b 3e
       -0.118851356 -0.1470592 -0.22442107 0.22959441
000230 db c5 04 3e 22 98 34 3c c9 18 14 bd a5 b9 86 bd
       0.12966101 0.011022599 -0.03615645 -0.06578378
000240 de 59 6b be 25 ef 93 bd 33 4e b2 3c 98 c4 68 3c
       -0.229835 -0.072233476 0.021765804 0.014207028
000250 e4 2a be 3c 14 0b 85 3d 8f 46 62 3e b5 90 36 be
       0.023213811 0.064962536 0.22097228 -0.17828639
000260 6f 7c 16 3e 77 45 fb 3d ab 80 d4 3d fe 0f 3a 3e
       0.14695905 0.12269109 0.10376104 0.18170163
000270 74 a3 bd 3e ac 97 51 3d 57 5e d6 bd 38 dd b9 be
       0.37038767 0.051170036 -0.10467213 -0.3630159
000280 a0 c9 8e 3d 4b 6f 3b be 0c 8c 88 be e5 ac 12 3e
       0.06972051 -0.18304174 -0.26669347 0.14323767
000290 5f 2b 35 3e cb 1e 9b 3c a6 d8 1c ba 7c 9d 69 3d
       0.17692326 0.018935582 -0.0005983211 0.057034954
0002a0 14 82 9e 3d 18 a1 ed 3d a1 d6 4b be bc 5f 7a be
       0.07739654 0.11602992 -0.19906093 -0.24450582
0002b0 61 7c dc 3c 2c 7d 8b be 0e d8 57 3d 95 df 66 bd
       0.026914777 -0.27243936 0.05269628 -0.05636557
0002c0 93 30 f7 3c 94 d6 2e 3e d3 5b f3 bc d4 43 fe bc
       0.03017453 0.17074043 -0.029706871 -0.031038202
0002d0 3a b3 2a be c0 cd c1 3c 0b a5 40 bd 3e 84 de be
       -0.16669932 0.02365768 -0.047032397 -0.43460268
0002e0 9d 1f 8b 3d 3f dd 27 3e d5 da 1f bd 0b 4a 18 3e
       0.06793139 0.16392992 -0.039027054 0.14871995
0002f0 ad 8f 66 be a3 f7 71 bd bc 83 a0 bc ec 53 4d bc
       -0.22515745 -0.059074055 -0.019594066 -0.012532216
000300 e2 25 62 be 66 bd 10 be fb 76 08 be 32 04 4e be
       -0.22084764 -0.1413475 -0.13326637 -0.20118788
000310 a2 f9 25 be 15 07 99 bd d9 f2 c6 3e b2 39 d2 3d
       -0.16208509 -0.07472054 0.38857153 0.10264911
000320 d1 ac d8 bb 70 3c b9 bd b0 5f f0 bd 1b c7 cd bd
       -0.006612398 -0.09044731 -0.11737001 -0.10047742
000330 4b 6b 8b 3e c3 9b ba be 2f 9e 25 3d 20 32 69 be
       0.27230296 -0.36446962 0.04043406 -0.22773027
000340 0f b3 2e bf b1 c1 a1 be 97 3c 9e be 74 84 8e 3e
       -0.6824197 -0.31593087 -0.309056 0.2783543
000350 1e ca b7 be db 51 ab be 4a c9 68 be fe 61 96 3c
       -0.3589639 -0.33460888 -0.22733036 0.018357273
000360 7b 30 a5 3e 8e ac 9b 3e 16 df a6 3d 33 2a 42 3e
       0.3226355 0.30405086 0.08148019 0.1896141
000370 56 33 0b bd 3a 61 e7 3d d7 55 c1 3c e2 e7 67 3e
       -0.033984505 0.11297841 0.023600502 0.2264705
000380 92 8b 8f be cb 56 4a bf 58 36 0b bd ff 6f 2b bc
       -0.2803617 -0.79038686 -0.033987373 -0.010463714
000390 e0 87 23 bf be a8 13 be fd 43 4e 3e bf 9f 5d be
       -0.63879204 -0.14419839 0.20143123 -0.2164297
0003a0 aa ec 72 3e ce 00 04 be e7 f6 25 3e 67 b7 1f bd
       0.23723093 -0.12890932 0.16207467 -0.038993265
0003b0 3d 0a ad 3e 3a 75 85 3e 6d b7 98 be 3d f6 0c 3e
       0.33796874 0.26066 -0.29827443 0.13765807
0003c0 33 1d 34 3e 63 a9 23 be f2 64 73 3c 0d 4e 0a be
       0.17589264 -0.15982585 0.01485561 -0.13506337
0003d0 d7 62 83 3e ca 88 d1 be cb 19 1b bd b4 c4 52 bd
       0.25661346 -0.40924674 -0.037866395 -0.051457122
0003e0 31 cb da 3d 1a e8 f3 3c ee 46 8a be 93 40 0a be
       0.10683287 0.02977376 -0.2700724 -0.13501196
0003f0 0b 76 f0 3d df 62 dc bd b9 41 6d 3e ac 14 af be
       0.11741265 -0.10761046 0.23169602 -0.3419546

advantage_fc_hidden1.bias f4 [64]
000000 b9 7b 4f bd bd 37 e5 3c 6d 64 b4 3d 4e 79 75 be
       -0.0506551 0.02798068 0.08808217 -0.23972055
000010 8a a3 59 3e 63 c6 16 3e 1c df 35 3e 8b fb 00 3e
       0.21253791 0.14724116 0.1776089 0.12595956
000020 21 e5 9c bd 0f d7 bd 3d 00 95 08 be bd 7e 5f be
       -0.0766089 0.09269535 -0.13338089 -0.2182569
000030 22 27 43 bc 3b e2 c2 3c ed 5b 37 3d 34 70 c1 bd
       -0.011911185 0.023789516 0.0447654 -0.09445229
000040 c7 05 16 be 02 21 bf 3d 8b 26 da bd e0 8f 45 be
       -0.14650641 0.093324676 -0.10651883 -0.19293165
000050 15 eb 8a 3e ee 47 7b be 04 53 17 be e1 72 b5 bd
       0.27132478 -0.24539158 -0.14777762 -0.08859802
000060 96 48 39 be 04 cd 2f 3e 93 d9 de 3d 3c f0 11 be
       -0.18094096 0.17168051 0.10881343 -0.14251798
000070 87 aa 0a bd c5 62 28 be 3d 44 de bd cf b1 0f 3e
       -0.033854034 -0.16443928 -0.10852859 0.14032672
000080 5b bd 13 be a5 63 a5 bd fd 49 90 bc 9d 18 f8 bd
       -0.14427702 -0.08075646 -0.017613405 -0.121140696
000090 4f 90 5e be cf 6e 67 3d 98 bb d0 3c 90 8b d6 bd
       -0.21734737 0.05650216 0.025480077 -0.10475838
0000a0 58 68 e2 bd 2a 97 44 3d 88 c7 8c 3d 19 b2 7d 3d
       -0.11055058 0.047995724 0.06873995 0.061937425
0000b0 55 82 17 be 64 3b 43 3c 8c 2e 67 be bb 30 04 be
       -0.14795811 0.011916015 -0.2257635 -0.12909214
0000c0 14 75 0a be 4c 36 31 3e bb a5 f6 3d d4 76 a7 3c
       -0.13521224 0.17305869 0.12043329 0.020442404
0000d0 ee 66 d6 3c fb 03 fd bd 5e 49 4e bd 59 44 61 be
       0.026172128 -0.12354275 -0.050362937 -0.21998729
0000e0 01 86 04 be f3 1f 4b bd 9e af 05 be d3 82 2a be
       -0.12941743 -0.049591016 -0.13055274 -0.16651468
0000f0 80 67 40 3e 6a 61 61 be 52 7a c3 bd c5 22 8c bd
       0.18789482 -0.22009817 -0.09544815 -0.06842569

advantage_fc_hidden2.weight f4 [64, 64]
000000 90 f9 23 3e 47 c3 85 3d a0 0d e8 bb 1a 57 16 3d
       0.1601317 0.06531387 -0.0070817024 0.03670416
000010 0a 7c f4 be c6 2a 8a be a8 76 f0 be 10 9c 8c be
       -0.47750884 -0.2698576 -0.46965528 -0.27462816
000020 fc 80 47 3e d2 67 2d 3e 41 c1 5a 3d 43 6d be bd
       0.19482797 0.16934136 0.053406958 -0.09298184
000030 37 38 ae 3e 2a 0a 3a 3e c8 be 82 3e de 07 29 3e
       0.34027264 0.1816794 0.2553618 0.16506907
000040 80 33 0f 3d 4f 35 00 3e ce 99 87 be 95 8b c3 3d
       0.034961224 0.12520336 -0.2648453 0.095481075
000050 d2 ed f5 bc ed a0 f6 be 9f 76 a2 bd 36 6e 7d 3c
       -0.030020628 -0.48169652 -0.079327814 0.015468171
000060 8b ab f7 bd 65 a0 9c bd d3 d3 a4 bd ca 7e 9b be
       -0.12093266 -0.0764778 -0.08048215 -0.3037017
000070 a4 eb 76 be 7e 62 19 be 52 72 7e bd 93 14 92 be
       -0.24113327 -0.14978978 -0.062120743 -0.28531322
000080 fe 81 bd bc 92 d4 b6 3e 83 69 b1 bd f1 66 09 3d
       -0.023133274 0.35709053 -0.08662703 0.03354544
000090 95 b8 cc bd 3a 17 9e 3d 76 ec 3a be 21 d7 42 3e
       -0.09996144 0.07719274 -0.18254265 0.19027378
0000a0 82 6c 13 be 9d 88 7a be 09 15 a6 be 1f 03 a1 be
       -0.14396861 -0.24466176 -0.32437924 -0.31447694
0000b0 82 84 12 be b5 91 14 be 8a 2a ac 3e cc e6 8c 3e
       -0.1430836 -0.14508708 0.33626205 0.27519834
0000c0 ec cc fe bb 2b 96 17 bf 93 a4 5e bd 28 dd c3 be
       -0.0077758934 -0.59213513 -0.05435617 -0.38254666
0000d0 db 95 9b bc 78 2d 3f be 26 65 5c be e7 96 f2 bd
       -0.018992355 -0.18669689 -0.2152296 -0.118451886
0000e0 b5 96 f4 bc 88 09 9e be 8a cb 0c 3d 14 97 d7 bc
       -0.029857019 -0.30866647 0.034373797 -0.026317157
0000f0 ba 7f da be 21 ad 09 3e 12 ba 16 bd c2 6b 9e 3e
       -0.42675573 0.1344495 -0.036798544 0.30941588
000100 05 6f af be 1f 2d 10 bf 7f 65 66 3c fe 05 10 3e
       -0.3426439 -0.5631885 0.0140622845 0.14064786
000110 3b b9 3b bd 47 60 3e be 12 2c cc bd 95 ac 10 be
       -0.045830946 -0.18591414 -0.09969343 -0.14128335
000120 af e1 5b be b6 6b 3d be ab 66 aa be 35 d6 24 bd
       -0.2147281 -0.1849812 -0.33281454 -0.040243346
000130 9f 20 30 3e 65 28 1c 3d 10 49 e7 3e 3e bd 8b be
       0.17199944 0.03812446 0.4517293 -0.27292818
000140 09 d3 42 be 09 64 72 3d ca 2d 13 be 55 77 9b 3e
       -0.19025816 0.059177432 -0.14372936 0.3036448
000150 23 cd 37 3d 3d 72 4e 3e bd 04 9e bd e8 c1 2a bd
       0.044873368 0.20160766 -0.077157475 -0.04168883
000160 ca 08 f0 3d 85 fa 88 3d a8 22 14 bc 1b 0a 7a 3d
       0.117204264 0.06688408 -0.009041466 0.061044794
000170 ec f2 42 bd 78 58 60 3e ee 5b 08 be 09 77 24 be
       -0.04759495 0.21908748 -0.13316318 -0.16061033
000180 d3 af 12 be 6a 48 3f be 57 7b 2a be 63 5a f3 3e
       -0.14324884 -0.18679968 -0.16648613 0.47529897
000190 b0 7d ac 3d 1a e6 bd bd fb 5a ef be 65 79 b0 3e
       0.084224105 -0.09272404 -0.467491 0.34467617
0001a0 ea 9c 04 be 32 5f 9b be 18 92 31 be fc 19 4e bc
       -0.12950483 -0.30346066 -0.17340887 -0.012579437
0001b0 44 fd b2 3c d4 a2 10 3d c1 99 d3 3e 9a db dd 3d
       0.021849282 0.035311535 0.41328242 0.10832901
0001c0 ab a6 f4 bd ae 7b cd bd 85 1d c4 3d 3e b3 38 3d
       -0.11945852 -0.10033356 0.09575943 0.045092814
0001d0 b3 cf 8d 3e 70 2c 93 be db 13 10 be 3a 5b 22 3f
       0.27697524 -0.2874484 -0.14070074 0.6342045
0001e0 73 44 53 bc 2f 7f 92 be 0a 50 95 be 2f 86 91 3e
       -0.0128947375 -0.28612658 -0.29162627 0.28422686
0001f0 ba e7 6e be 8b 8f e4 3d 9d 6a a2 be 56 5f 8b bd
       -0.23330584 0.11160191 -0.31721964 -0.06805293
000200 c9 54 af 3e 80 d2 b1 be e9 8c 05 be 13 d1 2c 3c
       0.34244373 -0.3473091 -0.13042034 0.010547894
000210 ec 8f 0b bd 26 09 1c 3d 5c fc f4 bd 67 60 04 be
       -0.0340728 0.038094662 -0.11962196 -0.129274
000220 28 8c c6 be 7a 6e a9 3d 5d 53 9b 3d 9f 7d 6a 3e
       -0.38778806 0.08273025 0.0758426 0.22899483
000230 53 04 c9 bd 5c 68 02 bf 5f 84 0a be af 8a a0 3d
       -0.09815278 -0.5094049 -0.13527058 0.07838952
000240 9c 1a 9c 3e be 35 c0 3d da 39 1d 3e 37 df 8a 3d
       0.3048905 0.093852505 0.153541 0.06780856
000250 45 7b 75 bd b0 b3 85 bd 06 f6 04 be 79 46 b2 be
       -0.059932012 -0.06528413 -0.12984475 -0.3481939
000260 d1 23 38 3d c3 77 70 bb dd ab 31 3e 32 3e 41 bc
       0.044956032 -0.0036692477 0.17350717 -0.011794614
000270 a8 1a 85 3e 88 5d 9d 3e cf a7 cd be 40 48 dc be
       0.259969 0.3073542 -0.4016709 -0.43023872
000280 37 bc b9 3d 6b 69 ae bd 56 be f0 bd 5e 8b 7d 3e
       0.09069102 -0.08516201 -0.11755054 0.24760196
000290 48 15 c3 bd dc f3 40 3d 76 52 d2 3d ed 72 71 be
       -0.095255435 0.047107562 0.102696344 -0.23578997
0002a0 39 be 89 3e 64 aa 5e bd 9f 51 b5 3d 14 80 00 bd
       0.2690294 -0.054361716 0.088534586 -0.031372145
0002b0 48 74 53 3e 3f 39 45 be c2 49 33 3e 53 a5 8e bd
       0.20649827 -0.19260119 0.17508605 -0.06965127
0002c0 1b b0 2e bd ed 46 06 be 78 3f 92 bc 1d 6b 98 bd
       -0.042648416 -0.13112994 -0.01785253 -0.07442305
0002d0 fc 62 19 be cc f8 54 3d 1e 05 8e 3e af 2d 83 be
       -0.14979166 0.051995084 0.2773828 -0.2562079
0002e0 3d af 94 be ba 5b ee bd f8 9a 65 be ca 5e 7c 3e
       -0.29039946 -0.11638589 -0.22422397 0.24645534
0002f0 07 ff 0d 3e 06 23 54 be 2b 09 9f bd 1d 65 05 be
       0.13866816 -0.20716485 -0.077654205 -0.13026853
000300 02 30 8c bd 35 34 5b bd 4c 03 df 3d bd 46 bf bd
       -0.06845094 -0.053516585 0.10889301 -0.09339664
000310 63 1c 88 bd 15 f4 07 3d 6d c6 c0 be f0 92 8c 3d
       -0.06646039 0.03319176 -0.37651387 0.068639636
000320 de 09 8a 3d 06 c7 14 be 42 20 ea 3d a3 8e c5 3d
       0.06740163 -0.14529046 0.11431934 0.096463464
000330 12 83 99 be db 63 14 be fe d1 9b be 05 8a 94 3d
       -0.2998281 -0.14491217 -0.3043365 0.07252888
000340 ed 1a b7 3c ef 5f 07 be ba 07 39 3e c6 70 06 bd
       0.022351706 -0.1322019 0.18069354 -0.032822393
000350 b2 1f 6a bd 38 82 31 3e 26 15 3d be 52 92 9f be
       -0.057159133 0.17334831 -0.18465099 -0.3116632
000360 b5 97 c3 3e 2d da a3 be a1 4d 1b be 15 14 ef 3c
       0.3820168 -0.32002392 -0.15166332 0.02918438
000370 9e 84 4a be 54 66 58 bd 9c 24 04 bd de b8 31 be
       -0.19777152 -0.052831963 -0.032261476 -0.17355677
000380 c6 45 bb 3c f1 ea e2 bd e8 1e 99 be 5f a0 90 3e
       0.022860419 -0.11079968 -0.29906392 0.28247353
000390 d3 03 80 3e 14 3e 78 be 25 ec 48 be 22 c5 85 bd
       0.25002918 -0.24242431 -0.19621332 -0.06531741
0003a0 94 c2 03 be 80 50 7b 3b 28 c8 e4 3e ca 99 5c be
       -0.12867194 0.0038347542 0.44683957 -0.21543041
0003b0 1f f4 e5 3d 97 97 95 3e e6 1c ff bd 0b dc d7 be
       0.11228203 0.29217216 -0.12456684 -0.42160067
0003c0 62 30 e6 3e b8 4f a4 bd 35 22 8a bd 04 c1 d1 be
       0.44958788 -0.08023018 -0.06744806 -0.40967572
0003d0 d4 7a 3b 3e 9c ab fc 3c c5 c2 40 3e e1 3f 9b bd
       0.18308574 0.030843548 0.18824299 -0.07580543
0003e0 d3 67 a6 bd c0 4f 23 be f9 4d d9 bc f0 79 28 3e
       -0.08125272 -0.15948391 -0.026526438 0.16452765
0003f0 33 ee a7 3e 12 c8 8b bd 3f 10 bd 3e b4 8c 57 3e
       0.3279892 -0.0682527 0.36926457 0.21049768

advantage_fc_hidden2.bias f4 [64]
000000 d3 8d 83 be 70 69 55 be c8 e0 f1 bb 52 7f 6d be
       -0.2569414 -0.20841002 -0.0073815323 -0.231931
000010 8a ec 96 be e6 9c d1 bd e8 b2 e4 bc 4c c3 ff bd
       -0.2947734 -0.10235004 -0.02791734 -0.12488422
000020 b5 2b af 3d 6d e4 89 bd 42 d1 a7 be ce 9d 35 be
       0.08553258 -0.06733022 -0.3277684 -0.17735979
000030 b7 7c 94 be c5 17 cf bd 2b f1 81 bd 81 60 f7 3d
       -0.290014 -0.101119556 -0.06344827 0.120789535
000040 61 d7 38 be e6 d3 19 3e a5 88 4d be c8 a5 4d 3e
       -0.1805091 0.15022239 -0.20071657 0.20082772
000050 5e 77 2a 3d 02 3b 7e be a0 50 6a bb 07 5d bc 3d
       0.041617744 -0.24827197 -0.0035753623 0.09197431
000060 8a 95 e4 bd 0b e2 91 bd f0 be a8 bd a8 73 75 be
       -0.11161335 -0.071231924 -0.082395434 -0.239699
000070 5b 5a 6e bc 3e c4 1a be d1 f7 5a be d5 92 20 be
       -0.01454791 -0.15113923 -0.21383597 -0.15681012
000080 d8 24 f1 3d 5f ff 5e be a1 e0 03 be 6c db 68 be
       0.117746055 -0.21777104 -0.12878658 -0.22739953
000090 f8 28 21 be 70 d7 02 be fe 5f 3a be f6 98 6b be
       -0.15738285 -0.12777495 -0.1820068 -0.23007569
0000a0 7f 5c 08 be 40 9e 85 3d f5 ab 8c bd 49 ae 03 be
       -0.13316534 0.065243244 -0.06868736 -0.12859453
0000b0 80 10 0b be 2f 43 7a bc 04 74 0a be 32 58 10 be
       -0.13580513 -0.015274807 -0.13520819 -0.14096144
0000c0 f4 97 9d be 53 c1 6e be 77 67 14 be d3 3c df 3d
       -0.30779994 -0.23315935 -0.14492594 0.10900273
0000d0 e2 80 01 be 36 35 f2 3c 21 c7 1d be 1c 0d 5f 3d
       -0.12646821 0.029566389 -0.15407993 0.05445586
0000e0 63 80 86 bb 03 27 22 be 50 4b 30 be a5 38 ee bd
       -0.0041046604 -0.15835194 -0.1721623 -0.11631898
0000f0 3f d0 b4 bc 39 0b a7 be 78 77 43 bd 9b 3f c6 bd
       -0.022071956 -0.3262575 -0.047721356 -0.096801005

advantage_fc.weight f4 [4, 64]
000000 6a ce 54 3f 13 0d 8d be 46 d0 b0 3c ee d6 53 be
       0.8312746 -0.27549037 0.021583688 -0.20687458
000010 92 9e 0f 3e e8 79 53 be 09 a2 47 3e 95 bd 26 be
       0.14025334 -0.20651972 0.19495405 -0.16283257
000020 58 75 a9 bd 28 6d 6c be 51 65 3c 3d ae c8 11 3f
       -0.08274335 -0.23088515 0.04599506 0.5694684
000030 0d 8b 50 3c 57 fe ee bd 95 71 91 3c 09 18 8f 3d
       0.012728465 -0.11669605 0.017754355 0.06987006
000040 a9 6b e5 3c 65 03 50 bc 09 ac 6e 3f 3b 66 cd 3b
       0.028005438 -0.012696122 0.93231255 0.0062682903
000050 1b a1 68 be 80 62 de 3d d8 30 b5 bc 97 3b e8 3c
       -0.22717707 0.10858631 -0.022118017 0.028348727
000060 da b9 a6 bd 26 33 31 bf c2 89 18 3f 26 01 8e bc
       -0.08140917 -0.6921867 0.595852 -0.017334532
000070 63 3a 69 be ce a7 69 bf 9e c4 be be 24 1f ae 3d
       -0.22776179 -0.91271675 -0.37259382 0.08502033
000080 7f 52 96 3d f4 c3 40 3e 75 c8 d2 3d 4e 39 9b 3e
       0.07339954 0.1882475 0.102921404 0.30317158
000090 c8 57 0a 3d d1 6d 64 bc d5 aa f1 3e 0f ab 01 bf
       0.03377512 -0.013942198 0.47200647 -0.5065164
0000a0 6a 7e 9f 3e c1 b0 b1 3d 57 6b 2f be ad a6 13 3e
       0.31151134 0.08676291 -0.1713079 0.1441905
0000b0 af 7c ae be 6c 8e 3b 3a 8e b5 ed 3e 45 a2 e7 be
       -0.340795 0.00071547064 0.46427578 -0.4524099
0000c0 29 31 60 3f 42 fc cc 3d 0e ce 87 3c 3f ea 55 be
       0.8757501 0.10009052 0.016577747 -0.20890139
0000d0 79 82 9d bd f3 d6 49 be 42 85 2c bf 47 d7 73 3c
       -0.07690901 -0.19710903 -0.67390835 0.014882869
0000e0 8a 39 01 be a9 8b 80 3e b4 43 74 be 60 83 1e be
       -0.12619606 0.25106552 -0.23853952 -0.15479803
0000f0 f1 f8 f8 3c 98 86 ab 3d 49 53 22 3b e3 81 3b be
       0.030392142 0.08375281 0.002476888 -0.18311267
000100 02 6e e7 3d 31 6f 9e be 45 63 39 3e d8 9f ec 3b
       0.11300279 -0.30944207 0.18104275 0.0072212033
000110 17 05 5a bd d9 5c d5 bd 26 5b 6c 3e f6 30 4d be
       -0.05322751 -0.104181 0.23081645 -0.20038208
000120 6d 6d 5c bd 99 0a cf 3e 46 b5 84 3e 42 58 00 be
       -0.053815294 0.40437773 0.2591955 -0.12533668
000130 c9 27 99 3e 77 91 1e 3f d5 c5 00 3d 71 e2 8a bd
       0.29913166 0.6194071 0.031438667 -0.067814715
000140 6e 41 06 3e b4 b9 2b 3d 53 89 52 bf 34 b7 94 bd
       0.13110897 0.041925147 -0.8224079 -0.07261506
000150 26 c6 c3 bd 00 8d 92 3e 93 6d 15 3e 12 1f 29 bd
       -0.09559278 0.286232 0.1459258 -0.041289397
000160 8a 33 a6 3d 33 f8 b5 3e d4 d5 75 3e c5 fc 3a bf
       0.08115299 0.35540923 0.2400735 -0.73041946
000170 ad d2 05 bd 1b b1 4f 3f 5b cc 4b bf 7c ec 16 be
       -0.03267162 0.81129616 -0.79608697 -0.14738649
000180 27 3d 8d bd ab 7d b9 3e 8c f6 73 3e b0 d0 d6 be
       -0.068964295 0.3622869 0.23824519 -0.4195609
000190 f6 15 81 3f 8d 88 0b 3f 2c 31 e7 be b5 1e 8b 3e
       1.0084827 0.54505235 -0.45154703 0.27171865
0001a0 66 1c 2c bd 80 9f de bd 58 8c 50 3e ed ad 42 3e
       -0.04201927 -0.10870266 0.20366037 0.1901166
0001b0 c0 f9 0c 3f 67 14 49 3d 2e 66 70 3c b5 0d 5b 3d
       0.5506859 0.049091723 0.014672799 0.05347987
0001c0 2b ed 06 3f 71 b5 aa 3e 57 59 fb bd d5 ab 67 3d
       0.5270564 0.33341554 -0.122728996 0.056560356
0001d0 7d b3 15 3e b0 23 f0 3d c2 3e a1 3d 5a 76 e7 3d
       0.1461925 0.11725557 0.07873298 0.11301871
0001e0 70 85 8b be 3e 58 ed bd 16 d6 d9 be da 70 9d be
       -0.27250242 -0.115890965 -0.42546147 -0.3075016
0001f0 a9 cf 35 3d cf 0b bf 3e 39 fe e1 bc f4 d8 da bc
       0.044387493 0.37313697 -0.027587043 -0.02671478
000200 8d 0d 42 bf 80 51 28 be fa b0 1c 3e e8 82 06 bf
       -0.75801927 -0.1643734 0.15301886 -0.525435
000210 a4 2c 10 be ef cf 4d be ba 3a 08 3d cf 40 1d 3f
       -0.14079529 -0.20098852 0.03325913 0.61427015
000220 e5 22 22 3d d6 b1 b5 bc 34 ac 41 be 3c ee 29 3e
       0.03958406 -0.022179525 -0.18913347 0.16594785
000230 e7 ad db bd 96 6b bb 3e dc 0f 05 3e ac c9 28 3e
       -0.107265286 0.3660552 0.12994331 0.16483182
000240 24 81 1d 3e 63 e6 3d be 58 cf b5 be a7 9b 93 3c
       0.15381294 -0.18544917 -0.35509753 0.018018557
000250 2d 33 1b 3d 11 f3 fe be 44 77 6c be 35 e0 94 3d
       0.037890602 -0.4979482 -0.23092371 0.072693266
000260 c6 5f 43 3f 1e 80 40 bf 36 29 c4 be f4 81 2d 3e
       0.76318014 -0.7519549 -0.3831269 0.16944104
000270 f0 85 a4 3d 74 ee ba 3e 41 05 87 be 5c ba 10 3e
       0.08033359 0.3651005 -0.26371196 0.1413359
000280 eb ba fb 3c 6e e9 bf bd 7e ca 92 3e 31 97 7a 3e
       0.030728778 -0.09370695 0.28670114 0.24471737
000290 cf 11 c3 3b 38 35 c9 be 79 e5 c5 be ba 40 83 be
       0.0059530507 -0.39298415 -0.38651636 -0.2563532
0002a0 af a3 b5 bd 86 5d 56 bd b4 2f c6 3c a9 bc 5e be
       -0.08869111 -0.052335285 0.024192668 -0.21751656
0002b0 a8 23 3a bf bb ec 30 be ec c1 3e bf e4 2f e5 3e
       -0.7271066 -0.17277806 -0.7451465 0.447631
0002c0 fd 76 61 bf bd 03 22 be a3 b0 15 be c0 19 a1 3d
       -0.88072187 -0.15821739 -0.14618163 0.078662395
0002d0 63 2f d9 bd 04 22 46 be af a8 2d bf 5d 19 a0 3d
       -0.106047414 -0.19348913 -0.67835516 0.07817338
0002e0 91 f9 05 bd e8 fc 37 3f 06 46 b9 3e e6 5c 86 3e
       -0.03270871 0.7187028 0.36186236 0.2624275
0002f0 4e 67 ae 3d 55 a7 13 3f 4e 6f e8 3d d8 12 ba bd
       0.085157976 0.57677203 0.11349355 -0.090856254
000300 5c 7a c1 3e 69 85 be 3e 09 63 47 be 1d 15 96 3e
       0.37788665 0.3721116 -0.19471373 0.29312983
000310 66 e9 03 3e 29 25 04 3f fa 62 9c be 6a b1 ba be
       0.12882003 0.516192 -0.30544263 -0.3646348
000320 82 dd cf 3a e6 ee 8f bd 56 51 20 be 7c eb 75 be
       0.0015858861 -0.07027988 -0.15656027 -0.24015611
000330 b4 8b a3 be 68 79 60 bf 6b 48 95 be b6 c8 48 3d
       -0.31942523 -0.8768525 -0.29156813 0.049019538
000340 38 06 9e bd 4f 97 1a 3e 52 59 a5 3e 0a 88 d2 3d
       -0.0771603 0.15096782 0.32294708 0.10279854
000350 2b 97 a2 3d 5e bd 5f 3c 57 0f 9a 3e cf d8 ca bd
       0.07938989 0.0136559885 0.30089828 -0.09904634
000360 6a a5 c1 be 5d 14 60 3f a7 92 99 3d 58 f8 06 3f
       -0.37821513 0.8753107 0.07498675 0.5272269
000370 67 b1 f4 3c 0a da 21 bf fa 63 4b 3f e9 36 ff bd
       0.029869748 -0.63223326 0.7944943 -0.12461645
000380 53 72 9d bd 43 36 24 bf c3 82 b7 be e4 18 2e 3e
       -0.07687821 -0.64145297 -0.3584195 0.17001683
000390 73 4e 89 bf ba 07 96 be ef de 39 3e 84 7e 0c 3f
       -1.0727066 -0.2930277 0.18151449 0.5488055
0003a0 2d 21 d5 3c 75 76 c2 bd 84 b1 a7 3d 8c b6 9a 3d
       0.026016796 -0.0949525 0.08188155 0.07554349
0003b0 2a fd f9 3e 3f 69 81 3d c5 a3 a2 3c 32 d4 71 be
       0.4882596 0.06318902 0.019853482 -0.23616102
0003c0 e2 f6 53 bf 0e a5 97 be 05 ad b3 3e d7 ab 2d be
       -0.8279859 -0.29618114 0.3509294 -0.16960083
0003d0 ba a2 a7 3d 20 99 31 be c9 05 0a 3f be 7b 95 bd
       0.081853345 -0.17343569 0.5391508 -0.072989926
0003e0 7e 6f 6b 3e cb bc 54 bf 1d c2 42 3f e4 d6 1f 3e
       0.2299175 -0.83100575 0.76077443 0.15609318
0003f0 d0 94 f2 bd 13 f6 51 bf 82 c6 5d be 7a d2 e5 3d
       -0.1184479 -0.82016104 -0.21657756 0.11221786

advantage_fc.bias f4 [4]
000000 b2 e2 5e bd 6a ad 3a 3d 4e b9 17 bd 40 c5 2c bd
       -0.054415412 0.045575537 -0.037041955 -0.0421803
