model_v3.pt (torch, 30639 bytes, 7 tensors)

hidden_fc1.weight f4 [64, 37]
0	0x3d868158	0.06567639
1	0x3dc73198	0.09726256
2	0x3d895f06	0.067075774
3	0x3d51f08b	0.05125479
4	0x3e199043	0.14996438
5	0x3c59e166	0.013298368
6	0x3e23ed64	0.16008526
7	0x3e28e676	0.16494164
8	0x3e8aa691	0.27080205
9	0x3e753ecf	0.23949741
10	0x3f0dc5bf	0.5537986
11	0xbf1c8b5a	-0.61150134
12	0xbf0cb097	-0.54956955
13	0xbf3abe5f	-0.72946733
14	0xc02525ed	-2.5804398
15	0xbcdd4210	-0.02700904
16	0x3dbfab6b	0.09358867
17	0x3c52d353	0.012867766
18	0x3ca77990	0.020443708
19	0xbc4edc32	-0.012625741
20	0xbe175cac	-0.14781445
21	0x3b85164c	0.004061496
22	0xbdfe975e	-0.12431215
23	0xbe44ef70	-0.19231963
24	0xbe0982c1	-0.13428785
25	0xbe049e91	-0.12951113
26	0xbd16a33a	-0.03677676
27	0x3deadd6d	0.11468015
28	0x3ded13cf	0.11576044
29	0x3d9987ec	0.07496628
30	0xbd574976	-0.052560292
31	0x3d9e1c4b	0.0772024
32	0xbd09bbf7	-0.033626523
33	0x3e3b3480	0.18281746
34	0x3dd46576	0.10370915
35	0xbc51a09b	-0.012794639
36	0x3b9ed5ee	0.0048472797
37	0x3e777d27	0.24168836
38	0xbe5511b1	-0.2080753
39	0xbeab700c	-0.33483922
40	0xbe1bd433	-0.15217666
41	0xbf8aa8c1	-1.083275
42	0xbe8cfb40	-0.2753544
43	0x3d8c338e	0.06845771
44	0x3df7790e	0.12083636
45	0xbe128e08	-0.14311993
46	0xbe357e4e	-0.17723963
47	0x3e843ff3	0.2583004
48	0xbe19a93e	-0.15005967
49	0x3d28b933	0.041192245
50	0x3c3b52d1	0.011433319
51	0x3d837c1d	0.06420157
52	0x3dab32c8	0.08359295
53	0x3d00bb1b	0.031428438
54	0xbd00aec9	-0.031416688
55	0x3e747c29	0.23875488
56	0x3e7b82d1	0.24561621
57	0x3e074e88	0.13213551
58	0x3ce66add	0.028127128
59	0x3d86eb9a	0.06587906
60	0xbc985d0e	-0.01859906
61	0xbea14705	-0.31499496
62	0xbdffcac1	-0.12489844
63	0x3e243a2b	0.16037814
64	0x3dbd5bf9	0.09246058
65	0x3e983420	0.29727268
66	0x3bf04860	0.0073328465
67	0xbd7f0875	-0.062263925
68	0xbd3377df	-0.04381549
69	0x3e2b1968	0.1670891
70	0x3d1edc16	0.03878411
71	0x3ec81c7a	0.39084226
72	0xbd578bcc	-0.052623555
73	0xbc98e556	-0.018664043
74	0xbd2c7904	-0.042107597
75	0xbbf6f788	-0.0075368322
76	0x3c8c22a4	0.017106362
77	0x3e16c987	0.14725314
78	0xbd3a79ad	-0.045526195
79	0x3eca9ae0	0.39571285
80	0xbeb74ba5	-0.357999
81	0xbf12738c	-0.5720756
82	0xbec91bf8	-0.3927915
83	0xbfd7626a	-1.6826909
84	0x3bacd907	0.005274895
85	0x3dacff5c	0.084471434
86	0x3d952845	0.072830714
87	0xbd26b27f	-0.04069757
88	0xbd3695dd	-0.044576515
89	0xbe03a209	-0.1285478
90	0xbd8f2fb7	-0.06991523
91	0xbd654b77	-0.055980172
92	0x3bd180b6	0.0063935174
93	0x3d2aacb5	0.041668613
94	0xbd1b174c	-0.037864015
95	0xbba61005	-0.0050678276
96	0x3d1d0888	0.038338214
97	0x3e1d8921	0.15384342
98	0xbd205a97	-0.039148893
99	0xbe110ae0	-0.14164305
100	0xbda0ab89	-0.07845218
101	0xbde14948	-0.110003054
102	0x3df0645a	0.117378905
103	0x3e8cc727	0.2749569
104	0xbe130b30	-0.14359736
105	0xbe2eb50d	-0.17061253
106	0x3d833e0a	0.064083174
107	0x3e401b9c	0.18760532
108	0x3ead7e9f	0.33885667
109	0xbc3cffe2	-0.011535617
110	0x3b588283	0.0033036775
111	0x3dd3f57e	0.10349558
112	0x3e4fda11	0.2029803
113	0x3e20d0c0	0.15704632
114	0x3e317c3b	0.17332546
115	0x3d8c55fe	0.06852339
116	0x3e9dcf1f	0.30822083
117	0x3e3c3b6c	0.18382043
118	0x3dd64bb1	0.10463656
119	0xbd424802	-0.047431953
120	0xbed84365	-0.42238918
121	0x3e6cd64d	0.23128624
122	0x3e7d431b	0.2473263
123	0x3e8e403c	0.27783382
124	0x3e4210c5	0.1895171
125	0xbdc63026	-0.09677152
126	0x3eb70d60	0.35752392
127	0x3e1faec2	0.15594009
128	0x3db08025	0.08618192
129	0x3d35f52f	0.04442328
130	0xbe2a06a5	-0.16604097
131	0x3e784c4d	0.24247856
132	0x3e21e946	0.15811643
133	0x3e837fe4	0.2568351
134	0x3e965020	0.29358006
135	0x3e42ca0a	0.19022384
136	0x3e157ff3	0.1459959
137	0x3d399adc	0.0453137
138	0x3db621e3	0.08893182
139	0xbc035d22	-0.00801781
140	0xbd888245	-0.06665472
141	0x3ec103cc	0.3769821
142	0x3e24a4c0	0.16078472
143	0x3dc334ee	0.0953158
144	0xbd3e3047	-0.04643276
145	0xbf01381d	-0.5047625
146	0xbcbb3390	-0.022851735
147	0x3ce13edb	0.027495792
148	0x3d55e6ff	0.05222225
149	0xbe4c4a95	-0.19950326
150	0x3db62603	0.08893969
151	0xbe042574	-0.12904912
152	0xbf213180	-0.62966156
153	0xbe4ed7a2	-0.20199445
154	0xbee186ad	-0.44048062
155	0x3e77f3ba	0.24214068
156	0x3e2c2885	0.16812332
157	0xbe357d2b	-0.17723529
158	0x3e215aee	0.15757343
159	0xbe26ac99	-0.16276778
160	0x3d47df5a	0.04879699
161	0x3ddc9557	0.10770672
162	0x3cf0a770	0.029376715
163	0xbe46d620	-0.1941762
164	0xbedbce3d	-0.42930785
165	0xbcf17224	-0.029473372
166	0xbe249394	-0.16071922
167	0x3df2c88c	0.118546575
168	0xbe86551f	-0.26236817
169	0x3e258ce2	0.16167024
170	0xbe0ca8eb	-0.13736312
171	0x3ee7591a	0.45185167
172	0x3db055e2	0.08610131
173	0xbe789bb9	-0.24278153
174	0xbd6a5179	-0.057206605
175	0x3e780b53	0.2422307
176	0x3c651bdf	0.013983696
177	0x3ea482f6	0.32131165
178	0xbe973cb0	-0.29538488
179	0xbdbedf30	-0.093199134
180	0xbd6b29c1	-0.057412867
181	0x3dc06dcd	0.09395943
182	0x3d0a734d	0.033801366
183	0x3d236dab	0.03989951
184	0x3bec9afa	0.007220623
185	0xbc95060e	-0.018191364
186	0x3c9e9f43	0.019363051
187	0xbdb722d2	-0.08942188
188	0x3dee708c	0.1164256
189	0x3e8a1875	0.26971784
190	0xbe368658	-0.17824686
191	0x3d41ff18	0.047362417
192	0xbb6d1065	-0.0036173102
193	0x3e318907	0.17337428
194	0x3df5bcff	0.11998939
195	0xbd56f19c	-0.05247651
196	0xbdc7dbe1	-0.097587354
197	0xbd67e1e8	-0.056611925
198	0xbe49ff82	-0.19726375
199	0x3e017f08	0.12646115
200	0x3ea729c4	0.32649052
201	0xbf184f64	-0.5949614
202	0xbdb0082c	-0.08595309
203	0xbf3d64a1	-0.7398167
204	0xbfe66ef3	-1.8002609
205	0x3b852f25	0.004064458
206	0x3d13bf95	0.03607138
207	0xbd51c9e4	-0.05121793
208	0xbdcb0ed0	-0.09914935
209	0xbe3602ce	-0.17774507
210	0xbe557a2f	-0.2084739
211	0xbdfeb1eb	-0.12436279
212	0x3df1256c	0.11774716
213	0x3dbd7e64	0.09252623
214	0x3e69a5d1	0.2281716
215	0xbc9e724b	-0.019341609
216	0x3e1e09f9	0.15433492
217	0x3e4fa15d	0.20276399
218	0xbcbecb7b	-0.023290386
219	0xbdf05338	-0.11734623
220	0x3dbc3998	0.09190673
221	0x3c090485	0.008362894
222	0xbdbae591	-0.091258176
223	0x3e5c570c	0.21517581
224	0x3da15fdf	0.07879614
225	0x3e197050	0.1498425
226	0xbd77bab9	-0.060480807
227	0xbe366215	-0.17810853
228	0x3d555429	0.052082215
229	0x3e00e0dc	0.12585777
230	0xbe3a43f8	-0.1818999
231	0xbf55768d	-0.8338402
232	0x3e314adb	0.17313711
233	0x3e0a1f75	0.13488562
234	0x3d9522ff	0.072820656
235	0xbd086015	-0.033294756
236	0xbda82aed	-0.082113124
237	0xbe98960d	-0.2980198
238	0x3e186772	0.14883211
239	0x3e486fe7	0.19573937
240	0xbe623083	-0.22088818
241	0xbdd67e72	-0.10473336
242	0x3ddfbe80	0.10925007
243	0x3e0e82f2	0.13917139
244	0x3ddd246b	0.10797962
245	0x3d81dfd3	0.06341519
246	0x3e1a0a4e	0.15042993
247	0x3e1068d5	0.1410249
248	0xbe074de4	-0.13213307
249	0xbd8cb95a	-0.068712905
250	0x3de46522	0.11152102
251	0x3e1b205e	0.15149066
252	0xbf1f269d	-0.62168294
253	0x3c9a8946	0.018864285
254	0x3ebcf9de	0.36909384
255	0xbf03f705	-0.51548797

hidden_fc1.bias f4 [64]
0	0xbdb08a24	-0.08620098
1	0xbe16e3fd	-0.14735408
2	0x3da9d142	0.08291866
3	0x3eba9bb2	0.3644691
4	0xbe9a3030	-0.3011489
5	0x3e0d5e4b	0.13805501
6	0xbda2d4f7	-0.07950776
7	0xbd170211	-0.036867205
8	0xbe022360	-0.12708807
9	0xbe41ba6a	-0.18918768
10	0xbc2103e5	-0.009827589
11	0x3e0da089	0.1383077
12	0xbe78416c	-0.24243706
13	0x3e428bed	0.1899869
14	0xbe9a9c3d	-0.30197325
15	0xba30f08e	-0.00067497126
16	0xbd29b885	-0.041435737
17	0x3e4815e7	0.19539605
18	0xbd1a3e83	-0.037657272
19	0xbd5689a9	-0.052377377
20	0xbd7ce669	-0.061743174
21	0xbdeba4d1	-0.115060456
22	0xbe26304c	-0.16229361
23	0xbe9a3a6a	-0.3012269
24	0xbdc9c414	-0.09851852
25	0x3df61e15	0.120174564
26	0xbcd635b1	-0.026148649
27	0x3d792314	0.06082447
28	0xbe361afb	-0.1778373
29	0x3b0e44f1	0.0021708573
30	0xbdd363e1	-0.10321785
31	0x3d6819d3	0.056665253
32	0xbdd892d0	-0.10574877
33	0x3e01c35d	0.12672181
34	0xbc4ed091	-0.012622968
35	0x3d91720b	0.0710183
36	0xbe144f36	-0.14483342
37	0x3d4d7e0c	0.050169036
38	0x3d039cdb	0.03213201
39	0x3a84eb50	0.0010140929
40	0x3c100378	0.0087898895
41	0x3d4fc5f6	0.0507259
42	0x3e7b38e9	0.24533428
43	0xbe253307	-0.16132747
44	0x3b5ea692	0.0033973795
45	0xbc301cec	-0.010749083
46	0xbce9f8f7	-0.028561099
47	0xbdefa1c6	-0.11700778
48	0xbdc15500	-0.094400406
49	0xbdb7832e	-0.089605674
50	0xbcf3983b	-0.029735675
51	0x3d89d4f5	0.067300715
52	0x3e3e7a2d	0.18601294
53	0xbeb0d52d	-0.3453764
54	0xbec80cbd	-0.3907222
55	0xbe079cb2	-0.13243368
56	0x3db0d804	0.08634952
57	0x3e7b3d77	0.24535166
58	0x3de49557	0.11161297
59	0x3d1e76bb	0.03868745
60	0x3de19868	0.11015397
61	0xbe54b930	-0.20773768
62	0x3e458840	0.19290257
63	0x3d147c2b	0.03625123

hidden_fc2.weight f4 [64, 64]
0	0xbf1a22dd	-0.6020945
1	0x3ada0868	0.0016634585
2	0xbea57e88	-0.32323098
3	0xbdaa21a3	-0.08307197
4	0xbd823118	-0.0635702
5	0x3d277699	0.040884588
6	0x3e54389c	0.2072472
7	0x3dbda19d	0.09259341
8	0xbdebf792	-0.1152183
9	0x3daa633e	0.0831971
10	0xbe86d2f7	-0.26332828
11	0xbc0070bf	-0.007839381
12	0xbdd87df6	-0.105709
13	0x3d82079b	0.06349107
14	0x3d43700d	0.04771428
15	0xbe6101de	-0.21973369
16	0x3dab948b	0.08377942
17	0xbd85ef70	-0.0653981
18	0xbf03ae6a	-0.5143801
19	0xbe8805b5	-0.26566854
20	0xbdf4da8d	-0.11955748
21	0xbe8f70d0	-0.28015757
22	0xbd825100	-0.06363106
23	0xbea93e8c	-0.33055532
24	0xbdd6ce36	-0.1048855
25	0xbed79f52	-0.4211374
26	0xbd10f348	-0.03538826
27	0xbe6f7b15	-0.23386796
28	0xbe8c6f77	-0.2742879
29	0x3ddfd4a6	0.10929231
30	0xbe64a411	-0.22328211
31	0x3d48de70	0.049040258
32	0x3f0319f6	0.5121149
33	0x3cdb6f72	0.02678654
34	0x3e28bb7f	0.16477774
35	0x3b6910b1	0.0035562927
36	0x3e032217	0.12805973
37	0x3af87cfb	0.0018958146
38	0xbdb275c4	-0.08713868
39	0x3e827198	0.2547729
40	0x3dcef740	0.10105753
41	0xbda4ddfe	-0.08050154
42	0xbd5b4a64	-0.05353774
43	0xbe745f8c	-0.23864573
44	0xbe3054ca	-0.17219844
45	0xbe5bd631	-0.21468426
46	0xbebc8fe5	-0.36828533
47	0xbe511596	-0.2041839
48	0x3dec4207	0.11536031
49	0xbc746b23	-0.0149181215
50	0xbd88840f	-0.06665813
51	0x3ba569aa	0.0050479965
52	0xbd4fc976	-0.050729237
53	0xbe7649fb	-0.24051659
54	0xbeac9458	-0.33706927
55	0xbe69fb9e	-0.2284989
56	0xbd806859	-0.06269903
57	0x3c5a08e3	0.013307783
58	0xbf1caaeb	-0.611983
59	0x3f447ada	0.76749957
60	0xbd8787c2	-0.066176906
61	0xbe48f68e	-0.19625303
62	0xbd2c0735	-0.04199906
63	0xbcf20914	-0.029545344
64	0x3e24783b	0.1606149
65	0x3de3f0c3	0.11129906
66	0xbb0a41eb	-0.002109642
67	0xbe0120ef	-0.1261022
68	0xbf06fba1	-0.52727705
69	0xbd3fcb15	-0.046824533
70	0xbe2fcfa4	-0.17169052
71	0xbf4c688b	-0.7984702
72	0x3f1280b2	0.57227623
73	0xbdba26d8	-0.0908944
74	0xbf1d4d7f	-0.61446375
75	0x3e274412	0.1633456
76	0x3ecec372	0.40383488
77	0xbd389361	-0.045062426
78	0xbe2abb68	-0.16673052
79	0x3e60ec1b	0.21965067
80	0xbeb5455a	-0.35404474
81	0xbf1dd115	-0.6164716
82	0x3dd4941a	0.10379811
83	0x3e49ae5a	0.19695416
84	0x3e75ab69	0.23991169
85	0x3ed4e904	0.41584027
86	0xbebabc49	-0.36471775
87	0xbd05bfe8	-0.03265372
88	0xbe87bdb4	-0.2651192
89	0x3dcc1abd	0.099660374
90	0x3dd8f950	0.105944276
91	0xbde06708	-0.10957152
92	0xbed96ca1	-0.4246569
93	0xbe554578	-0.20827281
94	0x3e5100d5	0.20410474
95	0xbe14c503	-0.14528279
96	0x3e43effe	0.19134519
97	0xbe12ab10	-0.14323068
98	0xbf1467ad	-0.57970697
99	0x3ebd69bc	0.3699473
100	0xbe2261f3	-0.15857677
101	0x3eb84a2f	0.35994098
102	0xbeed61ff	-0.46363828
103	0x3f1159ab	0.5677745
104	0xbe01f636	-0.12691578
105	0x3cedfe99	0.029052066
106	0xbd5a93d6	-0.053363644
107	0x3d7fb3b7	0.06242725
108	0xbee16adc	-0.4402684
109	0x3ebc2c9c	0.36752784
110	0xbe4d2611	-0.20034052
111	0xbdd0aa48	-0.101887286
112	0xbdf18124	-0.1179221
113	0xbe825f43	-0.25463304
114	0x3ec2b6a0	0.38029957
115	0x3db7becd	0.08971939
116	0x3dbeb66b	0.09312137
117	0xbe2aa3ba	-0.16664019
118	0xbe99325a	-0.29921228
119	0xbe0d8e8d	-0.1382391
120	0xbf2eb6b3	-0.68247527
121	0xbd05f6c0	-0.032706022
122	0xbe41a38f	-0.18910049
123	0xbec22bb5	-0.3792397
124	0x3dc6b53b	0.09702536
125	0xbe2e8df7	-0.17046343
126	0x3e2a9199	0.16657104
127	0x3d4f44f4	0.05060287
128	0xbf9f5a5b	-1.2449449
129	0x3ee639f8	0.44966102
130	0xbe10a418	-0.14125097
131	0x3dab257d	0.0835676
132	0xbe2661bb	-0.16248219
133	0x3da33c45	0.0797048
134	0xbee13580	-0.4398613
135	0xbdd9e0f0	-0.106386065
136	0x3da94762	0.08265568
137	0xbdb66c2c	-0.08907351
138	0x3e84bfad	0.25927487
139	0x3e6339a5	0.22189958
140	0xbd57eac7	-0.052714135
141	0xbdd770e4	-0.10519579
142	0x3efea362	0.49734026
143	0xbe02b0c9	-0.1276275
144	0x3e5d40b4	0.21606714
145	0x3b2ae000	0.0026073456
146	0x3bc18d9a	0.005906773
147	0xbe495081	-0.19659616
148	0xbeafe7b5	-0.34356466
149	0xbd90435f	-0.070441
150	0xbd0feda2	-0.035138734
151	0x3d02ca4c	0.031931207
152	0xbed57d96	-0.41697377
153	0x3e3eab90	0.18620133
154	0xbe004760	-0.12527227
155	0x3e356cf7	0.17717348
156	0x3d17c886	0.03705647
157	0x3e82729b	0.25478062
158	0xbef4eb7e	-0.47835916
159	0x3dc9c124	0.09851292
160	0xbf2bc86a	-0.6710268
161	0x3e9c0c26	0.3047802
162	0xbefa1ff6	-0.4885251
163	0xbd5aecb3	-0.05344839
164	0xbda5a4ed	-0.08088098
165	0xbf49a0c7	-0.7876095
166	0xbe19bc7e	-0.1501331
167	0x3e861832	0.26190335
168	0x3e87bbb2	0.26510388
169	0xbe4ef8a7	-0.20212041
170	0xbe241642	-0.16024116
171	0xbd7e3c40	-0.062069178
172	0x3e025fa7	0.12731801
173	0xbf035a4d	-0.51309663
174	0x3c56e7c5	0.013116782
175	0x3c45446f	0.012040242
176	0xbe9d233a	-0.30690938
177	0x3dfdd17d	0.12393472
178	0xbec2f387	-0.38076422
179	0xbe3136f1	-0.17306115
180	0xbcd5fddc	-0.026122026
181	0xbea09f8a	-0.3137172
182	0xbbba8900	-0.005692601
183	0xbe2c21bb	-0.16809742
184	0xbeb58f78	-0.3546102
185	0xbeb29329	-0.348779
186	0xbd675ff0	-0.056487978
187	0x3c1ce80b	0.009576808
188	0x3e72e0d8	0.23718584
189	0xbd00e912	-0.031472273
190	0x3cd57200	0.026055336
191	0xbe736ee7	-0.23772775
192	0xbf0ef753	-0.55846137
193	0xbe8304f2	-0.2558971
194	0xbf0ee806	-0.5582279
195	0xbd755b4e	-0.059901528
196	0xbe96fd17	-0.29489967
197	0x3d6af5f0	0.05736345
198	0x3db0d9a1	0.086352594
199	0xbcd4c36a	-0.025972087
200	0xbe8cfdca	-0.27537376
201	0xbcc27f37	-0.023742301
202	0xbefb7a4e	-0.4911675
203	0xbe23814b	-0.1596729
204	0xbbfaf5a2	-0.0076586762
205	0xbd4173f3	-0.04722972
206	0xbe482d1d	-0.1954846
207	0xbca82d61	-0.02052945
208	0xbeb5a6d6	-0.35478848
209	0x3f3441c7	0.7041287
210	0xbd714c17	-0.058910456
211	0xbe916419	-0.2839668
212	0xbd0eb0ec	-0.034836695
213	0xbe783772	-0.242399
214	0x3d308042	0.043091066
215	0x3e19006f	0.14941572
216	0xbe2a2fd8	-0.16619813
217	0xbee1380c	-0.43988073
218	0x3d0b3a25	0.033990998
219	0xbe7a3ef5	-0.24438079
220	0xbd94fac4	-0.07274392
221	0xbdb1dbf7	-0.08684533
222	0xbd3d7ed1	-0.04626352
223	0xbdd8119f	-0.10550236
224	0xbed7180f	-0.42010543
225	0xbe04974a	-0.12948337
226	0x3d1c45cc	0.0381525
227	0xbd2b2fb7	-0.04179355
228	0x3dc5b6ae	0.09653984
229	0xbe1fa230	-0.15589213
230	0xbe400efa	-0.18755713
231	0x3cb32a20	0.021870673
232	0xbd36fc81	-0.0446744
233	0xbd831228	-0.063999474
234	0xbbb13f10	-0.005409129
235	0xbb77be3e	-0.0037802602
236	0xbb1cb795	-0.0023913134
237	0x3dcfd59f	0.10148167
238	0x3e98211e	0.29712766
239	0x3ca9d8f7	0.02073334
240	0xbe10e8e7	-0.14151345
241	0xbe94e3ed	-0.29080144
242	0xbd21759d	-0.039418805
243	0x3d163371	0.036670152
244	0x3b4fe8d1	0.0031724463
245	0xbd1ea52d	-0.038731743
246	0x3e359673	0.17733173
247	0xbd868aaa	-0.06569417
248	0xbd148bbb	-0.03626607
249	0xbde0da65	-0.109791555
250	0xbe90ab6f	-0.28255793
251	0xbf456a5f	-0.77115434
252	0xbd3ea3f5	-0.04654308
253	0xbe3f0b50	-0.18656659
254	0x3e5fd0d5	0.21857007
255	0x3e7543bd	0.23951621

hidden_fc2.bias f4 [64]
0	0x3e25df91	0.16198565
1	0xbe3288d5	-0.1743501
2	0x3cdae060	0.026718318
3	0x3cd8f9af	0.026486246
4	0x3e6ef484	0.23335463
5	0x3a6fdb2a	0.00091497845
6	0xbe53c137	-0.20679174
7	0xbb8c67b9	-0.0042848256
8	0xbe72acc0	-0.23698711
9	0xbeea1dfa	-0.45725995
10	0x3dc93ecd	0.098264314
11	0xbe72d563	-0.23714213
12	0x3e223f9c	0.15844578
13	0xbe7847c6	-0.2424613
14	0x3c3a1b36	0.011359027
15	0xbd5986bb	-0.053107005
16	0x3e83901b	0.2569588
17	0x3dfb77e0	0.12278724
18	0x3ee6a6ad	0.4504904
19	0xbe3c220b	-0.18372361
20	0xbd4078a3	-0.04699005
21	0x3e911be9	0.28341606
22	0xbd9d542e	-0.076820716
23	0x3f022775	0.50841457
24	0x3e2852c3	0.16437821
25	0x3ef4ca55	0.47810617
26	0xbe1d6f52	-0.15374497
27	0x3de82f4d	0.11337147
28	0x3e0355ad	0.12825651
29	0x3e30d58c	0.17268962
30	0x3e31dded	0.17369814
31	0xbd10a8a1	-0.035317067
32	0x3c2168fa	0.0098516885
33	0x3defc3f0	0.11707294
34	0xbe48faf0	-0.19626975
35	0x3e274c14	0.16337615
36	0x3da26914	0.07930198
37	0xbe1f0063	-0.15527491
38	0x3d3031de	0.043016307
39	0xbdb5d431	-0.08878363
40	0xbeb4dbd9	-0.3532398
41	0x3f2c75bd	0.67367154
42	0x3db97af3	0.09056654
43	0xbe8b1dc6	-0.27171153
44	0x3de24753	0.1104876
45	0x3d09ae29	0.033613358
46	0x3f22a0fe	0.63526905
47	0xbe383f36	-0.17992863
48	0x3dbec561	0.09314991
49	0xbe8007af	-0.25005862
50	0xbe0810af	-0.13287614
51	0xbd0f3711	-0.034964625
52	0x3ec78100	0.38965607
53	0x3f2db4ed	0.67854196
54	0xbde79445	-0.11307577
55	0x3f0d67ae	0.5523633
56	0xbe083cdc	-0.13304466
57	0x3d9f2fca	0.07772787
58	0x3db4d762	0.088301435
59	0xbcc4689d	-0.023975665
60	0x3e387545	0.18013485
61	0x3f2dd48d	0.6790245
62	0xbea807ac	-0.32818353
63	0x3ea99158	0.331187

value_fc.weight f4 [1, 64]
0	0x3e5083c0	0.20362759
1	0xbef301c4	-0.47462285
2	0x3d355506	0.044270538
3	0x3ead0cd2	0.33798844
4	0x3e153a5c	0.14573044
5	0x3d047d67	0.032346155
6	0xbf7b0de0	-0.98068047
7	0x3ea7f354	0.32802832
8	0xbe82b5d7	-0.25529358
9	0xbd263aa2	-0.04058326
10	0x3e9fc30c	0.31203496
11	0xbd748392	-0.059695788
12	0x3ee83e42	0.4536
13	0xbd92444d	-0.071419336
14	0xbd5374f4	-0.051625207
15	0xbe7c3d90	-0.24632859
16	0x3e120b7a	0.1426219
17	0x3e7ec98d	0.24881573
18	0x3e4e6db3	0.20159034
19	0xbee02c81	-0.43783954
20	0x3d58bfb6	0.052917205
21	0x3e67b878	0.22628963
22	0xbf80a194	-1.004931
23	0x3e669337	0.22517096
24	0x3dff9226	0.124790475
25	0x3e9b6989	0.30353954
26	0xbee343ab	-0.44387564
27	0xbe2a456b	-0.16628043
28	0x3eb0244a	0.34402686
29	0x3dca5833	0.09880104
30	0x3ed21667	0.41032717
31	0x3f39a0be	0.725109
32	0x3e4c5b4b	0.199567
33	0x3e349708	0.17635739
34	0xbe8eafe9	-0.27868584
35	0x3ebc2a53	0.3675104
36	0x3dd67e5a	0.104733184
37	0x3e09b144	0.13446528
38	0x3b0110cb	0.0019693847
39	0x3f03fe5e	0.5156001
40	0xbd744348	-0.059634477
41	0x3eba79be	0.36421007
42	0x3e0585b5	0.13039286
43	0xbe492140	-0.1964159
44	0x3dc66589	0.09687335
45	0x3eba79f0	0.36421156
46	0x3ea4fd80	0.32224655
47	0xbdfced6c	-0.12349972
48	0x3da5fb44	0.08104566
49	0xbe6f42a6	-0.23365268
50	0x3e8dc39f	0.2768831
51	0x3eccdc31	0.40011743
52	0x3ec300b8	0.38086486
53	0x3eb865aa	0.36015064
54	0xbf0959c8	-0.5365262
55	0x3e9a117c	0.30091465
56	0xbbc18693	-0.005905935
57	0x3e2731bf	0.1632757
58	0x3e51b7ec	0.20480317
59	0xbd3350eb	-0.04377834
60	0x3de36aca	0.11104353
61	0x3eb16c6a	0.34653026
62	0x3d626e47	0.05528095
63	0x3e66a706	0.22524652

advantage_fc.weight f4 [4, 64]
0	0x3b125305	0.0022327316
1	0xbef98938	-0.48737502
2	0xbebde757	-0.3709056
3	0xbdbc0f2d	-0.09182582
4	0x3d916bcb	0.07100638
5	0x3e5806d8	0.2109636
6	0x3f39ce76	0.7258066
7	0x3cadc79c	0.021213345
8	0xbd8ee004	-0.06976321
9	0x3e169f59	0.14709224
10	0xbd87b2fb	-0.06625935
11	0x3d59c956	0.053170525
12	0xbe02ed11	-0.12785746
13	0x3d04cb86	0.032420658
14	0x3e186a98	0.14884412
15	0x3e9e146d	0.3087496
16	0xbb2f12c1	-0.002671406
17	0x3de582b9	0.11206574
18	0x3e1773ff	0.14790343
19	0x3f2d683b	0.6773717
20	0x3e370963	0.17874674
21	0x3dd58b4b	0.10426959
22	0x3e6b9381	0.23005487
23	0xbc8e6243	-0.01738084
24	0x3d596fe8	0.053085238
25	0x3e065842	0.13119605
26	0x3f5200d8	0.8203254
27	0xbd26ee90	-0.040754855
28	0xbeaaea58	-0.33381915
29	0x3dda6a6f	0.10664832
30	0xbe14103f	-0.14459322
31	0x3eec2dd7	0.46128723
32	0x3d8d446e	0.068978176
33	0x3db338b1	0.087510474
34	0x3c6d020f	0.014465823
35	0x3e254afe	0.16141888
36	0x3e49491f	0.196568
37	0x3e8610b3	0.26184615
38	0x3d3e352e	0.046437435
39	0xbd6bddbc	-0.05758451
40	0xbcb33170	-0.02187416
41	0x3ca7717c	0.020439856
42	0xbdf1b540	-0.11802149
43	0x3deaa1f0	0.114566684
44	0x3d5475a3	0.05187
45	0x3d40713b	0.046982985
46	0x3da38f60	0.07986331
47	0x3ea9ba1c	0.33149803
48	0x3d89b715	0.06724373
49	0x3e631cf9	0.22179021
50	0xbddd3dd1	-0.10802806
51	0xbf08137b	-0.53154725
52	0x3db5f8fd	0.08885381
53	0x3d18e8ab	0.037331264
54	0x3f41df76	0.757316
55	0x3e1eed2b	0.1552016
56	0x3e0031cb	0.12518995
57	0xbdf5a0a8	-0.119935334
58	0xbd9a103f	-0.0752263
59	0x3ece785a	0.40326196
60	0xbc210793	-0.009828466
61	0x3e577f2a	0.21044603
62	0x3e4874e4	0.1957584
63	0x3d82d2f6	0.06387894
64	0x3db46d87	0.08809953
65	0xbe48626c	-0.19568795
66	0xbe2482cb	-0.16065519
67	0x3d4d3178	0.050096005
68	0x3c58fcdc	0.01324388
69	0x3e536472	0.20643786
70	0x3ddd1302	0.10794641
71	0x3cf709a5	0.030155966
72	0x3daa7604	0.08323291
73	0x3d5dd061	0.054153804
74	0xbd63c7a3	-0.05561031
75	0x3d966e3c	0.07345244
76	0x3d6da92d	0.058022667
77	0x3dbcec51	0.09224761
78	0x3db3c814	0.08778396
79	0x3ee22034	0.44165194
80	0xbbe020e6	-0.0068398593
81	0x3d4f38f0	0.05059141
82	0xbb51d80b	-0.003201964
83	0x3e86c46f	0.26321742
84	0x3df7ca87	0.12099176
85	0x3d763f46	0.060118936
86	0xbed29e9d	-0.41136637
87	0xbd54db6e	-0.051967077
88	0xbce02bcc	-0.027364634
89	0x3e1b3421	0.15156604
90	0x3d738ce8	0.05946055
91	0x3e262cf0	0.1622808
92	0xbe355114	-0.1770671
93	0x3d0d19cb	0.034448426
94	0xbb8ec4f7	-0.004356976
95	0xbf664f6d	-0.89964944
96	0xbce5c64d	-0.028048659
97	0x3e0098d7	0.12558304
98	0xbd6bf1e0	-0.057603717
99	0x3e33dbf3	0.17564373
100	0x3e33222c	0.17493504
101	0x3e6a5404	0.22883612
102	0x3e0adc4e	0.13560602
103	0xbdff6798	-0.12470931
104	0xbdf83d16	-0.12121026
105	0x3dee6b19	0.11641521
106	0xbe15fdcc	-0.14647597
107	0xbcd64fb7	-0.026161058
108	0x3dda02b5	0.106450476
109	0x3c1f91fa	0.009739393
110	0x3d0f378f	0.034965094
111	0x3d17f348	0.037097245
112	0x3c8f83d2	0.017518912
113	0x3e0bf622	0.13668111
114	0x3cc257aa	0.023723442
115	0x3d022d88	0.031781703
116	0x3d8ac026	0.06774931
117	0x3c98a422	0.018632952
118	0xbecd8703	-0.40142068
119	0x3e3824e8	0.17982829
120	0x3dd0dd1f	0.101984255
121	0x3eab4e71	0.33458284
122	0xbd2abe2d	-0.041685272
123	0xbdb784cc	-0.08960876
124	0x3cf38915	0.029728452
125	0x3e205490	0.15657258
126	0x3dfb80fb	0.122804604
127	0x3d1e36d3	0.038626503
128	0xbd20dd30	-0.03927344
129	0x3f46f3bf	0.7771568
130	0x3adaa20f	0.0016680377
131	0xbe37c88a	-0.17947593
132	0x3c3703e0	0.0111703575
133	0x3ea163c4	0.31521428
134	0x3d37b3de	0.04484927
135	0x3e8dc463	0.27688894
136	0x3e0d078b	0.13772409
137	0x3d7694b4	0.060200408
138	0x3e8585a4	0.26078522
139	0xbc86acb9	-0.016439782
140	0x3b88df10	0.0041769817
141	0x3dd814e2	0.10550858
142	0xbddae41b	-0.10688039
143	0xbd631594	-0.0554405
144	0xbdf6a522	-0.12043215
145	0x3c874256	0.016511124
146	0x3e241106	0.16022119
147	0xbe844b7d	-0.25838843
148	0xbd073ee0	-0.033018947
149	0xbd9da753	-0.0769793
150	0xba5fa4b8	-0.000853132
151	0x3cc269c9	0.023732083
152	0xbdd6cbb3	-0.10488071
153	0x3dbf64c4	0.093453914
154	0x3f273086	0.65308416
155	0x3f7cbb3a	0.98723185
156	0x3d2572fe	0.04039287
157	0x3e3eb43b	0.1862344
158	0xbe5af017	-0.2138065
159	0xbe711f4d	-0.23547097
160	0xbe281368	-0.16413653
161	0xbbedc3c6	-0.007256004
162	0x3e0631ea	0.13104978
163	0x3da7ebe9	0.08199293
164	0x3db47d9d	0.08813021
165	0xbd5ebdf3	-0.05438037
166	0xbbd95f61	-0.0066336845
167	0x3eec1ca0	0.4611559
168	0x3ea7e2ab	0.3279012
169	0x3dbcda6d	0.09221349
170	0x3e73696c	0.23770684
171	0x3c98312a	0.01857813
172	0xbeae743f	-0.34073064
173	0x3ecc2239	0.3986986
174	0x3c9ac1b8	0.0188912
175	0x3de15060	0.110016584
176	0xbe20397f	-0.15646933
177	0xbe25cf66	-0.16192397
178	0xbecad526	-0.39615744
179	0x3d50a5a9	0.050939236
180	0x3e32922b	0.17438571
181	0x3da9277a	0.08259483
182	0x3eb6a603	0.35673532
183	0x3d96dfd8	0.073669136
184	0x3e65e3a1	0.22450115
185	0xbe8c1933	-0.27362975
186	0x3e872c91	0.2640119
187	0x3e30491a	0.17215386
188	0xbd136489	-0.03598455
189	0x3e4416d3	0.19149332
190	0x3e0eee30	0.13958049
191	0x3cc9ade6	0.024619054
192	0x3c6ab5c5	0.014325564
193	0x3f23f39d	0.640436
194	0x3f180a89	0.59391075
195	0x3e84f70d	0.25969735
196	0xbda194b0	-0.07889688
197	0x3d804e54	0.0626494
198	0x3f89e311	1.077242
199	0xbe458f35	-0.1929291
200	0x3e45cdd9	0.19316806
201	0x3e243658	0.16036355
202	0x3e68aabe	0.22721383
203	0x3e592964	0.21207196
204	0x3ce93334	0.028466798
205	0x3e8d0c42	0.27548414
206	0x3ebab13b	0.3646334
207	0x3eac7726	0.33684653
208	0xbc98c9d6	-0.01865093
209	0x3df82536	0.121164724
210	0x3d913d8a	0.07091816
211	0xbd9c911d	-0.07644866
212	0x3e76f102	0.24115375
213	0xbd1a1c25	-0.037624497
214	0x3f37fcc6	0.71870077
215	0x3d6cc3fb	0.05780409
216	0xbd1686ec	-0.036749765
217	0x3dbfd78c	0.09367284
218	0xbf390ed3	-0.72288245
219	0x3d94f2c7	0.072728686
220	0x3dd24a1a	0.1026804
221	0xbe0813d2	-0.13288811
222	0x3e168d71	0.14702393
223	0xbe449640	-0.19197941
224	0x3ce1c36d	0.027559007
225	0xbe9885b7	-0.29789516
226	0xbe4c5392	-0.19953755
227	0x3e0bf7e4	0.13668782
228	0x3e62210c	0.22082919
229	0xbcd92821	-0.026508393
230	0x3ebc33d2	0.36758286
231	0xbf2b98aa	-0.6702982
232	0xbda2c8ae	-0.07948433
233	0x3dd5cfe7	0.10440045
234	0x3e6b94bb	0.23005955
235	0x3e34df85	0.17663391
236	0x3f2b8b48	0.670094
237	0xbe563b27	-0.20921002
238	0x3e0f1211	0.13971736
239	0x3e8ce2a0	0.2751665
240	0x3ad0a53c	0.0015918384
241	0x3eba3554	0.3636881
242	0xbe0b22d7	-0.13587509
243	0x3e2fb23a	0.17157832
244	0x3df7972e	0.12089382
245	0x3ddd4787	0.108046584
246	0x3f27dbf9	0.65570027
247	0x3e1c3047	0.15252791
248	0x3e15118e	0.14557478
249	0x3ea4e89c	0.32208717
250	0x3e905cbb	0.28195748
251	0xbdaebd92	-0.085322514
252	0xbc66c5fc	-0.014085289
253	0x3d73693c	0.05942653
254	0x3e18ec53	0.149339
255	0xbcb5bb6a	-0.022184093

advantage_fc.bias f4 [4]
0	0xbe56a258	-0.20960367
1	0x3e2b985e	0.16757342
2	0x3dc03c4b	0.093865
3	0x3c11d0c3	0.00889987
