model.pt (torch, 30639 bytes, 7 tensors)

hidden_fc1.weight f4 [64, 37]
0	0x3e10fb34	0.14158326
1	0x3dfa6c5e	0.12227701
2	0x3e2df798	0.16988981
3	0x3d7924c4	0.060826078
4	0xbd7361d7	-0.05941948
5	0xbd35df22	-0.04440225
6	0xbe09183c	-0.13388151
7	0x3da68cbc	0.08132312
8	0xbd0400ab	-0.0322272
9	0x3dd14ebb	0.10220095
10	0x3eb71eaa	0.35765582
11	0xbde592ff	-0.11209678
12	0xbe9d29ca	-0.30695945
13	0xbef065fe	-0.46952814
14	0xbf980659	-1.1876937
15	0xbd7c298b	-0.061563056
16	0x3e1d20bb	0.15344517
17	0x3e10ac52	0.14128235
18	0x3df7858a	0.120860174
19	0x3df62b81	0.120200165
20	0xbdc61d17	-0.09673517
21	0x3c88fe92	0.016722951
22	0x3e3f831d	0.1870236
23	0x3e906501	0.2820206
24	0x3f00d17b	0.5031964
25	0x3da20ff7	0.07913201
26	0x3cd4a553	0.025957739
27	0xbe0fadc5	-0.14031132
28	0xbebe7413	-0.37197933
29	0xbe5b7729	-0.21432175
30	0x3e54e1b8	0.2078923
31	0x3e3d74d0	0.18501592
32	0x3d987ad9	0.07445306
33	0xbe7f8658	-0.24953592
34	0xbf17dcb7	-0.5932116
35	0xbd17baa8	-0.037043244
36	0xbd1169fa	-0.035501458
37	0x3e3b99d1	0.18320395
38	0xbd943ef3	-0.07238569
39	0xbde19fd0	-0.1101681
40	0xbd5f4a53	-0.05451424
41	0xbf14b0fa	-0.58082545
42	0x3ea33966	0.3187973
43	0x3d44bb25	0.048030037
44	0x3c0dc416	0.008652708
45	0x3e657e0d	0.22411366
46	0xbe24325c	-0.16034836
47	0xbe8cae9c	-0.27476966
48	0xbe751c53	-0.23936586
49	0xbe3c47b9	-0.18386735
50	0x3e2a52f0	0.166332
51	0x3e8c39b2	0.27387768
52	0xbe889984	-0.26679623
53	0x3c16b390	0.0091980845
54	0x3e03006a	0.12793127
55	0x3db11fb0	0.08648622
56	0x3dd126b1	0.10212458
57	0x3e3cff93	0.18456869
58	0xbd7dabee	-0.061931543
59	0x3cb6d499	0.022318171
60	0xbdcfeb79	-0.10152335
61	0xbdb6e576	-0.08930485
62	0x3d8efaf7	0.069814615
63	0xbc058e1c	-0.008151557
64	0x3e10d706	0.14144525
65	0x3dd43e11	0.10363401
66	0x3e8b316f	0.27186152
67	0x3d87277e	0.065993294
68	0x3eb73970	0.3578601
69	0xbd896b40	-0.067099094
70	0x3d91fc29	0.07128174
71	0xbe37779e	-0.17916724
72	0x3c0c4103	0.008560422
73	0xbe150888	-0.14554036
74	0x3cefd6b7	0.029277189
75	0x3dba3332	0.09091796
76	0x3dbce3ce	0.09223138
77	0x3e2ef709	0.17086424
78	0x3e2901e3	0.16504626
79	0x3d337b2f	0.04381865
80	0x3d3d7113	0.046250414
81	0x3b4eb7c4	0.0031542638
82	0x3da4bc99	0.08043785
83	0xbcbb4393	-0.02285937
84	0x3e0b396c	0.13596123
85	0x3e19c425	0.1501623
86	0x3e255e4f	0.16149257
87	0x3e301eae	0.17199203
88	0xbcaa0554	-0.020754494
89	0x3ed2790b	0.41107973
90	0xbf2798d0	-0.6546755
91	0xbf2b7d07	-0.6698765
92	0xbf3263fe	-0.69683826
93	0xc036c0f6	-2.8555274
94	0x3e24b20e	0.16083547
95	0x3e2c0be9	0.16801418
96	0x3e1d3394	0.15351707
97	0x3de99ad9	0.11406488
98	0xbd9c1393	-0.07620921
99	0xbc951004	-0.018196113
100	0x3d465878	0.048424214
101	0x3d005cfa	0.03133867
102	0x3e224753	0.1584752
103	0x3de5d8fe	0.112230286
104	0x3ddd1348	0.10794693
105	0x3e11709a	0.1420311
106	0x3de2965e	0.110638365
107	0x3dd17aa8	0.10228473
108	0xbd5d52fd	-0.054034222
109	0x3b9ffae5	0.004882204
110	0xba2b8065	-0.00065422646
111	0x3f30ba35	0.6903413
112	0xbebfb8a8	-0.3744557
113	0xbe699d20	-0.22813845
114	0xbee5f3a0	-0.44912434
115	0xc03e148f	-2.9700048
116	0xbd9ce157	-0.07660168
117	0xbda92b99	-0.08260269
118	0xbdeefadc	-0.116689414
119	0xbd2533e4	-0.04033269
120	0x3d06dd89	0.032926116
121	0x3e026e02	0.12737277
122	0x3e1d3629	0.15352692
123	0x3e0edcb6	0.13951382
124	0x3e14fa7e	0.1454868
125	0x3a614844	0.0008593837
126	0xbe03360c	-0.12813586
127	0xbdd1496b	-0.102190815
128	0xbd732935	-0.05936547
129	0xb7ba751f	-2.2227467e-05
130	0x3e0ade90	0.13561463
131	0xbcd4fccf	-0.025999455
132	0xbcab444f	-0.020906596
133	0xbcc0bcce	-0.02352753
134	0xbdc666f8	-0.096876085
135	0xbddf06e6	-0.10889988
136	0xbadf05db	-0.0017015295
137	0x3d9b829a	0.0759327
138	0x3d75ba68	0.059992224
139	0x3e11ecfb	0.14250557
140	0x3ddee694	0.10883823
141	0x3c90c758	0.01767318
142	0x3d4799ea	0.04873077
143	0x3ce3a6a2	0.027789418
144	0x3d8c2583	0.06843092
145	0x3cff6d85	0.031180153
146	0x3ba4d2d9	0.005030018
147	0xb8da63aa	-0.00010413614
148	0x3e692cd6	0.2277101
149	0xbdd405b9	-0.10352654
150	0xbcc07730	-0.023494333
151	0xbdf6f254	-0.12057939
152	0xbf282a56	-0.656896
153	0xbdddebf3	-0.10836019
154	0xbe3b5c17	-0.18296848
155	0x3e636a46	0.22208509
156	0xbe2481bf	-0.16065119
157	0xbe8f9dee	-0.28050178
158	0xbc9a591f	-0.018841324
159	0x3c81fd2b	0.01586779
160	0x3d9343ce	0.07190667
161	0x3c948a6a	0.018132407
162	0x3ccbb77e	0.02486777
163	0x3e632e0e	0.22185537
164	0xbe868fa3	-0.2628146
165	0x3cfd55fb	0.030924788
166	0xbc43f4b3	-0.011960196
167	0xbed2c1ee	-0.41163582
168	0xbe9ba5ac	-0.30399835
169	0x3e92033d	0.28518096
170	0x3d56868e	0.052374415
171	0xbf934c10	-1.1507587
172	0xbd403879	-0.046928857
173	0xbdfd66a8	-0.12373096
174	0x3d84415e	0.0645778
175	0x3e8f87cc	0.28033292
176	0xbdacd5d6	-0.084392235
177	0xbe27a89b	-0.16372912
178	0xbe6e0e62	-0.23247674
179	0x3e148d1a	0.14506951
180	0x3ea5480f	0.3228154
181	0x3d2a7bcc	0.04162197
182	0xbef22d8e	-0.4730038
183	0x3e0b68d6	0.1361421
184	0xbde0020d	-0.10937891
185	0x3dcbfd51	0.09960426
186	0xbc986442	-0.018602494
187	0xbc6900e5	-0.014221405
188	0x3d39060a	0.045171775
189	0x3d9b7cb8	0.075921476
190	0xbd86f9d2	-0.06590618
191	0x3cf4f12a	0.029900152
192	0xbdc1962b	-0.094524704
193	0x3db0fa4f	0.086414926
194	0x3de7a2a8	0.11310321
195	0x3e1191b0	0.14215732
196	0x3cbee787	0.02330376
197	0x3e086e92	0.13323429
198	0x3e000c13	0.12504606
199	0x3d99297e	0.07478617
200	0x3d8e95ef	0.06962191
201	0x3def5c77	0.11687558
202	0xbbb5d222	-0.0055487314
203	0xbd6c5926	-0.057702206
204	0xbe915a9f	-0.2838945
205	0x3ece7f01	0.4033127
206	0xbe3104cf	-0.1728699
207	0xbebe213c	-0.3713473
208	0xbf2dfcea	-0.6796404
209	0xbfe92da7	-1.8217057
210	0x3c9122e4	0.017716832
211	0xbdcb301e	-0.09921287
212	0x3e13615e	0.14392611
213	0x3e636cd3	0.22209482
214	0x3e823bfc	0.2543639
215	0xbcf86eb7	-0.03032623
216	0x3d7b7384	0.06138946
217	0x3959c57e	0.00020768304
218	0x3e6479c4	0.22312075
219	0x3e0311a2	0.12799695
220	0xbc9e2349	-0.019303935
221	0xbc9bd7b0	-0.019023746
222	0xbea08961	-0.31354812
223	0x3e93eedf	0.28893182
224	0x3e3c7b3a	0.18406382
225	0x381429ec	3.5324992e-05
226	0xbeae8473	-0.34085426
227	0x3b9cfb83	0.0047907247
228	0x3d5cec45	0.05393626
229	0x3e07460d	0.13210316
230	0xbeb6481d	-0.35601893
231	0xbeb6cf48	-0.35705018
232	0x3d957a8e	0.07298766
233	0x3d9ad77d	0.075606324
234	0x3d4e1a7b	0.050318222
235	0xbe00a93c	-0.12564558
236	0xbea5c115	-0.32373872
237	0xbe2ec7f8	-0.1706847
238	0x3dc72956	0.09724681
239	0x3e099785	0.13436706
240	0xbe60c170	-0.2194879
241	0xbec7c0ee	-0.3901438
242	0x3e918191	0.28419164
243	0x3dd178cb	0.102281176
244	0xbe4cb65c	-0.1999144
245	0x3e2700ee	0.16308948
246	0xbdc4a99c	-0.09602663
247	0xbdc5fb4b	-0.09667071
248	0x3db7be84	0.08971885
249	0xbc9c0522	-0.019045416
250	0xbde959b2	-0.11394061
251	0xbe21a83d	-0.15786834
252	0xbdb48aca	-0.088155344
253	0xbd09a9c5	-0.03360917
254	0x3c8ca1b4	0.01716695
255	0x3ea139a7	0.31489298

hidden_fc1.bias f4 [64]
0	0x3d377547	0.04478958
1	0xbdef5a25	-0.116871156
2	0xbd34fb4a	-0.04418496
3	0x3dc39f20	0.09551835
4	0xb95329ca	-0.00020138096
5	0xbda2fd66	-0.07958488
6	0x3e00c2d6	0.12574324
7	0xbd8b2a5a	-0.06795187
8	0x3e8b427c	0.2719916
9	0xbdb6f2a5	-0.089329995
10	0x3dffddc5	0.12493471
11	0xbce4839a	-0.027894784
12	0x3c7553f9	0.014973634
13	0x3e8b55a6	0.27213782
14	0xbca9aa39	-0.020711051
15	0xbe3b6b2f	-0.18302606
16	0x3e48a823	0.19595389
17	0xbe67602c	-0.2259528
18	0xbd0fa993	-0.035073828
19	0xbd3aacfa	-0.04557512
20	0x3d9b965f	0.075970404
21	0xbd9eda3f	-0.07756471
22	0x3c488b75	0.01224028
23	0xbdb621b5	-0.08893148
24	0xbd971c72	-0.073784724
25	0xbbcd0f9e	-0.006257965
26	0xbea1d553	-0.31608066
27	0x3d024aad	0.031809498
28	0x3dbcb26a	0.09213717
29	0x3e11d30b	0.14240663
30	0xbe46882c	-0.19387883
31	0x3e876324	0.26442826
32	0x3e13d14e	0.14435312
33	0x3e29114b	0.16510503
34	0xbdd54c11	-0.10414899
35	0xbdd28843	-0.10279896
36	0x3d392292	0.045198984
37	0x3cefff6d	0.029296601
38	0xbe827dbc	-0.25486553
39	0xbe1d5503	-0.1536446
40	0x3e55399c	0.20822757
41	0xbe1f2d71	-0.15544678
42	0x3eb037f1	0.3441768
43	0x3e8da76c	0.27666795
44	0x3d63189f	0.055443402
45	0xbb94589b	-0.004527164
46	0xbe136151	-0.14392592
47	0xbb889265	-0.004167842
48	0xbda24d4d	-0.079249
49	0xbe3f5977	-0.18686472
50	0x3e3f7249	0.1869594
51	0x3c594ac3	0.0132624535
52	0x3dd4ed3f	0.103968136
53	0xbe6b6dc0	-0.22991085
54	0x3e8ca1d1	0.27467206
55	0xbe81452f	-0.25248095
56	0x3dea5bdb	0.11443301
57	0xbe4cea00	-0.20011139
58	0xbad37eb7	-0.0016135786
59	0x3cc2a0c0	0.023758292
60	0xbd9c6add	-0.0763757
61	0xbdd73647	-0.105083995
62	0x3d495feb	0.04916374
63	0x3d83b075	0.06430141

hidden_fc2.weight f4 [64, 64]
0	0x3df2b77a	0.118514016
1	0x3b4538c7	0.0030093656
2	0x3e236ec9	0.1596023
3	0x3cca767d	0.024714703
4	0xbd5efd74	-0.05444093
5	0xbcebe49f	-0.028795538
6	0x3cc6c11e	0.024262007
7	0x3de3985a	0.11113043
8	0x3d88def6	0.066831514
9	0x3d86b712	0.06577887
10	0x3ced98a8	0.029003456
11	0x3d31039f	0.043216344
12	0x3de655b6	0.11246817
13	0x3e6e2bf8	0.2325896
14	0xbdb3c888	-0.08778483
15	0xbd7d6544	-0.061864153
16	0x3eb131ca	0.346083
17	0x3c1a3bda	0.009413684
18	0xbd32f7e4	-0.04369344
19	0xbde6f9c9	-0.112781115
20	0x3e4a4afa	0.19755164
21	0xbd78a113	-0.060700487
22	0x3df216ea	0.11820777
23	0x3d2abeca	0.041685857
24	0xbc38c25e	-0.0112768095
25	0xbe239646	-0.15975294
26	0x3d64bcd7	0.055844154
27	0xbcfe3f17	-0.031035943
28	0x3d403dc5	0.046933908
29	0x3e2f3e9b	0.17113726
30	0xbda1003a	-0.07861371
31	0x3db2ab4b	0.08724078
32	0xbd364be0	-0.044505954
33	0x3dc7e29b	0.097600184
34	0xbbdc87cb	-0.006730055
35	0x3ccc8d16	0.024969619
36	0xbde73e3b	-0.112911664
37	0x3d6db8c9	0.058037553
38	0x3c5cd4f0	0.013478503
39	0x3d813490	0.063088536
40	0x3db47153	0.088106774
41	0xbdb556d0	-0.08854449
42	0x3db9a5af	0.09064805
43	0x3ce8e986	0.028431665
44	0xbbeddd16	-0.0072590215
45	0xbcc90574	-0.024538733
46	0x3cce8f21	0.025214734
47	0x3d4a343e	0.04936623
48	0xbcaf001f	-0.021362362
49	0x3da2bca4	0.079461366
50	0xbce642dd	-0.028108055
51	0xbe067a7b	-0.1313266
52	0xbcd80b15	-0.026372472
53	0x3d2a6aba	0.04160569
54	0x3e8bb695	0.27287737
55	0x3cc8b557	0.024500532
56	0x3d53329e	0.051561944
57	0x3d918d8b	0.07107075
58	0x3d9ac7aa	0.07557614
59	0x3d541c08	0.051784545
60	0x3dc74da6	0.09731607
61	0xbdec9c61	-0.115532644
62	0x3dc54e6f	0.09634101
63	0xbdc6d456	-0.097084686
64	0x3db0731e	0.08615707
65	0xbe175b57	-0.14780937
66	0xbd62db37	-0.05538484
67	0x3d372159	0.044709537
68	0x3ea3e487	0.3201029
69	0x3e124ce4	0.14287144
70	0x3df68dfa	0.12038799
71	0xbe3a96cb	-0.18221585
72	0xbddf9197	-0.10916441
73	0xbec55245	-0.3853933
74	0x3dea97bf	0.114547245
75	0xbd2e85b5	-0.04260798
76	0x3dfaa0e6	0.1223772
77	0xbe83436e	-0.25637382
78	0x3d570f5f	0.052504893
79	0x3e9fd29e	0.31215376
80	0x3ea7d5eb	0.32780394
81	0xbeaf885c	-0.3428372
82	0xbe41d39b	-0.18928377
83	0xbdd132a7	-0.10214739
84	0x3c8beaaf	0.01707968
85	0xbc91579e	-0.017741974
86	0xbe3e941d	-0.18611188
87	0x3df48c9e	0.11940883
88	0xbe5587b9	-0.20852555
89	0xbce64eb1	-0.028113695
90	0x3e83f929	0.25776032
91	0x3e3ab08b	0.18231408
92	0x3d32ab91	0.04362065
93	0xbd99d6f8	-0.07511705
94	0x3da8c8d6	0.082414314
95	0xbd0d06b9	-0.03443024
96	0x3e7ff3ff	0.24995421
97	0x3e63f25c	0.22260422
98	0x3ee51e6b	0.4474977
99	0x3e59fa67	0.21286927
100	0xbe9ab764	-0.3021804
101	0x3ea630ee	0.32459205
102	0xbd0e0965	-0.034676928
103	0xbe88662f	-0.2664046
104	0xbdf88424	-0.12134579
105	0xbdd706c9	-0.10499341
106	0xbde3a5c1	-0.111155994
107	0x3e73d5a3	0.23811965
108	0x3c7f94b5	0.015599419
109	0xbd089b57	-0.03335127
110	0x3dc86fc0	0.097869396
111	0x3e0c6d77	0.13713633
112	0xbe8dde39	-0.27708605
113	0xbe4512fc	-0.19245523
114	0x3e75e57a	0.2401332
115	0xbd6a8d8e	-0.057263903
116	0xbdf98db2	-0.12185229
117	0xbe243e79	-0.16039456
118	0xbce7a47f	-0.02827668
119	0x3c4790f9	0.01218056
120	0x3ded013a	0.115724996
121	0x3e316bc0	0.1732626
122	0x3ddcdc32	0.107841864
123	0x3e01eaa2	0.12687162
124	0x3e0fd966	0.14047775
125	0x3c7caed2	0.01542254
126	0xbca6f949	-0.02038254
127	0xbe9af06e	-0.30261558
128	0x3eb59976	0.35468644
129	0xbe3cd3c1	-0.18440153
130	0x3efb3f51	0.49071744
131	0xbdc459e3	-0.09587457
132	0x3edb91c1	0.4288464
133	0x3eb30819	0.34967116
134	0x3e68dda0	0.22740793
135	0x3edb5e0d	0.42845193
136	0xbe929877	-0.28631946
137	0xbea4148f	-0.32046935
138	0x3e121617	0.14266239
139	0x3f2b0b97	0.6681456
140	0xbbecd217	-0.007227193
141	0xbcf180d8	-0.029480383
142	0x3e9c547b	0.30533203
143	0x3f1fe876	0.6246408
144	0xbd278a52	-0.040903397
145	0x3e86e81d	0.26348963
146	0xbf0a3fee	-0.540038
147	0x3efdf904	0.49604046
148	0x3ec01bb4	0.37521136
149	0xbb673380	-0.00352785
150	0x3e4622ca	0.19349208
151	0xbcd8b276	-0.026452284
152	0x3ea9dadf	0.33174798
153	0xbd3efacf	-0.04662591
154	0xbf51e787	-0.8199391
155	0xbf949782	-1.1608737
156	0xbeb54390	-0.3540311
157	0x3e87a860	0.26495647
158	0xbe94a608	-0.29032922
159	0xbdf449a7	-0.119281106
160	0xbddbcf7c	-0.10732934
161	0x3e08a7ed	0.13345309
162	0xbf02d908	-0.51112413
163	0x3e89f2c8	0.2694304
164	0xbd293b44	-0.041316286
165	0xbe51b58c	-0.20479411
166	0x3c901ea9	0.017592745
167	0xbc98e734	-0.018664934
168	0x3e00bbda	0.1257166
169	0x3e928287	0.2861521
170	0xbdcc7a68	-0.09984285
171	0xbe0b273a	-0.13589182
172	0xbe293a6c	-0.16526192
173	0x3dd08ec9	0.10183484
174	0x3eaf3661	0.34221175
175	0x3ea4cd3a	0.32187825
176	0x3f5ac39a	0.85454714
177	0xbed1a462	-0.40945727
178	0xbe53a0b9	-0.2066678
179	0x3f099d01	0.53755194
180	0xbd38fd4c	-0.045163438
181	0x3e86e2a4	0.26344788
182	0xbe74e274	-0.2391451
183	0x3c4b47e3	0.012407276
184	0x3d31985f	0.043358203
185	0xbf14d19d	-0.58132344
186	0x3dfe13d8	0.12406129
187	0x3db4483c	0.0880284
188	0xbda73d65	-0.08166007
189	0xbca052b5	-0.019570688
190	0xbd9a208e	-0.075257406
191	0x3e1bcf66	0.15215835
192	0xbeb18574	-0.3467213
193	0xbec8a56a	-0.391887
194	0xbe02d5fb	-0.1277694
195	0xbeea1278	-0.45717216
196	0x3f07d840	0.53064346
197	0xbe9aae4e	-0.3021111
198	0x3d9cc95f	0.07655596
199	0xbbda66d1	-0.0066650887
200	0xbdbd6ca4	-0.09249237
201	0xbe93d664	-0.28874505
202	0xbe6e70e0	-0.23285246
203	0xbf16d120	-0.5891285
204	0xbda11947	-0.078661494
205	0xbca4379d	-0.02004605
206	0xbcdd3c50	-0.027006298
207	0x3c3cfff4	0.011535633
208	0xbeb2fc9b	-0.34958348
209	0xbef08579	-0.46976832
210	0xbdbb3d90	-0.091426015
211	0x3d1b1dc0	0.03787017
212	0xbdc07fbb	-0.09399363
213	0xbec8e4cc	-0.39237058
214	0xbdba2bf9	-0.09090418
215	0x3edf5249	0.43617466
216	0x3ec23a55	0.3793513
217	0x3f0d2b87	0.5514454
218	0x3efaebc5	0.49008003
219	0x3dfe2af4	0.124105364
220	0xbe1cd006	-0.1531373
221	0x3f2892e2	0.65849125
222	0xbe144bfb	-0.14482109
223	0x3e1dc51f	0.15407227
224	0x3d3ca016	0.046051107
225	0x3c9a4b76	0.01883481
226	0x3f02935a	0.5100609
227	0xbf81f847	-1.0153893
228	0x3e761476	0.24031243
229	0xbe08a44b	-0.13343923
230	0xbcce8f88	-0.025214925
231	0xbe7b0925	-0.24515207
232	0x3bc343fd	0.0059590326
233	0x3e6852d3	0.22687845
234	0xbd11c481	-0.03558779
235	0xbc28c421	-0.010300667
236	0xbe278f74	-0.16363317
237	0x3d93608e	0.07196151
238	0x3e14bb53	0.14524584
239	0x3e420330	0.18946528
240	0xbe521d4d	-0.2051899
241	0xbd1c96c6	-0.038229726
242	0xbdf9a412	-0.12189497
243	0x3d933dcf	0.071895234
244	0x3de2d6c0	0.110761166
245	0x3ea47ef1	0.321281
246	0xbd2132a1	-0.039354924
247	0x3e27502a	0.16339174
248	0xbdf3c105	-0.1190205
249	0x3e5f4af8	0.21805942
250	0xbd960e89	-0.07326991
251	0xbd2f3fbe	-0.0427854
252	0x3e40f82b	0.18844669
253	0x3e5907b7	0.21194349
254	0xbf00671a	-0.5015732
255	0x3d857196	0.065158054

hidden_fc2.bias f4 [64]
0	0x3ebd1a44	0.36934102
1	0xbe7627a8	-0.24038565
2	0xbe1ddea5	-0.15416963
3	0xbcb00c62	-0.02149028
4	0xbe21d2f0	-0.15803123
5	0xbd9a7ec3	-0.07543709
6	0xbdc8972a	-0.09794457
7	0x3dba7100	0.09103584
8	0x3f0ebd2f	0.5575742
9	0x3c6037ce	0.01368518
10	0x3ee6e61e	0.4509744
11	0x3d506cdf	0.050885078
12	0x3e6d299b	0.23160402
13	0xbe575d43	-0.2103167
14	0x3c9ef3b1	0.01940331
15	0x3d94e35c	0.07269928
16	0xbe41fd09	-0.18944182
17	0x3ddef3f7	0.10886376
18	0xbddfc1d1	-0.109256394
19	0x3dc0d1a5	0.094149865
20	0x3eb4fd45	0.3534948
21	0xbd2d460f	-0.04230314
22	0x3ecfe5d1	0.40605024
23	0xbdc5e257	-0.096623115
24	0x3c2a6a44	0.010401312
25	0xbdaaec9d	-0.08345912
26	0xbe546f21	-0.20745517
27	0x3db8eadc	0.09029171
28	0x3e7c7c05	0.24656685
29	0x3e04a824	0.12954766
30	0x3e0d6e73	0.13811664
31	0xbd52c7ea	-0.051460184
32	0xbe1248b9	-0.14285554
33	0x3e9aee7a	0.30260068
34	0x3d197b7b	0.037471276
35	0x3ed328ee	0.41242164
36	0x3e4776f2	0.19478968
37	0x3d49ea3a	0.04929564
38	0x3e76589c	0.2405724
39	0x3ca97890	0.020687371
40	0x3f13a6dd	0.5767649
41	0x3ec5988a	0.3859294
42	0x3e4e0f74	0.20123082
43	0x3e81c587	0.25346014
44	0xbd6992cd	-0.057024766
45	0xbbf7cc0a	-0.007562165
46	0x3d47a8d4	0.04874499
47	0x3ee7c66d	0.45268574
48	0x3e41d98a	0.18930641
49	0x3ecdc4fc	0.4018935
50	0x3de8ecdd	0.11373303
51	0xbe8446f8	-0.25835395
52	0xbe8cad9f	-0.27476212
53	0xbe7c3e24	-0.2463308
54	0x3c246653	0.010034162
55	0xbe01006a	-0.12597814
56	0x3e543897	0.20724712
57	0xbe131539	-0.14363565
58	0xbe87cd46	-0.265238
59	0xbe0a1200	-0.13483429
60	0x3e274221	0.1633382
61	0x3e8df010	0.27722216
62	0x3e9fdffc	0.31225574
63	0x3ecb6f05	0.3973314

value_fc.weight f4 [1, 64]
0	0x3e7832e7	0.24238168
1	0x3c5168a8	0.0127813
2	0xbf12e3c0	-0.5737877
3	0xbd2f0cbe	-0.04273676
4	0xbda8e4d4	-0.082467705
5	0xbf5d8283	-0.8652727
6	0x3d4ca4d8	0.049961895
7	0x3e2ddcda	0.1697878
8	0x3e9d01b4	0.30665362
9	0xbf1cf464	-0.6131041
10	0x3e966a41	0.2937794
11	0x3e0ceed9	0.13762988
12	0x3e0c5071	0.13702561
13	0xbe92ad7a	-0.28647977
14	0x3df60248	0.12012154
15	0x3e12a694	0.14321357
16	0xbd223919	-0.039605234
17	0x3e58664b	0.21132772
18	0xbfad42e6	-1.3536041
19	0x3eaeddac	0.34153497
20	0x3e73ed56	0.23821005
21	0xbf1022f1	-0.56303316
22	0x3e9605e8	0.2930138
23	0x3bcd98df	0.006274327
24	0xba960a6b	-0.0011447197
25	0xbf0646d5	-0.5245183
26	0xbd9149eb	-0.07094177
27	0x3e8c8da4	0.27451813
28	0x3e1e5d47	0.1546527
29	0x3dc78e94	0.097439915
30	0x3e859b17	0.26094887
31	0xbd1c18f8	-0.03810975
32	0xbde87885	-0.11351112
33	0x3e3468c7	0.17618094
34	0x3d894324	0.06702259
35	0x3ea1ad43	0.315775
36	0x3dc4a58f	0.0960189
37	0x3e421a81	0.18955423
38	0x3d802308	0.06256682
39	0x3e942ef2	0.28942066
40	0x3ef040e3	0.46924505
41	0x3e8b3ef6	0.27196473
42	0x3e0cf7d6	0.13766417
43	0x3e3126dc	0.1729998
44	0xbfc5ddc5	-1.5458304
45	0x3ec9f3fc	0.39443958
46	0x3e0304ee	0.1279485
47	0x3e6a4772	0.22878817
48	0x3e4c6a52	0.19962433
49	0x3e8c15d2	0.27360398
50	0x3dddbe31	0.10827292
51	0xbed69452	-0.41910034
52	0xbd2d3be1	-0.042293433
53	0xbfefb03a	-1.8725655
54	0x3e9445a0	0.2895937
55	0xbe90d61c	-0.28288352
56	0x3e6a09bf	0.2285528
57	0x3db41313	0.087927006
58	0xbd494faa	-0.04914824
59	0xbe4a69d3	-0.19766931
60	0x3e4a426c	0.197519
61	0x3e6c9b3a	0.23106089
62	0x3e56d2f9	0.20978917
63	0x3e7d1956	0.24716696

advantage_fc.weight f4 [4, 64]
0	0x3c197383	0.009365919
1	0x3e07cd39	0.1326188
2	0x3f286fe1	0.65795714
3	0x3cb4eb26	0.022084784
4	0x3d8e5749	0.06950242
5	0x3ea652b3	0.3248497
6	0xbd064394	-0.03277929
7	0xbd3138ec	-0.043267176
8	0x3e47f078	0.19525325
9	0x3f800599	1.0001708
10	0x3de23a0b	0.11046227
11	0x3d9df53a	0.07712789
12	0x3e1f1f3c	0.15539259
13	0x3e1f974d	0.1558506
14	0x3d8ae023	0.06781032
15	0x3da2ec4b	0.079552256
16	0x3e2de559	0.1698202
17	0xbd8ed04a	-0.06973322
18	0x3ef8d801	0.48602298
19	0xbea8542f	-0.32876727
20	0x3e1c8fc2	0.15289214
21	0x3efe1428	0.49624753
22	0x3e0a5f03	0.13512807
23	0x3e70905a	0.23492566
24	0x3d97ffc4	0.0742183
25	0xbec8d654	-0.3922602
26	0x3de38ef9	0.11111254
27	0x3dcdaf7e	0.10043238
28	0x3cfbdaa7	0.03074391
29	0xbc031fe0	-0.008003205
30	0x3da40f02	0.08010675
31	0x3e039189	0.12848486
32	0x3bdf75a1	0.0068194424
33	0x3dde243c	0.10846755
34	0x3e842e4f	0.2581658
35	0x3e14eab7	0.14542662
36	0x3d11f16a	0.03563062
37	0x3e0a68e2	0.13516572
38	0xbe1aa38f	-0.15101455
39	0xbe177b4d	-0.1479313
40	0x3de10495	0.10987202
41	0x3d43a719	0.04776678
42	0xbd56e78f	-0.052466925
43	0xbbe6640f	-0.007030971
44	0x3eec3135	0.46131292
45	0xbd7ceb6a	-0.061747946
46	0x3e7714b9	0.24128999
47	0xbbf0d51b	-0.007349623
48	0x3e0af237	0.1356896
49	0x3ce612d2	0.028085146
50	0xbb9acaeb	-0.0047238967
51	0x3f07e591	0.53084666
52	0x3e5b18eb	0.21396224
53	0x3ff7e352	1.9366248
54	0xbd119726	-0.035544537
55	0xbddc72a2	-0.10764052
56	0xbdd7247f	-0.10505008
57	0xbdf2fedd	-0.118650176
58	0x3c78e119	0.015190386
59	0xbd913d92	-0.07091822
60	0x3d2a3b16	0.041560255
61	0x3d1a75d7	0.037710037
62	0x3cbec7a8	0.023288563
63	0x3e288fa3	0.16461043
64	0x3d52bc04	0.051448837
65	0x3e1fe143	0.15613274
66	0xbe91789b	-0.28412327
67	0xbb4566eb	-0.0030121158
68	0x3e0f1964	0.1397453
69	0xbf0c12cf	-0.547162
70	0xbcc0cf60	-0.023536384
71	0xbd0c9ff5	-0.034332234
72	0x3e6be8c0	0.23038006
73	0xbf0b4740	-0.54405594
74	0x3dc80335	0.09766237
75	0x3cea8427	0.028627468
76	0xbe07b132	-0.13251188
77	0x3df4908a	0.11941631
78	0x3e2bfc78	0.16795528
79	0xbd5c82be	-0.053835623
80	0x3da98324	0.08276966
81	0xb9b39ae7	-0.00034256952
82	0x3ea053be	0.3131389
83	0xbe543d5f	-0.20726536
84	0x3deaab4d	0.11458454
85	0x3e8cc6dd	0.2749547
86	0xbc0517f6	-0.0081233885
87	0x3e3325b9	0.17494859
88	0xbdf1c373	-0.11804857
89	0x3d373541	0.04472852
90	0x3e350a2a	0.17679659
91	0xbd8e8bb9	-0.06960244
92	0x3cbc0ac8	0.02295436
93	0xbd92b31a	-0.07163067
94	0x3d2ccaa1	0.04218543
95	0x3dc489a4	0.09596565
96	0xbe02eafc	-0.12784952
97	0x3e5a58b1	0.21322896
98	0x3e2abbda	0.16673222
99	0x3e02afe6	0.12762412
100	0xbd0b1d84	-0.033963695
101	0x3e6392a3	0.22223906
102	0xbe48363d	-0.1955194
103	0x3cb9579a	0.02262478
104	0x3db5f9db	0.08885547
105	0x3d44bd41	0.04803205
106	0xbc9be237	-0.019028766
107	0x3c97bf1e	0.018523749
108	0x3f0ec5c1	0.557705
109	0xbe914210	-0.28370714
110	0x3ca75aa1	0.020428957
111	0x3d6e0c38	0.05811712
112	0x3d6bbcba	0.05755303
113	0x3dc2dd31	0.09514845
114	0xbd9e78d4	-0.0773789
115	0xbea1b350	-0.31582117
116	0x3e409aff	0.18809126
117	0x3e36f250	0.17865872
118	0xbc7d81a4	-0.015472803
119	0xbe1c2d16	-0.15251574
120	0xbd537d2c	-0.051633045
121	0xbd26d03e	-0.04072594
122	0x3d88f2af	0.06686913
123	0x3d5bf2e6	0.053698443
124	0x3cc5ec1c	0.024160437
125	0x3cb6d88e	0.022320058
126	0x3d0b821d	0.034059633
127	0x3da45e29	0.08025772
128	0x3db6182b	0.088913284
129	0x3e48650c	0.19569796
130	0xbef0bf39	-0.4702089
131	0x3eea1de6	0.45725936
132	0x3da11412	0.07865156
133	0x3fc5e345	1.5459982
134	0x3daefc60	0.085442305
135	0xbdb75e47	-0.08953529
136	0x3e5d5602	0.2161484
137	0x3e8d01ca	0.27540427
138	0x3e00c823	0.12576346
139	0x3d96317b	0.073336564
140	0x3f06188b	0.523812
141	0xbe1af2a2	-0.1513162
142	0xbd94ebb6	-0.07271521
143	0xbd4ad8b0	-0.049523056
144	0x3dca7b0e	0.09886752
145	0x3ce768c1	0.028248193
146	0x3f76bbec	0.96380496
147	0xbca56183	-0.020188099
148	0x3cbd46fd	0.023105139
149	0x3ee6a31c	0.45046318
150	0x3d919af2	0.071096316
151	0x3dd88c89	0.1057368
152	0xbe15319b	-0.14569704
153	0xbe3cb7af	-0.18429445
154	0x3def73cf	0.116920106
155	0xbebf1a78	-0.37324882
156	0xbcdbc2a7	-0.026826216
157	0x3cb70ef6	0.022346001
158	0xbf5434ac	-0.8289287
159	0x3cce60f9	0.025192725
160	0x3ecd6dd3	0.40122852
161	0x3e4f4dbc	0.20244497
162	0x3d8d48d3	0.06898656
163	0x3e46da7e	0.19419286
164	0x3ca5cb13	0.020238435
165	0xbe85b3b7	-0.26113674
166	0x3f121241	0.57059103
167	0x3dadcc55	0.08486239
168	0x3d1db979	0.03850696
169	0x3d48d953	0.04903538
170	0x3e2b5ec9	0.16735376
171	0x3d420359	0.047366474
172	0x400690dd	2.1025918
173	0xbeee4908	-0.46540093
174	0xbe5fc034	-0.21850663
175	0xba5abc36	-0.00083440857
176	0x3dc34449	0.09534509
177	0x3de1c30e	0.11023532
178	0xbe047f2e	-0.1293914
179	0x3e554837	0.20828329
180	0x3de9872a	0.114027336
181	0x3ed88506	0.4228899
182	0x3e393029	0.18084778
183	0xbded62cd	-0.115911104
184	0x3d54fc16	0.05199822
185	0x3cb08ba6	0.021550965
186	0x3dae960e	0.085247144
187	0x3e06df0d	0.13171025
188	0x39bf3576	0.0003647019
189	0x3dd9e475	0.10639278
190	0x3d21bce5	0.039486784
191	0x3d08338b	0.03325228
192	0x3ded62e2	0.11591126
193	0x3e1877e5	0.14889486
194	0xbe8b4a4e	-0.27205127
195	0x3de45b14	0.11150184
196	0x3dc18fc9	0.09451253
197	0x3d22368f	0.039602812
198	0x3db57568	0.08860284
199	0xbc158630	-0.009126231
200	0x3e38d317	0.18049274
201	0x3f2be9dd	0.6715372
202	0x3df6e101	0.12054635
203	0xbe05c9ed	-0.1306531
204	0xbe14b4c9	-0.14522089
205	0x3ee09f06	0.43871325
206	0xbd08da14	-0.0334111
207	0xbe111848	-0.14169419
208	0xb8d3d09a	-0.00010100119
209	0x3daf15aa	0.08549054
210	0x3eb8e2a4	0.36110413
211	0xbdd8697d	-0.10566995
212	0x3e17a5af	0.14809297
213	0x3e47e115	0.19519456
214	0x3e5f404e	0.21801874
215	0x3c1e59f4	0.009665001
216	0x3ea10440	0.31448555
217	0x3f8529ef	1.0403422
218	0x3e688a8b	0.227091
219	0x3ea201e3	0.31642064
220	0xbd28988c	-0.041161105
221	0xbdd6847d	-0.10474489
222	0xbf46d6a9	-0.77671295
223	0x3e95e616	0.29277104
224	0xbd62f554	-0.055409744
225	0x3e5c6f00	0.21526718
226	0x3df4ee0a	0.11959465
227	0x3da83009	0.08212287
228	0xbe8064c4	-0.25076878
229	0xbd163f4c	-0.03668146
230	0x3ec8269f	0.39091966
231	0xbe64b317	-0.22333942
232	0x3d477833	0.048698615
233	0x3d6c7c65	0.05773582
234	0x3e22841b	0.15870707
235	0xbd7c6386	-0.06161835
236	0x3ea59aea	0.32344753
237	0x3e5fa462	0.21840051
238	0xbd7b0dff	-0.061292645
239	0xbccbaff0	-0.024864167
240	0x3de2cac8	0.11073834
241	0x3dd4d6cf	0.10392534
242	0x3e0dac1e	0.13835189
243	0x3f4c5f0c	0.7983253
244	0x3e1a2eaa	0.15056863
245	0x3ed5e68e	0.41777462
246	0xbf3d62b7	-0.7397875
247	0x3f9baa48	1.2161341
248	0xbd969dd0	-0.07354319
249	0xbd4ccb7e	-0.049998753
250	0x3e3e78fb	0.18600838
251	0x3d46ed1d	0.048565973
252	0x3e5b8305	0.21436699
253	0x3d13d229	0.036089096
254	0x3d002297	0.031282987
255	0x3d50d2e0	0.050982356

advantage_fc.bias f4 [4]
0	0xbe831e20	-0.2560892
1	0x3dd6a4a8	0.104806244
2	0x3d8d90be	0.06912373
3	0xbdaedb54	-0.08537927
