model_v3_t.0005.pt (torch, 30639 bytes, 7 tensors)

hidden_fc1.weight f4 [64, 37]
00000000: 3fa0 6e3c 1ae6 a0be 6434 d0bc 0ae5 003e
00000010: d816 1fbe e9c7 2dbd e2c9 d73d 75d7 1ebe
00000020: cdbb 2e3e 5e09 0a3e 9c34 b4bc 8800 a8be
00000030: ed01 a7bc 6a56 17be a3ab 54be d913 3fbe
00000040: a860 c6bd 4714 c0bd dfa4 b2ba 8fc2 753e
00000050: 76cb 3d3d 0501 2c3d 2f30 17bd b14b b93d
00000060: 97b7 273c f41e a6be 6dde 5d3c 16a1 393e
00000070: 7243 7d3d 0540 e33b cadc 1fbb e32a fcbd
00000080: 1f14 8abd 1297 a8be 4e89 22bf b70f 313e
00000090: 501f f13c f757 4ebd eb04 143c 002f 03bd
000000a0: 8b10 473c d29b 15bd c5db cfbd 7a31 2f3c
000000b0: 556c acbc a0aa 653c f564 833d 007c da3d
000000c0: bb20 aa3d eff5 b83d 1867 123e de4e 003e
000000d0: 32c6 1bbd 4449 1abd 0505 67bc d18d 17bd
000000e0: eb77 34bc 4636 753e 72d4 24bf 0254 fdbe
000000f0: ac71 2cbf 8d3a 0bc0 4350 813c 43a3 5dbd
00000100: c19a f2bc 7f89 073e 9ba1 2a3e 6463 52bd
00000110: 18e5 39bd 7a82 4bbb 578e fe3d 9c38 f23d
00000120: 65a7 91bc f965 ddbb 4264 fe3d 03df bfbd
00000130: 3008 23be 0949 52bd cbe5 dbbd 4a4a a0be
00000140: d04e 05be f707 9ebc ad94 87bd 4f6c c13e
00000150: cb7e 81bd d15d bbbe cae3 a73d 45b5 dbbd
00000160: 22cc edbd be99 603e 1d20 7abe 492d 69bd
00000170: 4dc3 0bbe 1397 e4bd 969d c53d 1967 b33d
00000180: 5a5e 61bd 2de3 2abd 3706 433d aaa8 40be
00000190: 3dfd 3cbe dc17 9b3e 6179 3d3e ee99 223e
000001a0: 970b 3f3d b770 503e 4348 16be 4136 f4be
000001b0: f4bc 113e 5fb4 383d 2727 2ebb c89f c43d
000001c0: 8c02 37be 05a4 3d3e fbbd 85be d386 d8bd
000001d0: d4e9 26be a382 12bf 0b75 c23c d6e3 bebc
000001e0: 5575 073e 78b6 203e 74e5 28bd 9fb7 1e3d
000001f0: 007a 46be e846 e8bd ea01 543e fb4b 59bd
00000200: 7564 ecbe f41c c6be b458 15bf 0a31 0bbd
00000210: 3ad1 463e fda1 1c3e 96a7 f63d 068a b13e
00000220: 6a67 2c3d a57c b2be d3ec f4bd d2e2 33bd
00000230: a17d 46be 10cb 6dbe 2119 063d b1d5 2d3e
00000240: ab1a 85be a888 33bd 4b68 28bd 5acb 9a3b
00000250: 897b 04be 5a43 96be 1862 7c3e 7a76 173e
00000260: bb4a 0abd 6329 3abf 9e51 173c 02e1 d43e
00000270: eb35 a6be 7098 82be 14ef 01bf b8ea 82be
00000280: 4a88 693e 76a7 57bd 7b8b b9bc 485f cabe
00000290: 28de 04be 251b 7f3e d4cb 6fbe ddb3 f9bd
000002a0: 0358 96be b102 3ebe c709 38be 3ea8 9c3d
000002b0: 8eff 373e e620 46bf fa67 5e3e 010d 723d
000002c0: b23a abbe 16dd e1bd 37f8 e0be 3df1 b23b
000002d0: db82 453e 8889 bbbd 29dd 0fbf 7ed3 b23b
000002e0: ecfe 2cbd 3fc0 c03b b02f afbc b4e9 233c
000002f0: ffe4 073d e364 563c d71f 1a3e 715d 063e
00000300: 482c e73d 6994 2b3e 354f 953d 6318 b53b
00000310: f70c 683d 819e 2f3c efa6 04bc f59a 52bd
00000320: 2132 d03d 53c8 983d cda9 993d 28f4 0f3e
00000330: 01cb 993d 85be baba a546 b43c 5491 333c
00000340: 0464 0d3c e960 89bb 5016 133f 300d 02bf
00000350: e5f2 0abf a2c6 2cbf a600 22c0 cf17 053d
00000360: f0b0 533d ef0b 9f3d c17f bb3d 2618 2f3d
00000370: 4165 863c 7c3f 3e3b 107a 1f3e ba9e 61be
00000380: 9c78 063e e7d0 ed3c 9ab5 213e b56e 30be
00000390: 7299 05bc eb89 633e 9bfb a13e 80cd 82bc
000003a0: 7ceb 073e fe90 553e f0b9 6a3d 4419 a2bd
000003b0: e39d 08bf 6b04 43be 45e7 af3d e87e 873d
000003c0: 2d69 2f3e dbea 2e3c 7732 e63d c741 ebbd
000003d0: d44f 6fbe a8a3 983e 3453 eb3d e755 913c
000003e0: d965 5cbe ba1e 86be 2e60 f8bd 7ff9 c43d
000003f0: 886e 9c3e a568 58be 339e c9be f78a cabe
0.014564573 -0.31425554 -0.025415607 0.12587371 -0.15536058 -0.042426977 0.10536553 -0.15511878
0.17063828 0.13480136 -0.021997742 -0.32812905 -0.02038666 -0.14779058 -0.20768599 -0.18659915
-0.096864045 -0.093788676 -0.0013629458 0.24 0.046336614 0.04199316 -0.036911186 0.0904764
0.010236642 -0.3244549 0.0135418 0.18127856 0.0618319 0.006935122 -0.0024393075 -0.123128675
-0.06742119 -0.32927758 -0.6349076 0.17291151 0.029433876 -0.05037686 0.009034376 -0.032027245
0.01214994 -0.036525555 -0.101493396 0.0106929485 -0.02104775 0.014017731 0.064157404 0.106681824
0.08307024 0.09031283 0.1429714 0.12530085 -0.03803081 -0.037667528 -0.014100318 -0.03700048
-0.011014919 0.23946485 -0.64386666 -0.49478155 -0.6736095 -2.1754487 0.015785342 -0.054110777
-0.029614808 0.13236044 0.1666321 -0.051364318 -0.045384496 -0.0031053112 0.12429493 0.11827204
-0.017780015 -0.006756541 0.124214664 -0.09368708 -0.15921092 -0.051339183 -0.10737189 -0.31306678
-0.13018346 -0.019290907 -0.066201545 0.37777945 -0.06323012 -0.36595014 0.08197744 -0.10727934
-0.11611201 0.21933648 -0.24426313 -0.056927953 -0.1364872 -0.111616276 0.09649198 0.08759899
-0.05502162 -0.041720558 0.04761335 -0.1881434 -0.18455978 0.3029164 0.18503334 0.15879032
0.046641912 0.20355497 -0.14676003 -0.47697642 0.14232236 0.04509389 -0.002657363 0.09600788
-0.17872065 0.185196 -0.26121506 -0.10572591 -0.16300136 -0.57230586 0.023737451 -0.023302
0.13228352 0.15694606 -0.04123445 0.038749333 -0.19382477 -0.11341649 0.20703855 -0.053050976
-0.46170393 -0.38693964 -0.58338475 -0.033982314 0.19415751 0.15296169 0.12043683 0.34675616
0.04209081 -0.3486072 -0.11959233 -0.043917485 -0.19383861 -0.23221993 0.03273881 0.16976048
-0.2599691 -0.043831497 -0.041115087 0.0047239484 -0.1293775 -0.2934826 0.24646795 0.14791289
-0.033762675 -0.727194 0.009235768 0.41577917 -0.3246301 -0.25506926 -0.5075543 -0.255697
0.22805896 -0.052649938 -0.022649517 -0.3952582 -0.12975371 0.24912699 -0.23417598 -0.12192509
-0.29364023 -0.18555714 -0.1797248 0.07649277 0.1796858 -0.7739395 0.21719351 0.059094433
-0.33443218 -0.11028497 -0.43939373 0.0054608868 0.19288199 -0.091570914 -0.5619684 0.0054573407
-0.0422353 0.0058822925 -0.021385044 0.01000445 0.033177372 0.013085577 0.15051208 0.13121583
0.11287743 0.16755833 0.07290498 0.0055265888 0.05665299 0.010718943 -0.008096441 -0.05141731
0.10165811 0.07460084 0.0750309 0.14057982 0.07509423 -0.0014247453 0.022006342 0.010959942
0.008629803 -0.004192461 0.5745592 -0.5080137 -0.5427688 -0.6749059 -2.5312896 0.03249341
0.051682413 0.07765948 0.091552265 0.04274764 0.016405703 0.002902954 0.15573907 -0.22033206
0.13131946 0.029030276 0.15791932 -0.17229731 -0.00815426 0.2222058 0.31637272 -0.01596713
0.13273424 0.20856091 0.05730623 -0.07914975 -0.53365916 -0.19044654 0.08589033 0.06616002
0.17129965 0.010676111 0.11240094 -0.114871554 -0.23370296 0.2981236 0.11490479 0.017741157
-0.21523227 -0.26195318 -0.1212772 0.096179 0.3055308 -0.21133669 -0.3937851 -0.39559147

hidden_fc1.bias f4 [64]
00000000: 7690 373c f12b ce3d e1b6 15be 2493 afbd
00000010: 4b38 ee3c ea31 ac3d 96d3 75be 9fd3 91be
00000020: 0e1c 44bd 02c4 67be b7e8 723d 899b 8abe
00000030: 6c58 22bd 074f bebd 1e4f e0bd c48b 65be
00000040: 29c6 32bd beef d7bd f79e 153e fe0b ec3d
00000050: 2749 7b3d 70c5 6c3e cab7 81bd 643e b63d
00000060: 6e1d b2bd e0a9 8abe c5e2 20bd 0e9e 5abe
00000070: 4074 80bc 4f25 583d ce30 dc3d a242 673e
00000080: 6e05 c03d d252 80bc e953 7cbe 5cad a3bc
00000090: 492b cdbd 7813 193e 4a72 26be f031 973d
000000a0: f130 40be a6ed 6bbe 0bf9 f03d 4163 11be
000000b0: fe65 4ebc 950e 003e a8a6 53be 9bdd 3abd
000000c0: 4b11 3d3e e8cb 80bd f811 5cbe 8f06 d43d
000000d0: f628 c63c ad0e b3bd 86ef 0c3e 430b 39be
000000e0: b9e9 21bc da3b b4be 7d9f 8d3d efe7 76bd
000000f0: 9181 74bc b56e cdbd 8fec 9dbd 6b2f 323e
0.011203876 0.10066975 -0.14620544 -0.08572987 0.029079577 0.08407958 -0.24006495 -0.28481767
-0.047878318 -0.22633365 0.059303965 -0.2707179 -0.039635107 -0.09292417 -0.109525904 -0.22416598
-0.04364601 -0.10543774 0.14611422 0.11525725 0.06134906 0.23122191 -0.06333883 0.08898619
-0.086970195 -0.2708273 -0.039278764 -0.21349356 -0.015680432 0.052769955 0.10751496 0.22584012
0.09376036 -0.015664492 -0.24641384 -0.019980125 -0.100180216 0.14948833 -0.16254535 0.07382572
-0.1876867 -0.23039874 0.11766251 -0.14198019 -0.012597559 0.12505563 -0.20669043 -0.045621496
0.18463628 -0.06288892 -0.2149123 0.103528135 0.024189454 -0.087430336 0.13763246 -0.18070702
-0.009882384 -0.35201913 0.069151856 -0.060279783 -0.014923469 -0.10030881 -0.077111356 0.17400901

hidden_fc2.weight f4 [64, 64]
00000000: ec8d c13d dc5d 033f 1c40 173d 3879 19be
00000010: 2774 dd3d e135 03be 9318 ce3d 698f 48bd
00000020: ef8b f03e aebd f6bd fdae 8fbe d365 4a3e
00000030: 16ec 4f3d 3a8a 73be 9eed d9bd cc97 e0bc
00000040: c655 57bc fe1d 283d fd0c f0bc e35b 84be
00000050: 9151 733e d1a5 61bd a099 373d 56f9 8f3d
00000060: 6932 9d3c 500d 513d 2b7d 833c f8fe 433e
00000070: a3f8 fc3e 510e 5c3d 0281 9dbe 2b84 d4bd
00000080: 77be 20be 87bd 4c3e 41a9 b9be 5969 51be
00000090: 8e76 513d fe1d dd3e 41a2 a93e 1dea 0fbe
000000a0: 3a01 59be b226 8b3c 872c 31be 523c 903d
000000b0: c0d4 e33c 1965 0abe 5ee6 07bf 1668 56be
000000c0: 3afd 57be 6fc5 9b3e 23c4 3abd 1470 adbc
000000d0: 63be 293d 79b9 a6be c325 e33d a0fb 81be
000000e0: d3ce 99be 77da 07bf e61b db3d 3cee 0cbf
000000f0: 6422 14bc e7ad bb3e d5b1 47be 6dfe 63bc
00000100: ff76 e33d fb73 793d 3e5a e53d e9d4 50bd
00000110: 70d6 bbbe 5ac9 85be 2edf 2c3d 1be9 b03c
00000120: 5775 b93c 9d50 2cbe 660e ca3e a87f 213e
00000130: 54ed 31bd bde4 d43e b754 25be fc5e 58bc
00000140: e966 093e 8f43 de3e 3ffc 163e 8243 b3be
00000150: ac5f 29bd 60a3 eabd 2199 32bd 6a07 5e3d
00000160: d963 9b3c aa54 f2bd 74e1 b8bc 7c72 963e
00000170: 1181 26be 43d7 503c a76d cb3e 0aaf 9f3c
00000180: 1254 f1bb 9b3c e0bc f2a8 57be 501d 223d
00000190: 8d33 48be 161a 053f f598 923d 31a6 303e
000001a0: ef8f 033d 5d45 413d cb05 d43d 257e d9bd
000001b0: a131 6b3c 867b 3f3e 2454 aebd 7bf9 f4be
000001c0: 7119 6dbd 44fb f73c f494 7fbc 66fa debd
000001d0: 3ea1 a5bd c6b6 aebd 7d92 443d da33 883e
000001e0: e95a 9cbe 0abd 3ebe 2f68 a7be f6d9 9c3e
000001f0: d63f 793e 30b8 4abe 260d 1ebe e3f8 12be
00000200: 8461 fd3d dfd3 1ebd 88a5 053e 6cb9 4f3d
00000210: 29b2 c33c e2c4 2b3d 5238 9b3d e30b 90bd
00000220: 52dd 313c 8d94 183e 22c4 9d3d 30bd 833d
00000230: 5e8a 42ba 9666 b7bd c84a 813d 3c64 233e
00000240: 22b3 06bd ba4e 683c bb37 86bd 2b98 d1bd
00000250: 6158 aebc bffd 793e 2305 013e ca99 ad3d
00000260: 648d b5bd 3677 2b3e cf7c 373e 62fa d13d
00000270: ee47 cabd 5ee1 dc3d da73 5c3d 777d 723e
00000280: 97a2 363e 6b9b 853c d306 d23d 38fa 8ebd
00000290: c873 533e cc60 4e3e 1763 7bbc 47bc 573d
000002a0: 91d0 6a3d be3e 21be 5f4f 3f3d 8b32 d1bc
000002b0: 1642 053e b07b d03e bcb5 da3c edd3 dcbc
000002c0: 8b4c 9f3d 428d ac3d cb61 403d 83d2 233e
000002d0: 1444 4d3e cebe ca3d 713e a43b db7f 5d3d
000002e0: d549 27be c717 cc3d b9b4 71bd 4f20 1b3e
000002f0: 1eb3 e03d a10b 263e bd4d 083e ab53 87bd
00000300: 7bcc 22bd b8d8 2bbf 1f9b 34be ba41 52bd
00000310: 17d7 e7be cb40 b73e 8534 aebd f032 9f3d
00000320: f092 73be 6ab0 863c 1712 7c3e 3d53 803d
00000330: 48f8 ba3c b4c1 ce3e 26a9 44be 1221 4c3e
00000340: f5de 513e a26b 143b 4f1a 383c 0ab9 c73e
00000350: 2517 c13e 99b8 f23c e07f bcbc b2dc d2bc
00000360: ec2e 4b3d 410b 41be afc4 a03c a7a1 4a3c
00000370: 723c d53e eeeb f7bd 3108 b8be 277e 90bc
00000380: 819c eabe 21b0 6c3e 1705 14bf 13f9 86be
00000390: 3cb1 6abe a9ea 243e 3e09 b63c 4d83 2b3e
000003a0: 7b48 50bd 1c57 a83c 48b9 9b3d 0cca 6cbe
000003b0: 90ac 553b b6de 8bbe 5fd6 763e f355 50be
000003c0: 2106 a1bd e882 a0bc 04b0 91be ff57 1b3d
000003d0: 4589 aabd b2f7 85be 5b1b 74be 0167 0dbe
000003e0: a523 94be 9350 4cbd a352 403c 2991 b3be
000003f0: 70e3 0fbd 1f43 fbbd fa96 e6bd 830b ca3d
0.094508976 0.51315093 0.036926374 -0.14987648 0.1081317 -0.12813522 0.10063281 -0.04896489
0.4698176 -0.12047897 -0.28063193 0.19765405 0.05076226 -0.23783198 -0.10641025 -0.027416132
-0.013143009 0.041044228 -0.029303068 -0.25851354 0.23761584 -0.055089775 0.044824243 0.07029979
0.019189076 0.051038086 0.016050896 0.19140232 0.49408445 0.05372459 -0.30762488 -0.103767715
-0.15697657 0.19994174 -0.36261943 -0.20450343 0.051138453 0.43186945 0.33131602 -0.14054151
-0.21191874 0.016986225 -0.17302142 0.07042755 0.027811408 -0.13515128 -0.5308589 -0.20938143
-0.21092692 0.30424067 -0.045597207 -0.021171607 0.041441333 -0.3256338 0.11091187 -0.25387287
-0.30040607 -0.53067726 0.106986806 -0.55051017 -0.0090414025 0.36656114 -0.19501431 -0.01391564
0.11106681 0.060901623 0.11198853 -0.050984297 -0.3668704 -0.26130182 0.04220503 0.021595528
0.02263896 -0.16827627 0.3946411 0.15771353 -0.043439224 0.41580763 -0.16145597 -0.01320624
0.13418163 0.43410918 0.14744662 -0.35012442 -0.041351005 -0.114569426 -0.043603066 0.05420629
0.01896851 -0.11832555 -0.022568442 0.2938422 -0.16260172 0.012746635 0.39732096 0.019492645
-0.0073647583 -0.027372649 -0.21060541 0.039578736 -0.19550915 0.5199293 0.071580805 0.17250897
0.032119688 0.04718529 0.103526674 -0.10619763 0.014355094 0.18699464 -0.08512142 -0.47846588
-0.05788559 0.03027118 -0.015599478 -0.108876035 -0.08087395 -0.08530955 0.047991265 0.2660206
-0.3053811 -0.186268 -0.32696673 0.3063504 0.24340758 -0.19796824 -0.15434703 -0.14352755
0.12372115 -0.038776275 0.13051426 0.05071394 0.023888664 0.04193581 0.075791016 -0.07033517
0.0108559895 0.14900418 0.07703425 0.06432569 -0.0007421131 -0.089551136 0.063130915 0.15956205
-0.032885678 0.014178926 -0.065535985 -0.10234102 -0.021282377 0.24413203 0.12599616 0.084765986
-0.08864859 0.16744694 0.17918704 0.10252835 -0.09877001 0.10785173 0.053821422 0.23680674
0.1783546 0.01630946 0.10255208 -0.06981319 0.20649636 0.20154113 -0.015343449 0.05266979
0.05732781 -0.1574659 0.046706554 -0.025536796 0.13013491 0.40719366 0.026697986 -0.026956523
0.07778271 0.0842538 0.046968263 0.15998273 0.20045501 0.09899674 0.0050123264 0.05407701
-0.16336758 0.09965473 -0.05901024 0.15149044 0.10971664 0.16215374 0.13310905 -0.06607755
-0.03974579 -0.6712756 -0.17637299 -0.051332213 -0.45281288 0.3579162 -0.08506111 0.077733874
-0.23786521 0.016441543 0.24616276 0.062658764 0.022823468 0.4038216 -0.1920515 0.1993449
0.20495208 0.0022647162 0.011236741 0.3900836 0.3771297 0.029629039 -0.023010194 -0.025740001
0.049605295 -0.1885195 0.019625036 0.0123676425 0.4164768 -0.12105547 -0.3594375 -0.01763828
-0.45822528 0.23114063 -0.57820266 -0.26361904 -0.22919172 0.16105141 0.022221204 0.16749306
-0.050850373 0.02054935 0.07603699 -0.2312395 0.0032604076 -0.27318352 0.24105214 -0.20345287
-0.07862497 -0.019593671 -0.28454602 0.037925716 -0.08326963 -0.2616554 -0.2383856 -0.13808824
-0.28933445 -0.04988153 0.011738452 -0.35071686 -0.03512901 -0.12268662 -0.11259265 0.09865477

hidden_fc2.bias f4 [64]
00000000: 56c5 883c 010e 4e3d bc7c e23e 1014 b03d
00000010: 28d0 153d 959d ec3d fd51 6ebe a5f6 fd3e
00000020: a5f1 c1bd f27f 8fbd a3cc 423e 67d2 8dbe
00000030: af4b d93c d659 83bd 4ffd e53e ae62 c03d
00000040: a342 1a3e 013f 1cbe da1c 913d afe1 163f
00000050: d9e3 96be 394b 753b 321a b53d 31c2 83bd
00000060: 12b6 32be 78fa 943d 48a7 89bd b605 863d
00000070: 2646 34be 21f3 513d 1e64 dbbe 867c 27be
00000080: 2ee9 92be 6ac0 8dbe daf4 4c3e 474d 8bbe
00000090: 02be 0e3c 8bfe 60be 243b 2d3d 0dc3 15be
000000a0: c688 bb3d 8bd8 383e 5fcf 163f 5858 b43e
000000b0: d854 783c 64f0 1b3c 0cd0 a13c 3816 94be
000000c0: 7acd 79be db62 ab3e 68b8 4f3e d7ac a7be
000000d0: a0bd b33e 6902 b7be 3d1d bbbe 679c c73e
000000e0: 11ba c4bc 5fc7 aa3e 716d 09be 807d acbc
000000f0: 6320 a1be 0d63 2cbe 4da7 853e d6d4 623e
0.01669566 0.050306324 0.4423579 0.085975766 0.036575466 0.11553494 -0.23273464 0.49602237
-0.09469918 -0.070068255 0.19023375 -0.27699587 0.026525347 -0.06413619 0.44919822 0.09393822
0.15064482 -0.15258409 0.07085581 0.58938116 -0.2947071 0.003742887 0.08842887 -0.064335234
-0.17452267 0.072743356 -0.067213595 0.06544058 -0.17604885 0.051257256 -0.4284982 -0.16356096
-0.28693527 -0.27685863 0.20015278 -0.27207395 0.008712294 -0.219721 0.04229273 -0.14625187
0.09156947 0.18051355 0.58910173 0.3522365 0.015156947 0.009517763 0.019752525 -0.28923202
-0.2439479 0.33473858 0.20285189 -0.32749054 0.3510561 -0.35744026 -0.36545745 0.38986513
-0.024014505 0.33355233 -0.13420655 -0.021055937 -0.31470022 -0.1683466 0.26104203 0.22151503

value_fc.weight f4 [1, 64]
00000000: 9d42 3a3e 63df 0b3e bd68 853e f662 383e
00000010: 5e4e bb3e d728 6d3e 5cb7 b8bf bfd6 863e
00000020: 7adb 18bf fc8c f2bd 35fc a13e 5459 62bf
00000030: 09ae 043f a73c 863c 316d 793e ab90 ae3d
00000040: 9c97 203e c58e a9be 4b17 0d3e 309e a43e
00000050: acef 9fbe e586 c03e 7159 723d 2609 5bbd
00000060: 2bd4 43bd 130f 993e bebd 3b3f 5c22 a3b9
00000070: 439f 6bbd da05 e7ba e87f e6be 2bd2 1fbb
00000080: f923 87bf 4ab0 543f b64a 313e e889 32bf
00000090: b0e7 f83e d14b 5bbe 4c15 9c3e 4902 71be
000000a0: 87ae 733e bd28 153e ce96 b43e 6bd2 5e3e
000000b0: 967b ba3e 7a63 893e d50f a53d ad8c 66be
000000c0: 9b3c debe 5b2d 9c3e d4fd 433e b1f7 59be
000000d0: 44b6 643e 813c 88bf c913 143f ea04 453e
000000e0: 68b7 26be de4f 9a3e b7cc 263e fe14 83bc
000000f0: 0a42 8dbe cbbc 7bbf d9e8 bb3e 46a2 2b3e
0.18189473 0.13659434 0.2605647 0.180065 0.36583227 0.2316011 -1.4430957 0.26335713
-0.59709895 -0.11843297 0.3163773 -0.88417554 0.51828057 0.016386343 0.2435806 0.08523687
0.15682834 -0.33116737 0.13778417 0.32151937 -0.31237543 0.37602916 0.05916733 -0.05347552
-0.04780976 0.29894313 0.733364 -0.00031115382 -0.05752493 -0.0017625645 -0.4501946 -0.0024386744
-1.0557853 0.83081496 0.17313656 -0.6974168 0.48614264 -0.2141564 0.30484998 -0.23536028
0.23797046 0.14566322 0.35271305 0.21759956 0.36422414 0.26833707 0.0805966 -0.22514601
-0.43405613 0.30503353 0.19139796 -0.21285893 0.22335154 -1.0643464 0.5784269 0.19240156
-0.16280901 0.3013906 0.1628903 -0.01600122 -0.27589446 -0.9833495 0.36701086 0.16761121

advantage_fc.weight f4 [4, 64]
00000000: 8125 8a3d 7328 383d c0a6 003e 7cd0 c53d
00000010: 1fcb 413e 03a5 21be 4395 393f 5a91 2a3d
00000020: 8363 4d3f f368 b53d f435 a83c 4c38 b33e
00000030: bebc 34bc 70d6 063e 90cb fc3d 8310 9d3e
00000040: 5ec7 04bc 66b4 8b3f a570 093e aab7 0a3e
00000050: 00f0 9c3e 2c53 143c 0ff3 883d cc4f 9c3e
00000060: d2c0 1d3e 67f8 0d3d 7f32 b0bc 0cef 973d
00000070: 3c21 f63d 8ae5 8d3e 926d 933c 3ece 993e
00000080: 398c 453f 8a5e 813e dec7 ea3b 53f8 8e3f
00000090: c91a 6abe af90 46be 80ff e7bd 778f 103e
000000a0: 1dc6 09be 397f 883a 95ee 90bb f21f ea3d
000000b0: d240 90bd e5c0 55be f088 cb3d 504d 1d3e
000000c0: bc08 243f ec85 f13d 78d9 793e 1074 d43e
000000d0: 2e9d a4bd feaf 9c3e 38e3 dabe 78fe b63d
000000e0: 7501 20bd b40b 0e3d 83ce b63e e695 953b
000000f0: 4ec1 be3d fa15 733f 854c c2bd 5b90 773e
00000100: 4dd9 81bd a10a f63b 2413 1b3d c372 573d
00000110: d5a9 18be be46 67bd a40d 803f 8341 2a3e
00000120: 7598 96be 471e 94bd bf96 3c3c 6172 3dbd
00000130: 7e3f 02bd 7309 cabd 7dcf 8d3d 96f2 883d
00000140: a538 823d 8bad d0be 02ef 75bc d4b7 d23d
00000150: 219c 7b3e 359c b93d dbf6 103e 26d1 3a3e
00000160: d0eb 013e 60e5 f13d 59f1 a3be 8a51 043e
00000170: 1657 183e 5255 0e3e 70bb 84bd 7b48 423e
00000180: 41c7 fcbd 17fe f83d 06af 79bd 0ff9 cfbe
00000190: b719 393d 1f80 ff3b 84b3 32be ec92 a23e
000001a0: c234 2cbd 1fa1 3bbd 7bc8 163d 2bc6 e63d
000001b0: 68a3 25ba ddae 46be 9ee3 243d 4636 0abd
000001c0: 1f97 4f3d 18c7 883d 3b60 5f3d 1441 1e3f
000001d0: c3d5 27bc e5a8 18bd 25d9 f8be beb4 8c3c
000001e0: ef75 4a3c eda2 43bc f0dc b03e 5ac5 f63d
000001f0: a5ce 9e3d fe1b d73e 7b27 aabb 4bd6 953d
00000200: 5d70 43be f9ca 34be 2c1b 053e 3fa5 ec3c
00000210: 2d82 e0be f5ea 18bc b35d 2c3f 881e 7a3d
00000220: feb3 683f 3c9b 22be b656 8d3e 7da0 243f
00000230: 6e82 e0bd b8f7 d93e 0b40 bf3d f801 40be
00000240: d334 cbbd 8b9d 91be c0ae 56be 8f71 74bd
00000250: 7e04 813b d61e 523e 05f0 6ebe b8c0 073e
00000260: 06ee db3d 294c 5e3d 2e5d 5fbe c6ae 853e
00000270: e0cb 613e a420 a0be 661f b53e 87ac 3d3e
00000280: 4cb2 123f bdc5 82bf e6fd 00bd d27f 6a3f
00000290: 30d0 1b3e 38e1 cdbc fbbe 053e 8780 df3d
000002a0: 488e 473e 7fd9 783e db17 a23d 2c5c 583d
000002b0: 5bbc 853e 13b0 983e 6687 253f 63c6 563e
000002c0: 0a72 983e 2673 e23c bec4 7ebd a39e cd3b
000002d0: be54 6fbd 27f6 653f 5e13 1e3f 34a0 67bd
000002e0: f663 b93d 33f5 223e c974 babe e993 2b3e
000002f0: 801a 37be 4e93 a43f bd5f c13d ef5c f5bb
00000300: b6e5 8a3e c027 9cbd 449e 203e 176c 95bd
00000310: 9c42 2a3e a55c a33e 3b97 bb3d b1f6 0a3e
00000320: e25b d63e 8d99 c73e bc8e be3d c7ba 453f
00000330: 1b18 2dbc a497 93be 177e b33c 77bb a53c
00000340: cf52 40bd b514 b8bd af48 f03d 8bff 1f3e
00000350: 70b4 b73c 9257 50be d597 14bd 887f 93bc
00000360: 046e 5e3e 0480 173d 6e9f 5fbf 2c29 25be
00000370: f4e9 523e f17d 023c e1cb ecbe 6a40 98be
00000380: 324d c6bd 35b8 35bf e6ef edbd 27a7 873d
00000390: a9a6 0ebf 2b50 773d 8db6 37be d29a 7a3d
000003a0: e644 733e 115b 91be f9ac d93c 63b9 443c
000003b0: 3149 583d a845 b33d af22 68be c5f6 b2bc
000003c0: 9c38 883e 7636 3c3d c456 fbbd c38d 85bf
000003d0: c2b9 353d 566e 293f b19f 223e d904 c63d
000003e0: f8d2 d33e d54c 94bd 55d7 8f3b 9b90 923e
000003f0: 44ab e53e 96e4 27bf eba6 dc3d 6643 593e
0.067454346 0.04496045 0.1256361 0.09658906 0.18925141 -0.15785603 0.7249338 0.041642524
0.8022997 0.08857908 0.02053354 0.3500389 -0.011031328 0.13167739 0.12343514 0.3067666
-0.0081041735 1.0914428 0.13421877 0.13546625 0.30651855 0.009053033 0.06686985 0.3052963
0.15405586 0.034660723 -0.021508453 0.074186414 0.12018058 0.27714187 0.017996583 0.30040163
0.7716709 0.2526744 0.0071649393 1.1169533 -0.2286178 -0.1939113 -0.1132803 0.14117227
-0.1345448 0.0010413892 -0.0044229724 0.11431874 -0.070436135 -0.20874365 0.09938228 0.15361524
0.6407583 0.11793122 0.24399364 0.414948 -0.08037792 0.3060302 -0.4275148 0.08935255
-0.03906389 0.03467913 0.3570443 0.0045649884 0.09314214 0.9495541 -0.09487251 0.24176161
-0.06340275 0.0075085913 0.03786005 0.05259968 -0.14908536 -0.05646395 1.0004163 0.16626553
-0.2941319 -0.072323374 0.01151055 -0.04625166 -0.031798832 -0.098650835 0.06924341 0.066868946
0.0635846 -0.40757403 -0.015010597 0.10288969 0.24571277 0.09062997 0.14156668 0.18243846
0.12687612 0.11811328 -0.3202007 0.1292173 0.1487697 0.13899735 -0.06481063 0.18972962
-0.12342692 0.12157839 -0.06095793 -0.40619704 0.04519054 0.0077972556 -0.17451292 0.31752717
-0.0420425 -0.045807954 0.036812287 0.11268266 -0.00063186 -0.19402643 0.040256135 -0.033743165
0.05068123 0.06678599 0.054535132 0.6181805 -0.010243836 -0.037270445 -0.48603168 0.017176028
0.012357219 -0.0119407 0.34543562 0.120493606 0.07754258 0.42013544 -0.0051926947 0.07316264
-0.19085832 -0.17655553 0.12998646 0.02888739 -0.43849316 -0.009333362 0.67330474 0.061064273
0.90899646 -0.1587953 0.27605218 0.64307386 -0.109623775 0.42571807 0.09338387 -0.18750751
-0.09922185 -0.28440508 -0.209651 -0.05967861 0.003937303 0.20519575 -0.23333748 0.1325711
0.10738759 0.05427185 -0.21812889 0.26109904 0.22050428 -0.31274903 0.35375518 0.18522845
0.5730331 -1.0216595 -0.031492136 0.9160129 0.15216136 -0.025131807 0.13061135 0.109131865
0.1948787 0.24301718 0.07914706 0.052822277 0.26120266 0.29821834 0.64659727 0.20974116
0.29774505 0.027642798 -0.062199347 0.0062750145 -0.058430426 0.89828724 0.617483 -0.056549266
0.09052269 0.15913849 -0.36417225 0.16755642 -0.17881203 1.2857454 0.09442089 -0.007487885
0.2712838 -0.07624769 0.15685374 -0.07296007 0.16626972 0.3190662 0.09159704 0.13570668
0.41866976 0.38984337 0.09304568 0.77238125 -0.010564829 -0.2882663 0.02191071 0.020230992
-0.046953972 -0.089883246 0.11732613 0.15624826 0.022424906 -0.20345905 -0.03627761 -0.018005148
0.21721655 0.03698732 -0.87352645 -0.16128987 0.20597059 0.007964597 -0.46249297 -0.29736644
-0.096826926 -0.709842 -0.116180226 0.06623679 -0.55723053 0.06037919 -0.17940731 0.061182804
0.23756751 -0.2838979 0.026571738 0.01200709 0.052804176 0.0875352 -0.2266948 -0.021846185
0.2660569 0.045950375 -0.122724086 -1.0433887 0.044366606 0.66183984 0.1588123 0.09668893
0.41371894 -0.07241217 0.0043896833 0.2862595 0.44857228 -0.6558317 0.107740246 0.21217117

advantage_fc.bias f4 [4]
00000000: 4c9c 3abe 3adf 7f3d 1584 e43d 94ed 0fbd
-0.18223685 0.062468745 0.11158005 -0.03513868
