model.pt (torch, 47871 bytes, 9 tensors)

hidden_fc.weight f4 [64, 37]
0.14490598 -0.12743966 -0.3220543 0.029053172 -0.52916884 -0.058245525 0.10068425 -0.04226669
0.081147306 0.094538525 -0.023147663 0.0077295625 -0.019052278 -0.25840056 -0.00841136 0.21988443
-0.10536004 -0.019176174 -0.079781935 -0.4319265 0.15397774 0.12131006 -0.26179063 0.18375419
0.046728883 0.22884937 0.10216841 -0.14030774 0.047360115 -0.2914228 -0.15992877 -0.11378695
-0.033223968 -0.15765887 0.2256397 -0.02976782 -0.0170467 -0.011568835 -0.21358845 0.21805426
0.14451133 -0.12573794 0.102507524 0.005183698 0.03398228 -0.031952728 -0.32654154 0.13450992
-0.017936923 0.050719503 0.04295894 0.0030088343 0.09913323 -0.06372349 0.045767024 0.08857261
-0.08303778 0.2966933 0.0010436057 0.04700872 -0.08377582 0.19956213 -0.07229403 0.0878707
-0.024124192 0.14423099 0.18385366 0.112096205 -0.04994844 0.016154483 0.05761616 0.16462594
-0.07316379 0.041558094 -0.06159827 0.0077072186 -0.035473403 -0.051290143 -0.1648508 -0.026775384
-0.05186158 0.08468239 -0.01516427 0.36839285 0.0028294474 0.11027632 0.14388798 -0.07218181
-0.107129775 0.043398242 -0.14363995 0.14474478 0.10002308 0.2234403 -0.12847687 -0.11022561
0.018854769 -0.20554845 0.013627072 -0.044705383 -0.13483678 0.048164546 0.08095741 0.17609544
0.07618882 -0.2084225 0.006926968 0.1669288 0.11224913 0.017692039 0.038581852 -0.096058525
-0.10856884 -0.035702147 -0.050529744 0.16851473 0.11921961 -0.0910397 -0.023742449 0.17415915
-0.18710114 -0.05175609 -0.30264446 -0.30893368 0.22059165 0.0071464507 0.08438712 -0.078592315
-0.17998052 -0.108315125 0.1104655 -0.071761474 0.11467744 0.036593225 -0.060764845 0.04901997
-0.09492518 -0.16512471 0.03507391 -0.07721933 0.19207878 -0.21158595 0.13227257 -0.07954974
-0.093895435 -0.13815989 -0.008312056 -0.07917935 0.09989645 0.010840035 -0.1452657 -0.11582705
-0.4245171 -0.069697365 -0.24245717 0.04999881 -0.060075324 -0.051813643 0.050088447 -0.09010144
0.105584286 -0.036178607 0.07730489 0.19167514 -0.37432593 -0.118369564 -0.064486235 -0.7041821
-0.09245441 -0.5615149 0.19871396 -0.07967822 -0.01675282 -0.0061519 -0.05593463 -0.015189703
-0.089646384 -0.016186336 0.034608424 -0.12454525 0.1250006 -0.10731502 -0.055823755 0.0043379213
-0.0076183467 -0.22256848 -0.032941345 -0.29572633 -0.13422416 0.07882756 -0.005461453 -0.049809743
0.0717711 -0.1684975 -0.23920502 0.0024415955 0.23193458 -0.42139947 -0.041590933 0.08844892
-0.0056606336 -0.045615006 -0.007862525 0.09921458 -0.082708046 0.12787516 -0.31204244 -0.025972722
-0.059130225 0.101254694 0.039316792 0.23115207 -0.11688251 -0.05299013 0.118360735 -0.4189175
0.27513558 -0.06854727 -0.08635616 0.14092326 -0.020455837 -0.010996455 -0.08961714 -0.08008062
0.068451606 -0.06079549 -0.12168975 0.22368015 -0.047515567 -0.21168345 0.0029423628 -0.5235969
-0.051773597 -0.15350188 0.15322638 -0.09281549 0.1018362 -0.05278225 0.13212502 0.135596
-0.10481677 0.019110972 -0.019416926 0.018580498 0.26266176 -0.13452703 -0.04588391 0.06809431
0.16385631 -0.16196817 -0.0713157 -0.17635971 -0.0053260834 0.26244175 -0.010371639 0.23009731
00000000: 3c62 143e 8b7f 02be 4de4 a4be eb00 ee3c
00000010: 9c77 07bf dc92 6ebd 8b33 ce3d d61f 2dbd
00000020: 8f30 a63d 6a9d c13d 2ba0 bdbc 4548 fd3b
00000030: 8613 9cbc 144d 84be cdcf 09bc 6229 613e
00000040: 01c7 d7bd 5a17 9dbc b664 a3bd 7825 ddbe
00000050: 57ac 1d3e 6971 f83d 6c09 86be 0f2a 3c3e
00000060: c966 3f3d 7d57 6a3e ac3d d13d d5ac 0fbe
00000070: aefc 413d 5f35 95be 5ec4 23be 2209 e9bd
00000080: db15 08bd 5471 21be 180e 673e a5db f3bc
00000090: 85a5 8bbc 368b 3dbc eeb6 5abe 9e49 5f3e
000000a0: c7fa 133e 72c1 00be 77ef d13d 03dc a93b
000000b0: 0131 0b3d dde0 02bd 7430 a7be f8bc 093e
000000c0: 74f0 92bc 41bf 4f3d b7f5 2f3d dd2f 453b
000000d0: 5d06 cb3d 7681 82bd 3476 3b3d 8e65 b53d
000000e0: b60f aabd 2fe8 973e 99c9 883a 378c 403d
000000f0: a892 abbd 045a 4c3e e40e 94bd 8ef5 b33d
00000100: 19a0 c5bc 4ab1 133e 2244 3c3e b292 e53d
00000110: bc96 4cbd 6856 843c ecfe 6b3d b493 283e
00000120: e6d6 95bd d238 2a3d 784e 7cbd d68c fc3b
00000130: 8f4c 11bd 9d15 52bd a6ce 28be 0d58 dbbc
00000140: cf6c 54bd f66d ad3d 8f73 78bc fd9d bc3e
00000150: 406e 393b 8dd8 e13d 5f57 133e 0fd4 93bd
00000160: db66 dbbd 5bc2 313d 5a16 13be fa37 143e
00000170: e7d8 cc3d 89cd 643e 718f 03be f7bd e1bd
00000180: 5175 9a3c 4b7b 52be 1544 5f3c fe1c 37bd
00000190: a712 0abe 3048 453d 00cd a53d 5d52 343e
000001a0: e208 9c3d b56c 55be 9ffb e23b 62ef 2a3e
000001b0: dfe2 e53d e5ee 903c 0108 1e3d 55ba c4bd
000001c0: 5759 debd 6a3c 12bd 47f8 4ebd 208f 2c3e
000001d0: 6929 f43d 0673 babd 867f c2bc c756 323e
000001e0: 7197 3fbe 32fe 53bd 37f4 9abe 8e2c 9ebe
000001f0: c7e2 613e c62c ea3b 28d3 ac3d 02f5 a0bd
00000200: d04c 38be 52d4 ddbd bc3b e23d aef7 92bd
00000210: 01dc ea3d c7e2 153d 8fe4 78bd 2ac9 483d
00000220: 2268 c2bd 7416 29be a9a9 0f3d 2b25 9ebd
00000230: 4db0 443e fda9 58be 7672 073e f9ea a2bd
00000240: 404c c0bd c979 0dbe 4a2f 08bc c828 a2bd
00000250: 8396 cc3d 679a 313c 88c0 14be bb36 edbd
00000260: 4e5a d9be 7ebd 8ebd b146 78be 8dcb 4c3d
00000270: 8b11 76bd 8b3a 54bd 8b29 4d3d 1b87 b8bd
00000280: 933c d83d 0530 14bd 0752 9e3d 7d46 443e
00000290: a6a7 bfbe be6b f2bd 5c11 84bd 4745 34bf
000002a0: bd58 bdbd 71bf 0fbf ac7b 4b3e 562e a3bd
000002b0: 363d 89bc e195 c9bb b61b 65bd 3bde 78bc
000002c0: 8698 b7bd 3599 84bc 90c1 0d3d 9411 ffbd
000002d0: 2800 003e fac7 dbbd 73a7 64bd 1f25 8e3b
000002e0: 53a3 f9bb fee8 63be 81ed 06bd 7169 97be
000002f0: 0f72 09be 5870 a13d fdf5 b2bb 4d05 4cbd
00000300: bafc 923d 9c8a 2cbe 29f2 74be 2d03 203b
00000310: 4280 6d3e acc1 d7be 415b 2abd b524 b53d
00000320: d67c b9bb cdd6 3abd d2d1 00bc 0431 cb3d
00000330: d662 a9bd b5f1 023e 07c4 9fbe bfc4 d4bc
00000340: 8932 72bd 9f5e cf3d a50a 213d 21b3 6c3e
00000350: 1960 efbd 2e0c 59bd 1d67 f23d 5b7c d6be
00000360: 92de 8c3e 8362 8cbd 80db b0bd 304e 103e
00000370: 0093 a7bc 7a2a 34bc 3189 b7bd 4f01 a4bd
00000380: 5b30 8c3d b104 79bd 7a38 f9bd 690c 653e
00000390: af9f 42bd 8cc3 58be a8d4 403b 720a 06bf
000003a0: 8d10 54bd 992f 1dbe 60e7 1c3e 0c16 bebd
000003b0: 7f8f d03d 3332 58bd c84b 073e aed9 0a3e
000003c0: 2daa d6bd 9d8e 9c3c 3f10 9fbc 2136 983c
000003d0: 9a7b 863e 74c1 09be c4f0 3bbd 0875 8b3d
000003e0: f3c9 273e fcda 25be f70d 92bd a497 34be
000003f0: 6d86 aebb c45e 863e cfed 29bc a19e 6b3e

hidden_fc.bias f4 [64]
-0.070442855 -0.07512225 0.026098188 -0.022827003 0.11770531 -0.22207962 -0.05704759 0.02435111
-0.010439403 0.062300242 -0.20640197 -0.007924578 -0.04527081 -0.021084419 -0.024616795 -0.1707457
0.1135075 0.06706062 -0.061639555 0.10673233 0.023692342 -0.029211314 0.09084857 -0.07863088
0.06489768 0.002761543 0.13670574 -0.10808991 0.1104434 0.120434955 -0.19523269 -0.08432107
-0.09151625 -0.12801656 -0.14725143 -0.10590774 0.055528957 -0.017928379 -0.003453436 -0.1270697
0.014091029 0.06545716 -0.17671382 -0.07935121 0.13582541 0.04250933 0.03447891 0.01251267
-0.0071903574 -0.029591167 -0.083313294 -0.13538164 -0.17574523 -0.17981718 0.1390019 -0.1214093
-0.032378834 -0.11083902 -0.1143997 0.090034366 -0.05106519 -0.09924157 -0.20599751 0.0150595745
00000000: 5844 90bd b2d9 99bd decb d53c b2ff babc
00000010: 7b0f f13d d768 63be bcaa 69bd fb7b c73c
00000020: 080a 2bbc 8a2e 7f3d 0a5b 53be 17d6 01bc
00000030: e36d 39bd 3bb9 acbc 29a9 c9bc f6d7 2ebe
00000040: 9f76 e83d 1457 893d c279 7cbd 7b96 da3d
00000050: 7116 c23c 914c efbc d10e ba3d 3a09 a1bd
00000060: 13e9 843d 01fb 343b 97fc 0b3e 3e5e ddbd
00000070: 2630 e23d 9aa6 f63d 14eb 47be 86b0 acbd
00000080: df6c bbbd c616 03be 14c9 16be 28e6 d8bd
00000090: 5572 633d 89de 92bc 0b53 62bb 8f1e 02be
000000a0: 0fde 663c 670e 863d 78f4 34be e382 a2bd
000000b0: d115 0b3e 431e 2e3d c239 0d3d f101 4d3c
000000c0: 179d ebbb 2d69 f2bc 29a0 aabd 7ca1 0abe
000000d0: 8ff6 33be ff21 38be 8456 0e3e 70a5 f8bd
000000e0: ab9f 04bd 91ff e2bd 644a eabd f063 b83d
000000f0: bc29 51bd 2a3f cbbd 03f1 52be 6fbc 763c

value_fc_hidden.weight f4 [64, 64]
0.0038134442 -0.09074129 0.042220823 0.024284916 -0.026994118 -0.10227481 -0.08379912 -0.00949404
0.0025016107 -0.1253887 0.0013642749 0.005940521 -0.12868714 0.056930963 -0.044348948 0.07097816
-0.121174425 -0.1540757 -0.09925708 0.0009143447 -0.034062177 -0.12094259 -0.04731318 0.012091178
-0.25418535 -0.056167804 -0.30226985 0.0406858 -0.12835947 0.007820341 -0.02955275 0.0044392017
0.042161044 -0.017753001 -0.06494644 0.007759661 0.14546913 -0.0123002855 0.2309425 -0.112996675
-0.16707337 0.072522394 -0.0929914 -0.21824346 -0.006372349 0.08067345 0.070607 -0.1426835
-0.075942695 0.003637331 -0.01749538 -0.04990708 0.038184654 -0.039930616 -0.107822016 -0.038641024
0.014571945 -0.07313727 -0.21731554 -0.03378463 -0.18054728 -0.17059796 -0.13375789 0.020500615
0.033112437 -0.18887031 0.131617 0.03624749 0.02918442 0.008521034 -0.059623767 -0.13240226
0.044936728 -0.11896884 0.10376814 0.20738673 -0.06897187 0.16020982 0.09682051 0.012676474
0.033906695 0.21591432 -0.15538022 0.15055053 -0.07434593 0.0829293 0.08814789 0.106610976
-0.09073872 0.06858084 0.04979322 -0.22583483 -0.03372611 0.17288259 -0.09370833 -0.14170024
0.08764251 0.019475717 0.16413975 -0.048619766 -0.13341296 -0.07946618 -0.2019176 -0.03549081
-0.06320835 -0.1635535 0.16922396 -0.059013724 -0.14373055 0.09956104 0.072909124 -0.013636854
0.05470313 -0.06729689 0.059328355 -0.003517357 0.06892659 0.021079948 -0.11834885 0.03981022
0.12578437 -0.00046470514 0.1115541 0.024294974 -0.022444673 0.028401284 0.092395045 -0.08382254
-0.0749363 -0.19398849 0.015897352 -0.17954914 0.012138209 0.11561881 0.067510806 -0.2175197
-0.0791615 0.008994675 -0.18666342 -0.17826912 -0.014623234 0.028461494 0.1552464 -0.036934156
-0.18030293 -0.078606814 0.16800736 0.08768285 -0.04319078 0.01595478 -0.020910492 -0.23278353
-0.15221603 -0.102762826 0.06822137 -0.1170301 -0.00072652486 -0.1974769 -0.31850088 -0.08891624
-0.08864031 0.036148004 0.07412787 0.11494116 0.04953583 0.12516792 0.17153202 -0.2451337
-0.17781474 -0.09233597 0.041497745 -0.22981529 0.113010645 -0.030009558 0.009931571 -0.032909628
-0.05509933 -0.23252998 -0.25225243 -0.39609262 -0.08821402 -0.11099215 -0.059432343 0.13325243
0.056838788 -0.011569203 0.13848008 -0.08607933 0.45846608 0.010660946 -0.09949335 0.13986598
0.13976341 0.0369643 0.08417301 0.0021737113 0.10458439 0.14548661 -0.060227837 -0.09649759
0.05609187 -0.09655012 0.054640498 -0.07928993 0.13244142 -0.19100344 0.06785429 0.0562747
0.12968539 0.05019487 0.0062406925 0.098175466 -0.047035765 0.0904517 0.057381984 0.13457464
0.14564337 0.100109 0.008037474 0.15606375 0.008956006 -0.03785789 0.01950529 0.009494311
-0.11107122 -0.04607911 -0.066458106 -0.122387715 0.02723964 0.07118238 0.002105504 0.23508157
-0.05265013 -0.1490652 -0.13325599 0.030397447 0.075580545 -0.06384526 -0.04713448 0.10049961
0.13371909 0.012217142 0.015296845 -0.1280391 0.067116186 0.04111283 -0.014753569 -0.15842772
-0.0058475984 0.030776909 -0.007029238 0.032926854 -0.049902644 0.15491335 0.03172358 0.08575277
00000000: faea 793b 92d6 b9bd beef 2c3d 29f1 c63c
00000010: c522 ddbc 7575 d1bd df9e abbd e48c 1bbc
00000020: 10f2 233b e565 00be 78d1 b23a b4a8 c23b
00000030: 90c6 03be 7130 693d 3ea7 35bd ff5c 913d
00000040: 4c2a f8bd 05c6 1dbe 4c47 cbbd a2b0 6f3a
00000050: c884 0bbd c0b0 f7bd 77cb 41bd 141a 463c
00000060: 9524 82be 3610 66bd 1dc3 9abe 27a6 263d
00000070: aa70 03be e320 003c 9c18 f2bc b976 913b
00000080: 0fb1 2c3d be6e 91bc a402 85bd c144 fe3b
00000090: dcf5 143e 2387 49bc 317c 6c3e cd6a e7bd
000000a0: 4815 2bbe 9f86 943d 4672 bebd 377b 5fbe
000000b0: 23cf d0bb 1f38 a53d 679a 903d a01b 12be
000000c0: d887 9bbd 4a60 6e3b 7952 8fbc 5e6b 4cbd
000000d0: 8367 1c3d 498e 23bd cad1 dcbd 0d46 1ebd
000000e0: 2bbf 6e3c fec8 95bd f787 5ebe c161 0abd
000000f0: 63e1 38be 3bb1 2ebe d4f7 08be e8f0 a73c
00000100: e8a0 073d 3867 41be 9bc6 063e 4078 143d
00000110: 2a14 ef3c cf9b 0b3c 0d38 74bd 7594 07be
00000120: 930f 383d efa5 f3bd 6484 d43d 305d 543e
00000130: 2041 8dbd 0b0e 243e d549 c63d fcb0 4f3c
00000140: bfe1 0a3d a518 5d3e fe1b 1fbe eb29 1a3e
00000150: ae42 98bd d6d6 a93d e286 b43d db56 da3d
00000160: 39d5 b9bd 1d74 8c3d faf3 4b3d 3f41 67be
00000170: 6424 0abd 2208 313e 27ea bfbd de19 11be
00000180: eb7d b33d 8a8b 9f3c 4014 283e 8525 47bd
00000190: 689d 08be 2abf a2bd 7dc3 4ebe d05e 11bd
000001a0: 6173 81bd 927a 27be 0c49 2d3e 60b8 71bd
000001b0: 1a2e 13be a9e6 cb3d 6151 953d 1c6d 5fbc
000001c0: 6410 603d f4d2 89bd 4a02 733d 7583 66bb
000001d0: 6229 8d3d dbaf ac3c e260 f2bd 0b10 233d
000001e0: 9ecd 003e aba3 f3b9 7a76 e43d 4106 c73c
000001f0: e4dd b7bc cfa9 e83c 9d39 bd3d 27ab abbd
00000200: 3478 99bd eba4 46be 2a3b 823c bbdb 37be
00000210: 57df 463c 8ec9 ec3d 1b43 8a3d 7cbd 5ebe
00000220: 6d1f a2bd 675e 133c b224 3fbe 2e8c 36be
00000230: 4a96 6fbc 1428 e93c eaf8 1e3e 4548 17bd
00000240: 55a1 38be 9cfc a0bd 1f0a 2c3e 1193 b33d
00000250: d1e8 30bd 99b3 823c 7b4c abbc ce5e 6ebe
00000260: 85de 1bbe 5175 d2bd a5b7 8b3d 7aad efbd
00000270: 4274 3eba 6237 4abe 8c12 a3be b819 b6bd
00000280: 0d89 b5bd ee0f 143d 5ad0 973d 4566 eb3d
00000290: 15e6 4a3d 052c 003e 17a6 2f3e 5404 7bbe
000002a0: 1115 36be a41a bdbd 8af9 293d b354 6bbe
000002b0: 2072 e73d 9bd6 f5bc 07b8 223c 3fcc 06bd
000002c0: d6af 61bd 571c 6ebe 3b27 81be a7cc cabe
000002d0: 8da9 b4bd da4f e3bd 546f 73bd 5373 083e
000002e0: cacf 683d c18c 3dbc b9cd 0d3e 5c4a b0bd
000002f0: 11bc ea3e 40ab 2e3c 2bc3 cbbd 0739 0f3e
00000300: 241e 0f3e e167 173d e662 ac3d d374 0e3b
00000310: 5730 d63d 71fa 143e 77b1 76bd 87a0 c5bd
00000320: 97c0 653d 12bc c5bd b7ce 5f3d c262 a2bd
00000330: b99e 073e 6896 43be 31f7 8a3d 4d80 663d
00000340: 3fcc 043e 2399 4d3d b97e cc3b 3810 c93d
00000350: 93a8 40bd be3e b93d 5f09 6b3d efcd 093e
00000360: 8923 153e f305 cd3d 9caf 033c 2dcf 1f3e
00000370: 36bc 123c e010 1bbd 8fc9 9f3c 078e 1b3c
00000380: 4f79 e3bd 73bd 3cbd 301b 88bd 69a6 fabd
00000390: aa25 df3c 11c8 913d 7ffc 093b 39b9 703e
000003a0: aaa7 57bd 8ca4 18be 4274 08be 1104 f93c
000003b0: f9c9 9a3d 4ec1 82bd 1610 41bd bdd2 cd3d
000003c0: a8ed 083e 682a 483c 9e9f 7a3c af1c 03be
000003d0: 3674 893d ed65 283d f4b8 71bc e03a 22be
000003e0: 369d bfbb db1f fc3c 8655 e6bb 4fde 063d
000003f0: b766 4cbd 9ba1 1e3e 96f0 013d 269f af3d

value_fc_hidden.bias f4 [64]
0.15138927 0.012798138 -0.092520736 0.09076813 0.05570383 -0.05475442 -0.13144511 0.20252256
-0.027623843 -0.04743928 -0.1369065 0.0007291041 -0.039217852 -0.032851577 -0.11261813 -0.16426586
-0.022230627 0.08060572 -0.013477831 0.27391055 -0.0186532 0.19417994 -0.050270654 -0.16571498
-0.050271638 0.1718824 0.05126922 -0.118822925 0.017815206 -0.08520201 -0.025149085 -0.106669046
-0.031950727 -0.07745217 -0.110220864 0.025566453 -0.043540515 -0.005324037 -0.1304043 -0.057807587
0.2772609 0.02798914 0.058545228 0.016152976 0.01408588 -0.037642956 -0.045734473 -0.059497796
0.21786954 0.05162687 0.34231222 0.09336112 -0.06747507 -0.06874232 -0.03352324 0.063587524
0.20436148 -0.015771775 -0.039185274 -0.04514083 0.21844088 -0.03176356 0.17483072 -0.023904206
00000000: ca05 1b3e 48af 513c 837b bdbd a4e4 b93d
00000010: b329 643d 2c46 60bd 8c99 06be 1362 4f3e
00000020: 664b e2bc b14f 42bd 3831 0cbe 5921 3f3a
00000030: e6a2 20bd 608f 06bd 56a4 e6bd 4f35 28be
00000040: 011d b6bc 9d14 a53d 1fd2 5cbc 013e 8c3e
00000050: 98ce 98bc 1bd7 463e 9ae8 4dbd 30b1 29be
00000060: a2e9 4dbd f101 303e acff 513d 6f59 f3bd
00000070: 32f1 913c 647e aebd 7405 cebc 4d75 dabd
00000080: c4de 02bd 3e9f 9ebd 7abb e1bd bd70 d13c
00000090: 8a57 32bd 4275 aebb b488 05be a6c7 6cbd
000000a0: 24f5 8d3e 7b49 e53c 1fcd 6f3d 3f53 843c
000000b0: 76c8 663c 802f 1abd 1254 3bbd f6b3 73bd
000000c0: 3119 5f3e b276 533d 8c43 af3e 1d34 bf3d
000000d0: 5f30 8abd c6c8 8cbd aa4f 09bd 2d3a 823d
000000e0: 2344 513e cf33 81bc bd80 20bd 97e5 38bd
000000f0: f7ae 5f3e 821a 02bd d306 333e c1d2 c3bc

value_fc.weight f4 [1, 64]
0.09159958 -0.10285246 0.2935036 0.06751464 -0.1462786 0.14926612 -0.061817024 0.032639258
-0.1555681 -0.17871708 -0.2908175 0.25830632 -0.08860768 -0.52034676 -0.057800375 -0.04498144
-0.15145871 0.040799923 -0.11772991 0.12536013 -0.44878572 0.0627032 -0.056369845 -0.05233044
0.2359428 0.1310671 0.08853845 -0.13969141 0.13373354 -0.09782902 0.3583168 -0.056255136
-0.57066244 -0.057263084 0.26523438 0.08208844 0.14989458 0.07297445 -0.05785427 -0.090379104
0.18147205 0.095404506 0.15148596 -0.4510816 -0.1326582 0.117012665 -0.08608436 -0.08076003
0.10988636 -0.17335464 0.15012187 0.047510188 -0.03732662 -0.82257265 0.2746338 0.121993795
0.13890484 0.09934781 0.0382301 0.0532136 0.1139149 -0.46563974 0.087378345 -0.0828126
00000000: 9098 bb3d 50a4 d2bd 1b46 963e 1e45 8a3d
00000010: 0fca 15be 38d9 183e d933 7dbd beb0 053d
00000020: 3e4d 1fbe 9c01 37be 08e6 94be ba40 843e
00000030: f177 b5bd 7235 05bf 16c0 6cbd 753e 38bd
00000040: fe17 1bbe d21d 273d 611c f1bd 685e 003e
00000050: 3ec7 e5be 896a 803d 11e4 66bd 7258 56bd
00000060: fd9a 713e 7436 063e a653 b53d 440b 0fbe
00000070: 72f1 083e 955a c8bd 4d75 b73e c96b 66bd
00000080: ef16 12bf b28c 6abd cdcc 873e fc1d a83d
00000090: f77d 193e a173 953d 99f8 6cbd ae18 b9bd
000000a0: cfd3 393e 7063 c33d 231f 1b3e 2bf4 e6be
000000b0: 8dd7 07be 56a4 ef3d ff4c b0bd 8465 a5bd
000000c0: 1a0c e13d e183 31be 8cb9 193e 0b9a 423d
000000d0: cce3 18bd 1f94 52bf cd9c 8c3e e2d7 f93d
000000e0: 123d 0e3e dd76 cb3d 2a97 1c3d 81f6 593d
000000f0: 374c e93d 5568 eebe 6bf3 b23d a799 a9bd

advantage_fc_hidden.weight f4 [64, 64]
-0.09296289 -0.027796462 -0.043227915 -0.043224588 0.0012925412 -0.056935024 -0.046055708 -0.1377767
-0.011528131 -0.009779878 -0.08310163 0.066684835 -0.16405784 0.037634064 -0.019751165 -0.07236162
0.022087792 0.031603474 -0.0118188765 -0.09822061 -0.07941262 -0.1316347 -0.13822398 0.019176414
0.02210276 -0.20884976 0.15393515 -0.12472711 0.08798961 0.2018119 -0.06148101 0.026288489
-0.04743333 -0.098860644 -0.04460571 -0.0004937642 -0.055968747 0.08894639 0.19455735 -0.14151631
-0.057304017 -0.13126522 -0.028209893 0.09739878 0.114122584 0.028646918 -0.10027661 -0.03398721
-0.020082295 -0.19579715 -0.25079584 -0.2499403 0.043323565 0.07375875 -0.13338622 0.11028003
-0.004331995 0.08556634 -0.21474162 -0.077758364 -0.111827046 -0.034607243 -0.0102939755 -0.027522832
0.10957805 -0.048499424 -0.049556307 -0.16650099 -0.07407897 0.07929314 -0.016880764 -0.23543443
0.12534638 -0.0596028 0.10985042 0.11260009 -0.048012868 -0.063240886 0.0764027 0.14001675
0.12957352 0.26557028 -0.0889848 0.09047855 0.006263947 0.003328639 -0.08510287 0.20968287
-0.07753755 -0.019221092 0.14742865 0.21207991 -0.036178026 -0.06174705 -0.06223158 -0.070652574
-0.12545611 -0.15548792 0.042649213 -0.115911596 0.0044604726 0.12730785 -0.090643615 -0.005895859
-0.080265224 0.027783077 -0.087885275 -0.13734505 0.116172574 -0.19573796 -0.029453864 0.006030516
0.053852472 -0.067844905 0.07330161 -0.095665626 0.067326 0.033374455 0.039663307 -0.093168534
-0.10640975 -0.14659892 -0.18706876 -0.04014347 0.14784572 -0.23420495 -0.13661203 0.10529509
-0.0101592075 -0.09214926 -0.008765274 -0.13698873 -0.020290423 0.08730219 0.03109721 -0.14047885
-0.10999664 -0.12309315 0.04137886 0.06564429 0.015967568 0.0013928486 -0.33957317 -0.031440984
-0.048950825 0.040819738 -0.09082629 0.07244043 -0.059118923 0.009367029 -0.101575084 -0.07420764
0.037926786 0.012005933 0.09650528 0.27724445 0.0010311333 0.029502464 -0.0947367 0.11079981
0.035247706 -0.2622568 -0.0007301835 0.11570529 -0.0716861 -0.049346894 -0.053613137 -0.058487244
-0.018702894 -0.16842309 0.2755534 -0.081551805 0.26074708 -0.028255664 -0.06953378 0.10414135
-0.09045733 -0.08739597 0.041800845 -0.07424929 -0.1114495 -0.0080424305 0.16645062 -0.036697898
0.040510267 0.08622047 0.07592504 0.065594584 0.07122485 0.031203825 0.026615523 0.07879678
0.13073936 0.088937886 0.018952416 -0.011415904 0.08288248 -0.1698606 -0.025470512 -0.007110433
-0.09825368 0.05318286 -0.030204348 -0.051584963 0.1351618 -0.025515985 -0.1269813 -0.044483874
-0.07598118 -0.055280726 -0.071752094 -0.14888398 -0.04811899 -0.09427524 0.07174288 -0.15416649
-0.0732678 0.07780158 -0.045366127 -0.011629319 -0.066155024 -0.13574024 -0.05558944 -0.12022921
-0.07787296 0.03186089 0.008556731 0.090170495 0.06855335 0.045202233 -0.13564469 -0.1377454
-0.14425635 -0.009833468 0.02747754 -0.04664112 0.08544491 -0.10052242 0.005181339 -0.12873667
0.077735 -0.11396508 0.14171232 0.018341256 -0.054696884 -0.07146471 0.095949285 0.18688357
-0.24731003 -0.0132098105 0.15979539 -0.114230834 0.21084048 0.15934564 0.073033325 -0.13062847
00000000: 5463 bebd 68b5 e3bc c10f 31bd 440c 31bd
00000010: 7c6a a93a b334 69bd e9a4 3cbd 5615 0dbe
00000020: 7ce0 3cbc c83b 20bc 3031 aabd 0f92 883d
00000030: c7fe 27be 2d26 1a3d 32cd a1bc 5432 94bd
00000040: 75f1 b43c a572 013d f6a3 41bc e327 c9bd
00000050: 15a3 a2bd 3fcb 06be 968a 0dbe db17 9d3c
00000060: d910 b53c b6dc 55be 2da1 1d3e ed70 ffbd
00000070: e633 b43d c7a7 4e3e 83d3 7bbd f55a d73c
00000080: 7449 42bd 7377 cabd 7ab4 36bd f46f 01ba
00000090: 7c3f 65bd 8629 b63d 0b3a 473e a7e9 10be
000000a0: 9eb7 6abd 646a 06be 6f18 e7bc 0379 c73d
000000b0: 1ab9 e93d f1ac ea3c d35d cdbd 2c36 0bbd
000000c0: a083 a4bc 0c7f 48be 5068 80be 5af0 7fbe
000000d0: 0d74 313d d40e 973d 6696 08be 7fda e13d
000000e0: 68f3 8dbb 683d af3d 3ae5 5bbe c73f 9fbd
000000f0: 9405 e5bd 53c0 0dbd 10a8 28bc 9077 e1bc
00000100: 756a e03d 55a7 46bd 8efb 4abd 3c7f 2abe
00000110: b7b6 97bd 7164 a23d 8749 8abc b915 71be
00000120: cd5a 003e 1122 74bd 42f9 e03d e09a e63d
00000130: 24a9 44bd 7084 81bd 0579 9c3d 8d60 0f3e
00000140: ecae 043e d4f8 873e aa3d b6bd d14c b93d
00000150: cc41 cd3b 4c25 5a3b 6a4a aebd 1bb7 563e
00000160: 02cc 9ebd 8d75 9dbc 89f7 163e 7a2b 593e
00000170: 692f 14bd 7aea 7cbd 8be6 7ebd 4cb2 90bd
00000180: 9177 00be 3a38 1fbe f1b0 2e3d 0f63 edbd
00000190: 2829 923b fd5c 023e 5ca3 b9bd 0d32 c1bb
000001a0: 1862 a4bd 5699 e33c 32fd b3bd 2ea4 0cbe
000001b0: e3eb ed3d 886f 48be 3b49 f1bc a29b c53b
000001c0: 6994 5c3d 45f2 8abd 281f 963d 57ec c3bd
000001d0: 37e2 893d a7b3 083d fe75 223d 25cf bebd
000001e0: 5bed d9bd 071e 16be f48e 3fbe 7b6d 24bd
000001f0: de64 173e 6cd3 6fbe 06e4 0bbe f4a4 d73d
00000200: ce72 26bc c0b8 bcbd 399c 0fbc c646 0cbe
00000210: 1a38 a6bc 7ecb b23d 93bf fe3c b0d9 0fbe
00000220: eb45 e1bd 4318 fcbd e17c 293d 8370 863d
00000230: 6bce 823c 3e90 b63a 89dc adbe 43c8 00bd
00000240: a980 48bd 9932 273d 2203 babd a65b 943d
00000250: af26 72bd 2b78 193c 9906 d0bd 2dfa 97bd
00000260: 1e59 1b3d 88b4 443c 8fa4 c53d fcf2 8d3e
00000270: 1827 873a 27af f13c 5105 c2bd 03eb e23d
00000280: e65f 103d 8646 86be c969 3fba e5f6 ec3d
00000290: 29d0 92bd f81f 4abd 7399 5bbd 5290 6fbd
000002a0: d036 99bc 1a77 2cbe 5615 8d3e a204 a7bd
000002b0: a480 853e 6c78 e7bc ba67 8ebd 0f48 d53d
000002c0: b141 b9bd a9fc b2bd 5d37 2b3d 0310 98bd
000002d0: a33f e4bd 66c4 03bc 0872 2a3e 8950 16bd
000002e0: 18ee 253d 5c94 b03d 967e 9b3d 7456 863d
000002f0: 56de 913d 2a9f ff3c cc08 da3c 3560 a13d
00000300: 8ae0 053e 1125 b63d 1942 9b3c c609 3bbc
00000310: 4abe a93d f0ef 2dbe 89a7 d0bc a3fe e8bb
00000320: 3a39 c9bd 45d6 593d 1c6f f7bc c14a 53bd
00000330: db67 0a3e e606 d1bc 6307 02be b934 36bd
00000340: 059c 9bbd 0b6e 62bd c3f2 92bd 0b75 18be
00000350: 6b18 45bd 6113 c1bd eeed 923d d2dd 1dbe
00000360: 6e0d 96bd 6f56 9f3d d5d1 39bd e688 3ebc
00000370: 497c 87bd 7dff 0abe c1b1 63bd bb3a f6bd
00000380: dc7b 9fbd 9180 023d 8831 0c3c 4fab b83d
00000390: b365 8c3d fa25 393d 71e6 0abe 210d 0dbe
000003a0: f0b7 13be 8e1c 21bc 9418 e13c c20a 3fbd
000003b0: befd ae3d b3de cdbd 39c8 a93b 8cd3 03be
000003c0: 8733 9f3d 8666 e9bd 091d 113e 6740 963c
000003d0: d709 60bd 175c 92bd 0f81 c43d 685e 3f3e
000003e0: d73e 7dbe f66d 58bc 67a1 233e dbf1 e9bd
000003f0: 91e6 573e 812b 233e 7f92 953d 78c3 05be

advantage_fc_hidden.bias f4 [64]
0.06534856 0.009604889 0.09195366 0.07928796 0.0393163 0.051754765 -0.013774886 -0.07333367
-0.08672423 0.023554567 -0.0727454 -0.029916065 -0.110436544 0.08813214 -0.0049384627 -0.055014484
0.025508499 0.0013733731 -0.09866383 0.05198909 -0.09454643 -0.059640706 0.03727133 0.047284693
-0.12871507 -0.13757263 -0.021906998 -0.11283524 0.033247996 0.014398737 -0.05269421 0.00084823027
-0.12395739 0.08682908 -0.114862464 0.10235069 0.0060150386 -0.06820805 0.05787605 -0.1274998
0.08440994 0.01340556 0.016721075 -0.041581407 -0.122583024 -0.029733958 0.0348605 0.060804617
0.032768264 0.08563367 0.059310384 0.014731391 -0.076592974 0.07321445 -0.019208547 -0.04027011
-0.03844228 0.049725953 -0.036441334 -0.110045865 -0.036999874 -0.12081759 -0.19182543 -0.008318985
00000000: 77d5 853d d35d 1d3c 3352 bc3d ba61 a23d
00000010: 210a 213d cefc 533d 0fb0 61bc f72f 96bd
00000020: 799c b1bd 82f5 c03c 8afb 94bd 8912 f5bc
00000030: 8e2c e2bd a07e b43d d4d2 a1bb de56 61bd
00000040: 33f7 d03c c102 b43a 4310 cabd 83f2 543d
00000050: 8fa1 c1bd d049 74bd d2a9 183d 98ad 413d
00000060: e2cd 03be d7df 0cbe 4e76 b3bc 2a16 e7bd
00000070: 0d2f 083d aee8 6b3c e2d5 57bd c55b 5e3a
00000080: 5fdd fdbd 72d3 b13d 033d ebbd 3d9d d13d
00000090: cd19 c53b aab0 8bbd 700f 6d3d 4f8f 02be
000000a0: 1edf ac3d fea2 5b3c a3fa 883c 4451 2abd
000000b0: cf0c fbbd a194 f3bc e2c9 0e3d 430e 793d
000000c0: 0438 063d b560 af3d 72ef 723d ef5b 713c
000000d0: c7dc 9cbd 75f1 953d 3e5b 9dbc 45f2 24bd
000000e0: a775 1dbd 71ad 4b3d 8243 15bd ba5f e1bd
000000f0: 2e8d 17bd 366f f7bd e36d 44be 5a4c 08bc

advantage_fc.weight f4 [4, 64]
0.23009333 -0.09090315 0.050549373 -0.084052846 0.08415288 0.049473956 -0.06817961 -0.11242105
0.07539139 0.023903806 0.067642525 -0.03125554 0.20323738 0.0906945 -0.03584792 -0.0030427938
0.13479376 -0.06475323 0.3168628 0.27125555 -0.034421224 -0.10092595 -0.0058316626 0.009080446
-0.1721733 0.080973186 -0.11394537 0.3596145 -0.07652668 -0.009613887 -0.32405335 0.11846756
0.14851259 -0.17638242 -0.053052228 -0.0018896229 0.13765042 -0.26663947 0.08211023 -0.07149646
-0.10479991 -0.19337115 -0.10893891 -0.10245232 -0.11787638 0.24478103 -0.07890704 -0.07682612
0.058381297 -0.21626483 0.07149764 -0.0025518436 0.05553576 0.044749167 -0.016817626 0.03796933
-0.071052484 0.033197347 0.042581555 0.022134082 0.07838119 -0.14589506 0.10328271 0.12603635
-0.257598 -0.055225607 -0.0588252 -0.11607651 -0.32147768 -0.033703607 0.045990095 -0.061629508
-0.16720833 -0.3153335 0.08736363 -0.05327451 -0.1949046 -0.037950035 0.014646098 -0.017956788
-0.14347342 0.10067066 -0.25080985 -0.16307455 -0.048784696 0.33500051 -0.06309599 0.02541713
0.1500766 0.080596685 -0.14764486 -0.26447272 0.095452674 -0.29580563 -0.0022427149 -0.2812962
0.094409354 0.16396746 0.034821916 -0.06666785 0.070147485 -0.0012975376 0.09816285 -0.11530423
0.058718078 -0.08358184 0.051108766 -0.006431552 -0.26572958 -0.10527 0.06034356 -0.038693883
0.12670057 -0.016191006 0.05537702 0.022182217 -0.121344626 0.009345752 0.05735742 -0.10747557
0.18124278 0.09605707 -0.10465721 0.009853031 0.05079631 0.01752848 0.0661417 -0.098786056
0.16749683 -0.09124952 0.11507833 0.0071337214 0.24244185 -0.12158013 0.081522465 0.08020034
-0.053315815 0.28765213 -0.12759495 0.0677892 -0.33345446 0.0974642 0.061062433 0.06337212
0.18240099 -0.023936588 0.18432842 0.39298564 0.051513333 -0.1534369 0.1046819 -0.028430967
0.13980865 -0.090638824 0.024790296 -0.041676115 -0.10019638 0.33884805 0.26703292 0.22346273
-0.26332214 -0.076259345 0.06726633 -0.009582575 0.21413091 0.15880018 0.03149007 0.08053421
0.15854631 -0.06668462 -0.16361205 -0.033302873 0.34872824 0.05969828 -0.09644123 0.09809907
-0.1752652 0.23054789 0.2124394 -0.07414507 -0.22816215 -0.0072350493 0.10815862 -0.12813532
-0.39052236 -0.016289085 0.14123467 -0.10514733 0.158081 -0.066769466 0.25315508 -0.018790048
-0.06293907 0.06739582 0.16308425 -0.028280409 0.060330886 -0.13455553 -0.16575134 0.15649973
0.14368959 0.023051258 -0.15476918 -0.01865737 0.02525697 -0.1733096 -0.056584027 -0.22203413
0.044122085 -0.15425466 -0.2426657 -0.35548162 0.14698799 -0.48352155 0.113388985 0.042713035
-0.16109216 0.04364448 -0.025547223 0.2280328 0.24134302 -0.084941074 -0.113038875 -0.49063608
0.1572267 0.05744643 0.022296293 -0.12789991 -0.2053043 0.1562651 -0.0039777043 0.14394389
-0.131904 0.10834397 0.053693812 0.067369446 -0.13559893 -0.10338454 0.019759499 0.103867136
0.16030036 0.064089835 -0.034637444 -0.028124679 0.3231111 -0.072161116 -0.17397851 -0.09163128
0.02825777 0.031277854 -0.17407873 0.07476709 -0.22317404 0.18528406 -0.23708935 0.065113746
00000000: 969d 6b3e 6e2b babd dc0c 4f3d e623 acbd
00000010: 5858 ac3d 34a5 4a3d c0a1 8bbd 023d e6bd
00000020: cd66 9a3d ead1 c33c 2a88 8a3d cf05 00bd
00000030: 761d 503e 0abe b93d 45d5 12bd 9c69 47bb
00000040: 6007 0a3e 579d 84bd d73b a23e 02e2 8a3e
00000050: 45fd 0cbd 44b2 cebd 8817 bfbb 27c6 143c
00000060: 334e 30be 45d5 a53d 315c e9bd 641f b83e
00000070: 05ba 9cbd 9183 1dbc 52ea a5be 1f9f f23d
00000080: af13 183e 989d 34be 4b4d 59bd 39ad f7ba
00000090: 3bf4 0c3e f884 88be 6929 a83d bc6c 92bd
000000a0: 56a1 d6bd 1603 46be 5d1b dfbd 86d2 d1bd
000000b0: 2c69 f1bd e1a7 7a3e 049a a1bd 0357 9dbd
000000c0: 3a21 6f3d 8774 5dbe 5b6d 923d d53c 27bb
000000d0: 7779 633d e74a 373d 1ec5 89bc ba85 1b3d
000000e0: f783 91bd f1f9 073d ff69 2e3d 8952 b53c
000000f0: 5186 a03d 8465 15be e385 d33d ac0f 013e
00000100: e3e3 83be 3f34 62bd b1f2 70bd 85b9 edbd
00000110: b998 a4be cb0c 0abd 1c60 3c3d 396f 7cbd
00000120: a938 2bbe 6473 a1be b4eb b23d 5f36 5abd
00000130: 1295 47be 7f71 1bbd 30f6 6f3c 1d1a 93bc
00000140: b2ea 12be 6b2c ce3d 266a 80be 04fd 26be
00000150: 76d2 47bd 3085 ab3e 7838 81bd 9637 d03c
00000160: aead 193e e00f a53d 3730 17be f868 87be
00000170: b17c c33d d673 97be 83fa 12bb 0e06 90be
00000180: b159 c13d 16e7 273e 6da1 0e3d 2789 88bd
00000190: 7ca9 8f3d 2312 aaba 9b09 c93d a024 ecbd
000001a0: 5e82 703d f52c abbd 6d57 513d c5bf d2bb
000001b0: b50d 88be cc97 d7bd cf2a 773d 7a7d 1ebd
000001c0: cbbd 013e 00a3 84bc 04d3 623d 7bb7 b53c
000001d0: 8883 f8bd ed1e 193c 9def 6a3d 271c dcbd
000001e0: b597 393e 92b9 c43d 8556 d6bd 9b6e 213c
000001f0: cb0f 503d e397 8f3c 4d75 873d 5850 cabd
00000200: 4a84 2b3e 07e1 babd 30ae eb3d fec1 e93b
00000210: ad42 783e 01ff f8bd 40f5 a63d 1340 a43d
00000220: af61 5abd 2447 933e 40a8 02be 10d5 8a3d
00000230: 8bba aabe 4f9b c73d 9a1c 7a3d 3ec9 813d
00000240: 53c7 3a3e aa16 c4bc 97c0 3c3e 6a35 c93e
00000250: a5ff 523d 901e 1dbe 7763 d63d 0fe8 e8bc
00000260: 002a 0f3e d9a0 b9bd 0515 cb3c 93b4 2abd
00000270: c233 cdbd 7e7d ad3e 8ab8 883e 6ad3 643e
00000280: 29d2 86be dc2d 9cbd eec2 893d 3c00 1dbc
00000290: 2245 5b3e 849c 223e bbfb 003d 1fef a43d
000002a0: f759 223e f291 88bd eb89 27be 9868 08bd
000002b0: 828c b23e 2f86 743d fb82 c5bd 2ae8 c83d
000002c0: b878 33be bf14 6c3e b789 593e 5fd9 97bd
000002d0: 57a3 69be fe13 edbb 4482 dd3d e835 03be
000002e0: 8cf2 c7be b070 85bc d29f 103e 7c57 d7bd
000002f0: fcdf 213e 6ebe 88bd 8b9d 813e 96ed 99bc
00000300: 33e6 80bd d206 8a3d 8fff 263e 51ac e7bc
00000310: 851d 773d edc8 09be b8ba 29be 7741 203e
00000320: 5d23 133e fed5 bc3c d07b 1ebe 57d7 98bc
00000330: b5e7 ce3c 1278 31be a7c4 67bd ea5c 63be
00000340: 5cb9 343d eff4 1dbe 5b7d 78be b001 b6be
00000350: 0584 163e 2390 f7be 7c38 e83d ddf3 2e3d
00000360: 58f5 24be 8ec4 323d 6948 d1bc 6e81 693e
00000370: a022 773e 96f5 adbd ed80 e7bd a734 fbbe
00000380: 0900 213e f34c 6b3d b7a6 b63c 32f8 02be
00000390: 4a3b 52be f503 203e 6757 82bb 0766 133e
000003a0: d811 07be 71e3 dd3d 0bee 5b3d fef8 893d
000003b0: 72da 0abe 46bb d3bd acde a13c 4bb8 d43d
000003c0: c725 243e 8841 833d fedf 0dbd ba65 e6bc
000003d0: d16e a53e 35c9 93bd 6c27 32be 2ea9 bbbd
000003e0: d77c e73c 351d 003d b241 32be 7d1f 993d
000003f0: bc87 64be 1bbb 3d3e 8dc7 72be 5b5a 853d

advantage_fc.bias f4 [4]
-0.0686316 -0.015205493 -0.020034356 0.004252896
00000000: b98e 8cbd 7620 79bc 171f a4bc e15b 8b3b
