model.pt (torch, 24351 bytes, 5 tensors)

hidden_fc.weight f4 [128, 37]
0	0x3e010f33	0.12603454
1	0xbe144ee8	-0.14483225
2	0x3e0813a9	0.1328875
3	0xbe2113f2	-0.15730265
4	0xbe628049	-0.2211925
5	0xbeb97835	-0.36224523
6	0xbe7077c8	-0.23483193
7	0xbe1e8e99	-0.15484084
8	0xbba403b7	-0.0050053257
9	0x3da5a7f1	0.08088673
10	0x3e95316c	0.29139268
11	0xbeb644f9	-0.35599497
12	0xbecadd16	-0.396218
13	0xbeb90930	-0.36139822
14	0xbf76797f	-0.9627914
15	0x3bcc2166	0.0062295673
16	0xbe972576	-0.29520768
17	0x3defd583	0.11710646
18	0x3e4f08ee	0.2021825
19	0xbe60d81b	-0.21957438
20	0xbef33a83	-0.47505578
21	0x3e02de63	0.12780146
22	0xbb586419	-0.0033018647
23	0x3b60db08	0.003431024
24	0xbe0b0aff	-0.13578413
25	0xbe5f8d8b	-0.21831338
26	0xb9a6d264	-0.0003181874
27	0x3bb9fda6	0.005675989
28	0x3e1582c3	0.14600663
29	0xbd9fdf6a	-0.07806285
30	0xbf0c5b94	-0.5482724
31	0x3dbfd366	0.09366493
32	0xbe1eac35	-0.1549538
33	0x3c91d629	0.017802315
34	0xbbc4f236	-0.006010319
35	0xbccb46cc	-0.024814032
36	0x3cc38b81	0.023870232
37	0x3ca1f08e	0.019768026
38	0xbebf1e06	-0.37327594
39	0xbea62e9b	-0.32457432
40	0x3e3273ca	0.17426983
41	0xbee8885e	-0.4541654
42	0xbf0ccf91	-0.5500422
43	0xbcee90c4	-0.029121764
44	0xbda99f90	-0.08282387
45	0xbec00502	-0.3750382
46	0xbe82bb7f	-0.25533673
47	0x3e2770df	0.1635165
48	0xbed8fd37	-0.42380688
49	0xbee1dc25	-0.4411327
50	0x3cef6290	0.029221803
51	0xbdec9a9a	-0.115529254
52	0xbe9d2404	-0.3069154
53	0x3e2846b3	0.1643322
54	0xbdc9087a	-0.0981607
55	0xbcee1997	-0.029064937
56	0x3e8199bc	0.25312603
57	0xbe50c411	-0.20387293
58	0x3e483bc2	0.19554046
59	0xbd48d90f	-0.04903513
60	0xbda4b86f	-0.080429904
61	0xbd147080	-0.0362401
62	0x3d902aad	0.0703939
63	0x3d40936e	0.0470156
64	0xbed6c2c5	-0.41945472
65	0xbe7548dd	-0.23953576
66	0x3e796c2a	0.24357668
67	0xbe0f19b6	-0.13974652
68	0xbdcd248f	-0.100167386
69	0xbebdccb4	-0.3707024
70	0xbd7bc69e	-0.061468713
71	0x3d2958e1	0.041344527
72	0xbdba7f88	-0.09106356
73	0xbcdec66a	-0.02719422
74	0x3e095eeb	0.13415115
75	0xbe822078	-0.25415397
76	0xbeebb0a0	-0.46033192
77	0xbd875d0b	-0.066095434
78	0xbe757bf8	-0.23973072
79	0xba5a1985	-0.0008319843
80	0xbecfc131	-0.4057708
81	0xbed6d953	-0.4196268
82	0x3cf94317	0.030427499
83	0xbe813018	-0.25232005
84	0xbd0e941f	-0.034809228
85	0xbcd2f97f	-0.025753735
86	0xbf091e3a	-0.5356175
87	0xbebc0064	-0.36719048
88	0x3d79946c	0.06093256
89	0xbefc7e05	-0.49314895
90	0x3dc86f01	0.09786797
91	0x3e61e578	0.22060192
92	0xbecb7460	-0.39737225
93	0xbc79f115	-0.015255232
94	0x3e585638	0.2112664
95	0xbe8dbf04	-0.27684796
96	0xbe85ee78	-0.261585
97	0xbee1d7e5	-0.44110027
98	0xbe23ba4e	-0.15989038
99	0xbec8b60b	-0.39201388
100	0xbd92456c	-0.071421474
101	0xbebc0ee0	-0.367301
102	0x3e3fe290	0.1873877
103	0xbe175428	-0.14778197
104	0xbed61d70	-0.41819334
105	0xbd69cd87	-0.05708077
106	0xbed16fdb	-0.4090565
107	0x3e3a8058	0.18213022
108	0xbd01e1e6	-0.031709574
109	0xbd1e45fe	-0.03864097
110	0xbd1b11bc	-0.03785871
111	0xbc0d5877	-0.008627049
112	0x3df46886	0.11933999
113	0x3d541c22	0.051784642
114	0x3d6df57c	0.05809544
115	0x3b72f71d	0.003707356
116	0x3cde2f0d	0.027122045
117	0x3d186c17	0.037212458
118	0xbdc8ffa3	-0.09814384
119	0x3db9aea3	0.090665124
120	0x3e780d27	0.24223767
121	0xbe1e9d7c	-0.15489763
122	0xbcf68e8f	-0.030097274
123	0xbd5c9606	-0.05385401
124	0xbbb2a137	-0.005451347
125	0x3d1b7099	0.03794918
126	0xbd84661c	-0.06464788
127	0x3d756999	0.05991516
128	0x3db4f431	0.08835638
129	0x3e7da4ab	0.24769847
130	0x3e48c8bf	0.19607829
131	0xbe212c13	-0.15739469
132	0xbd62c876	-0.055366956
133	0xbd481623	-0.048849236
134	0xbdad33bf	-0.084571354
135	0x3d9b7066	0.07589798
136	0x3e960544	0.29300892
137	0xbe9a1ce1	-0.30100158
138	0xbedc8f29	-0.43077973
139	0xbf0232e1	-0.50858885
140	0xbffc119b	-1.9692873
141	0xbebeac53	-0.37240848
142	0x3dcd3c35	0.10021249
143	0x3d969533	0.07352676
144	0x3df5d212	0.12002958
145	0xbde50bec	-0.111839145
146	0x3cb1abb7	0.021688325
147	0xba821247	-0.000992366
148	0x3de0fd21	0.109857805
149	0x3c477965	0.012174939
150	0xbdd4365a	-0.10361929
151	0xbecb4669	-0.39702156
152	0xbe90ff4f	-0.28319785
153	0xbe2e7317	-0.17036091
154	0x3ddec947	0.10878234
155	0xbeb24ca9	-0.34824112
156	0x3e2cc761	0.16872932
157	0xbbb3b671	-0.005484395
158	0x3ea24708	0.31694818
159	0xbd6917d1	-0.05690748
160	0xbe135aa3	-0.14390044
161	0xbdf52fc8	-0.11972004
162	0xbf919c53	-1.1375831
163	0x3d8d5daa	0.069026306
164	0x3d41be25	0.047300477
165	0xbd16bb2d	-0.0367996
166	0xbe25c9d0	-0.16190267
167	0xbe483a29	-0.19553436
168	0xbf29328b	-0.6609275
169	0x3d0d0267	0.03442612
170	0x3e8152b3	0.25258407
171	0xbc1247d6	-0.00892826
172	0xbdbc6771	-0.091994174
173	0xbdfd9733	-0.123823546
174	0xbe4c6cf7	-0.19963442
175	0xbe16b305	-0.14716728
176	0xbd859020	-0.0652163
177	0x3d5a1544	0.053242937
178	0xbccf08c7	-0.02527274
179	0x3dbc3854	0.09190431
180	0x3c3cec86	0.011531001
181	0xbe290e12	-0.16509274
182	0xbec65ee4	-0.3874427
183	0xbd04096c	-0.032235548
184	0x3d03b776	0.032157384
185	0xbd01fd76	-0.03173586
186	0xbbaae9ae	-0.005215845
187	0xbe971306	-0.295067
188	0xbd871a59	-0.06596822
189	0xbe6c0bac	-0.23051327
190	0xbf0bb814	-0.54577756
191	0xbe7233f4	-0.23652631
192	0xbd462214	-0.048372343
193	0xbdf71cec	-0.12066063
194	0x3e122d89	0.14275183
195	0xbdc8faa5	-0.09813432
196	0xbdc2d7ed	-0.09513841
197	0xbda16565	-0.078806676
198	0xbe27557a	-0.163412
199	0xbcd3ec59	-0.025869535
200	0xbda244fc	-0.07923314
201	0xbe06bd9a	-0.13158265
202	0xbe1ba0a5	-0.15198
203	0xbda412af	-0.08011376
204	0x3c7ef42b	0.015561144
205	0xbe31d720	-0.1736722
206	0x3c8ac8b0	0.016941398
207	0xbe35d8b6	-0.1775845
208	0xbe980752	-0.29693085
209	0xbe10f3f7	-0.14155565
210	0xbf251861	-0.64490324
211	0xbda701c2	-0.08154632
212	0xbddd3e98	-0.108029544
213	0xbd4e335e	-0.050341956
214	0xbd8ca16d	-0.06866727
215	0xbe9a6f6e	-0.3016314
216	0xbd31fb41	-0.043452505
217	0xbde04624	-0.10950878
218	0xbdea32ce	-0.114354715
219	0xbe2a8e8a	-0.16655937
220	0xb8fdd6ec	-0.000121040124
221	0x3de93fad	0.11389098
222	0xbe6ef068	-0.23333895
223	0x3d5b6d9c	0.05357133
224	0x3e10303f	0.14080904
225	0xbdd54928	-0.10414344
226	0xbef0113c	-0.4688815
227	0xbe6bb5ff	-0.23018645
228	0xbc23b2f8	-0.0099914
229	0x3d2abe9d	0.04168569
230	0x3dc62b9c	0.096762866
231	0xbe4bb39a	-0.19892731
232	0x3b4b4cb0	0.003102105
233	0xbe609428	-0.21931517
234	0xbd965d83	-0.07342055
235	0x3da4b90d	0.08043108
236	0x3dc1ead7	0.0946862
237	0x3dcafa39	0.099110074
238	0xbeebe8eb	-0.4607614
239	0xbe988fc9	-0.297972
240	0xbd15540c	-0.036457106
241	0xbf4c046b	-0.7969424
242	0x3d106253	0.03525002
243	0xbd9bbebf	-0.07604741
244	0xbd9618f4	-0.07328978
245	0xbe18c653	-0.14919405
246	0x3e32b6e1	0.17452575
247	0x3ca813dc	0.020517282
248	0x3ce106c6	0.02746905
249	0xbed21c9c	-0.41037452
250	0xbe46b2af	-0.194041
251	0x3e7e9777	0.24862467
252	0xbcd653ba	-0.02616297
253	0x3d80a4e7	0.062814526
254	0xbe22b7d7	-0.15890442
255	0xbe7e3d88	-0.2482816

hidden_fc.bias f4 [128]
0	0xbd33b71e	-0.043875806
1	0xbe865b77	-0.26241657
2	0xbe9ac1ae	-0.3022589
3	0xbd118c8a	-0.03553442
4	0xbcf81aa7	-0.030286146
5	0xbe906ceb	-0.28208098
6	0xbebc1a4d	-0.36738816
7	0xbdcdf3cb	-0.100562654
8	0xbeb3998a	-0.35078079
9	0xbe6b0c47	-0.22953902
10	0xbe5f2f56	-0.21795401
11	0xbe405f8e	-0.18786451
12	0xbe8df4e5	-0.27725902
13	0xbe416e1b	-0.18889658
14	0xbe01644d	-0.12635918
15	0x3ecf1631	0.40446618
16	0xbe825856	-0.2545802
17	0x3c9ec6a7	0.019381834
18	0x3d000dc2	0.03126312
19	0x3c7b4de7	0.015338398
20	0xbd1035af	-0.035207447
21	0xbd4a2ad1	-0.04935724
22	0xbe66aa30	-0.22525859
23	0xbe0aaeb4	-0.13543206
24	0xbddcf8c2	-0.10789634
25	0xbe18475e	-0.14870974
26	0xbe55077b	-0.20803635
27	0xbcf167a6	-0.029468369
28	0xbe054c08	-0.13017285
29	0xbe9ac569	-0.30228737
30	0xbd8a4906	-0.06752209
31	0xbe0b57e4	-0.13607746
32	0x3ea270ae	0.31726593
33	0xbe38a11e	-0.18030211
34	0xbe812c0b	-0.25228915
35	0xbbecf29f	-0.007231071
36	0xbce87b41	-0.028379085
37	0xbe59cbf0	-0.21269202
38	0xbeafadfe	-0.34312433
39	0xbe34f827	-0.17672788
40	0xbe86cb74	-0.26327097
41	0xbd5b2e1f	-0.05351078
42	0x3ee60d38	0.4493196
43	0xbe88a1a2	-0.26685816
44	0xbe78842a	-0.24269167
45	0xbde9a70f	-0.11408817
46	0xbdad29df	-0.08455252
47	0xbe85175e	-0.2599439
48	0x3e80b76e	0.25139946
49	0xbe6a82b2	-0.22901419
50	0xbec07145	-0.37586418
51	0x3f0f5b55	0.55998737
52	0x3d21e7da	0.03952775
53	0x3db124be	0.08649586
54	0xbe9d58fb	-0.3073195
55	0x3eec8e36	0.46202248
56	0xbbfae289	-0.0076563996
57	0x3ec7e127	0.39038965
58	0x3ec91162	0.39271075
59	0x3e0c3eb9	0.13695802
60	0xbe221b4a	-0.15830722
61	0x3eb84c2d	0.35995618
62	0xbda072bf	-0.07834386
63	0xbdf4063d	-0.11915252
64	0xbe9bd3e6	-0.30435103
65	0xbcfdbb1c	-0.03097301
66	0xbb773d15	-0.0037725617
67	0xbe3c1de6	-0.1837078
68	0xbd9b29e8	-0.07576352
69	0xbe761d97	-0.24034725
70	0xbd8fac11	-0.07015241
71	0xbe4ed56d	-0.20198603
72	0xbe084fc9	-0.13311686
73	0xbd16d13c	-0.036820635
74	0x3cc0cbe6	0.023534726
75	0x3e132ed6	0.14373335
76	0xbe1b9e6e	-0.15197155
77	0xbe9ae3be	-0.30251878
78	0xbeb93e30	-0.36180258
79	0xbd22af3a	-0.03971789
80	0xbe4ac5ba	-0.19801989
81	0x3bfb88be	0.007676213
82	0xbe17fb46	-0.14841947
83	0xbdd5429f	-0.104130976
84	0xbe96f752	-0.29485565
85	0x3d84eb94	0.064902455
86	0xbd94274b	-0.07234057
87	0xbddfdfd0	-0.10931361
88	0x3e04df5a	0.12975827
89	0x3d45fec6	0.048338674
90	0xbe7f70d7	-0.24945389
91	0xbdd0e8fe	-0.1020069
92	0xbdc75fa1	-0.09735037
93	0xbed4ce1d	-0.41563502
94	0xbe485710	-0.19564462
95	0x3d6b91d4	0.05751212
96	0xbdc92add	-0.09822629
97	0x3e3d4d47	0.1848651
98	0xbec1d08f	-0.3785443
99	0xbe514ae6	-0.20438728
100	0x3d666668	0.056250006
101	0xbe2c4e66	-0.16826782
102	0x3e480f6b	0.19537131
103	0x3bd61886	0.006533685
104	0xbe441767	-0.19149552
105	0x3cb76be5	0.022390315
106	0xbde5289c	-0.11189386
107	0xbe3ddb43	-0.18540673
108	0xbcc60a9d	-0.024174983
109	0xbd0a4282	-0.033754833
110	0xbe46a9e0	-0.1940074
111	0xbd01ebb3	-0.03171892
112	0xbe60094a	-0.21878543
113	0xbe7245b5	-0.23659404
114	0xbe2fd3e4	-0.17170674
115	0xbe96492b	-0.29352698
116	0xbdaedf08	-0.085386336
117	0xbe569e2a	-0.20958772
118	0xbe7bc8b6	-0.24588284
119	0xbcba9596	-0.022776406
120	0xbe96c9a6	-0.2945072
121	0xbded74a1	-0.11594511
122	0x3c961da2	0.018324677
123	0xbe3f294d	-0.18668099
124	0xbe47cdf5	-0.1951216
125	0x3ec813f8	0.39077735
126	0xbe9279ac	-0.28608453
127	0xbe5816c8	-0.2110244

value_fc.weight f4 [1, 128]
0	0x3e681c66	0.22667083
1	0xbe1fedb6	-0.15618023
2	0x3c7d83a1	0.015473277
3	0x3e8c44a2	0.27396113
4	0x3da9d4f6	0.08292572
5	0x3e042ffe	0.12908933
6	0x3dbef780	0.09324551
7	0x3ec67af6	0.38765687
8	0xbee58aae	-0.44832367
9	0x3d491426	0.04909148
10	0x3db6ad73	0.089198016
11	0xbde35293	-0.11099734
12	0x3c23745c	0.009976473
13	0x3d969afd	0.073537804
14	0x3c8d3610	0.017237693
15	0x3e8e3cd3	0.2778078
16	0x3df40a7f	0.119160645
17	0xbd7c6bbf	-0.061626192
18	0x3e47fc15	0.19529755
19	0x3e9236f2	0.28557545
20	0x3d6ac827	0.057319786
21	0x3db76df9	0.089565225
22	0xbc98eae0	-0.018666685
23	0x3d5ce8c3	0.053932916
24	0x3d8b97dc	0.06816074
25	0x3e00fbd6	0.12596068
26	0x3e2ca974	0.16861516
27	0x3d021983	0.03176261
28	0xbcd9454f	-0.026522307
29	0xbde67304	-0.11252406
30	0xbd903b17	-0.070425205
31	0x3dacd92d	0.084398605
32	0x3e8e28c1	0.27765468
33	0xbdd2bcab	-0.10289892
34	0x3e218082	0.15771678
35	0x3dd2bd17	0.10289972
36	0xbe4d572e	-0.20052788
37	0x3ef45d2a	0.4772733
38	0x3e885e92	0.2663465
39	0x3cd4904e	0.025947716
40	0xbcb873b2	-0.022516105
41	0x3c2dab81	0.010599972
42	0x3e956a07	0.29182455
43	0x3d554b75	0.052073915
44	0xbd69dfeb	-0.05709831
45	0xbde9b79c	-0.11411974
46	0x3df367b9	0.11885018
47	0x3e221aba	0.15830508
48	0x3df97f70	0.1218251
49	0xbec6a335	-0.38796392
50	0x3d7747e0	0.06037128
51	0x3eaf1a24	0.3419963
52	0xbe85f4a1	-0.261632
53	0x3dbce952	0.0922419
54	0x3d992380	0.07477474
55	0x3e976c9c	0.2957505
56	0x3ebd4430	0.36966085
57	0x3e8fd258	0.28090167
58	0x3ea6b6fa	0.32561475
59	0x3e6c3e76	0.23070702
60	0xbbf2074a	-0.007386123
61	0x3e6a8ef8	0.22906101
62	0xbdb29fc7	-0.08721881
63	0xbd2e22d5	-0.042513687
64	0x3e87f90d	0.26557198
65	0x3ddd08a0	0.10792661
66	0x3cdb9693	0.026805198
67	0xbd301491	-0.042988364
68	0x3d022d86	0.031781696
69	0xbe43ada0	-0.19109201
70	0x3e2581d1	0.16162802
71	0x3d8cd473	0.06876459
72	0xbc9073c4	-0.017633326
73	0xbdb95a11	-0.09050382
74	0x3dd6935e	0.10477327
75	0x3ef468b5	0.47736135
76	0xbd9624db	-0.073312484
77	0x3dbe478a	0.09290989
78	0x3de2b513	0.110696934
79	0x3b85302c	0.0040645804
80	0xbde11cd8	-0.1099183
81	0x3e947329	0.2899411
82	0x3d83e57c	0.06440255
83	0xbb9c5180	-0.0047704577
84	0x3da8fd5a	0.08251448
85	0xbddbfaf1	-0.10741223
86	0x3d1b3eac	0.037901565
87	0x3d258ca3	0.040417325
88	0x3dd68940	0.10475397
89	0x3ed91113	0.4239584
90	0x3df218b0	0.11821115
91	0x3e9370fb	0.28797135
92	0x3ebe5a02	0.37178046
93	0x3daa6380	0.08319759
94	0x3e0881e7	0.13330804
95	0x3ec8eb69	0.39242104
96	0x3e0e8f2f	0.13921808
97	0x3e1ed075	0.15509208
98	0xbd9f078c	-0.07765111
99	0xbd888cb8	-0.06667465
100	0xbe4278d3	-0.18991403
101	0x3b5bfae1	0.0033566284
102	0x3e347413	0.17622404
103	0xbe2ca201	-0.16858675
104	0x3e135c55	0.1439069
105	0x3e8e57e3	0.27801427
106	0x3edacf64	0.4273635
107	0x3efc4ac0	0.4927578
108	0x3eab647b	0.33475098
109	0x3e765d09	0.24058928
110	0xbd83278c	-0.06404027
111	0xbce5ec7a	-0.028066862
112	0xbd19b1fa	-0.037523247
113	0x3b72d99d	0.0037055977
114	0xbca91f24	-0.020644732
115	0xbebf1b0e	-0.3732533
116	0xbdfd0b6a	-0.12355693
117	0x3d3db117	0.046311464
118	0x3cf9fae9	0.030515151
119	0x3dcda7dc	0.10041782
120	0x3cfd8f94	0.030952252
121	0x3d310d17	0.043225374
122	0x3efb47ab	0.49078116
123	0x3cea7b63	0.028623288
124	0xbeb6085e	-0.3555326
125	0x3e7231de	0.23651835
126	0x3dbb6021	0.091491945
127	0xbd2214b3	-0.03957052

advantage_fc.weight f4 [4, 128]
0	0x3e2de018	0.16980016
1	0xbe20f1e3	-0.15717272
2	0xbed318fb	-0.41229996
3	0x3da99bf3	0.08281698
4	0xbd487827	-0.04894271
5	0xbe07255d	-0.13197847
6	0x3d408087	0.046997573
7	0x3e5a27f9	0.21304311
8	0xbe3b413d	-0.18286605
9	0xbdcd942c	-0.10038027
10	0x3ddf6072	0.10907067
11	0xbde35172	-0.11099519
12	0xbd2374e3	-0.039906394
13	0x3db5a4df	0.08869337
14	0x3c73f67f	0.014890312
15	0x3d80a157	0.06280773
16	0x3d48b86e	0.04900401
17	0x3d09aa79	0.03360984
18	0x3d38847b	0.04504822
19	0x3e9128aa	0.28351337
20	0xb8a9c7b7	-8.095748e-05
21	0x3c0c870b	0.008577119
22	0x3c57d75a	0.013173902
23	0x3d03e650	0.032202065
24	0x3d7620fd	0.060090054
25	0x3d9cea01	0.0766182
26	0xbdfd5479	-0.123696275
27	0x3ae8c684	0.0017759358
28	0x3d818230	0.063236594
29	0x3ebb4d40	0.36582375
30	0x3da4fbf4	0.08055869
31	0x3db81355	0.08988062
32	0x3dee95e5	0.11649684
33	0x3de8ca53	0.11366715
34	0x3d629d6a	0.055325903
35	0x3d3d87b7	0.046272006
36	0x39ebf061	0.0004500179
37	0xbc6f5a8a	-0.014608989
38	0xbdb9d44d	-0.09073696
39	0x3d783b04	0.060603157
40	0xbd78a430	-0.060703456
41	0xbd413a3b	-0.047174674
42	0x3de17f3a	0.11010595
43	0x3e9b32b5	0.30312124
44	0xbd2c10c8	-0.04200819
45	0x3e69908c	0.22809047
46	0xbdebde97	-0.11517065
47	0xbcf1dd30	-0.029524416
48	0x3de691e0	0.11258292
49	0x3e2c9bec	0.16856354
50	0x3d9a5ef6	0.075376436
51	0x3de0c4e8	0.10975057
52	0x3cd7927a	0.026314963
53	0x3c1e3857	0.009656987
54	0x3cb7d7fd	0.022441858
55	0x3c697f12	0.014251487
56	0x3d5b852d	0.053593803
57	0x3dce5cd9	0.10076303
58	0x3db2a53f	0.087229244
59	0x3dbf3700	0.09336662
60	0x3de6bc0e	0.11266337
61	0x3e110ba5	0.14164598
62	0xbd32d769	-0.043662462
63	0xbcf61cdf	-0.030043064
64	0x3e7cab7f	0.24674796
65	0x3e0b0f33	0.13580017
66	0xb9286e0c	-0.00016062724
67	0x3c21d54b	0.009877513
68	0x3c9f142b	0.019418797
69	0xbeb48e01	-0.3526459
70	0x3c84f053	0.016227877
71	0x3d97269a	0.073804095
72	0x3cde44c6	0.027132403
73	0x3d4193f2	0.047260232
74	0x3db4b95b	0.08824416
75	0xbf073384	-0.5281298
76	0x3df43a94	0.119252354
77	0xbd2fba97	-0.042902555
78	0x3d9849f1	0.07435978
79	0xbcc8fd12	-0.024534736
80	0xbd80db12	-0.06291784
81	0x3db45c8b	0.08806714
82	0x3da1c395	0.078986324
83	0xbe07e7ba	-0.1327199
84	0xbae2936c	-0.0017286367
85	0x3d873e53	0.06603684
86	0x3ce265fa	0.027636517
87	0x396f5118	0.00022823026
88	0x3e1b7dee	0.15184757
89	0x3c93f36b	0.018060407
90	0x3d314488	0.043278247
91	0x3e7a1277	0.24421106
92	0x3dc77275	0.09738628
93	0x3cc4dbbc	0.024030559
94	0x3d501e81	0.05081034
95	0x3db730ce	0.08944856
96	0xbc75932e	-0.014988704
97	0x3d35834a	0.04431466
98	0xbdd83a4a	-0.10557993
99	0x3bda98e3	0.0066710575
100	0x3ea7ea36	0.32795876
101	0x3e8322e9	0.25612572
102	0x3da8b5b7	0.08237784
103	0x3cce6989	0.025196807
104	0x3e037778	0.12838542
105	0x3d8bbf56	0.06823604
106	0xbdb80edd	-0.0898721
107	0xbecd9864	-0.40155327
108	0xbe52e605	-0.20595558
109	0x3e1f337c	0.15546983
110	0xbd46f540	-0.048573732
111	0xbda9b5a9	-0.08286602
112	0x3e06ab59	0.13151301
113	0x3db04190	0.08606255
114	0x3e51ba38	0.20481193
115	0xbe6f976d	-0.23397608
116	0x3e0ff3f1	0.140579
117	0xbe6de09b	-0.23230211
118	0xbd259062	-0.040420897
119	0x3d9d2175	0.07672397
120	0xbc377d1e	-0.011199264
121	0x3db177d2	0.08665432
122	0xbec398c9	-0.38202503
123	0x3d0c96f9	0.034323666
124	0x3f459104	0.771744
125	0x3dde14d7	0.10843819
126	0x3df5d740	0.12003946
127	0x3d6c49ef	0.057687696
128	0x3d888f0a	0.066679075
129	0x3dcd8ce9	0.10036642
130	0x3b17d843	0.0023169674
131	0x3d74928d	0.059710074
132	0x3d35057e	0.04419469
133	0x3e86310f	0.26209304
134	0x3bf3985d	0.0074339346
135	0x3e209ec2	0.15685561
136	0x3e6a3cd2	0.22874764
137	0xbda96b9c	-0.08272478
138	0x3dc9ed0c	0.09859666
139	0xbe0ade0b	-0.13561265
140	0xbda7fdb7	-0.08202689
141	0xbbdb1160	-0.006685421
142	0x3e6c2eeb	0.23064773
143	0x3d412ce5	0.047161955
144	0xbe32847d	-0.17433353
145	0xbbc3d44b	-0.005976235
146	0x3d309b5a	0.043116905
147	0xbe016fa7	-0.12640248
148	0xbdecf5b1	-0.115702994
149	0x3d57e5c9	0.052709375
150	0x3dfae024	0.12249783
151	0x3c59a10e	0.013283027
152	0xbbb6c4a9	-0.005577643
153	0x3d06fe7f	0.03295755
154	0x3dc7ffa2	0.09765555
155	0x3d09235a	0.03348098
156	0x3ce1047c	0.027467959
157	0xbe0b2fe3	-0.13592486
158	0xbe3198aa	-0.17343393
159	0x3cbb7383	0.022882229
160	0x3daa92a1	0.083287485
161	0x3d03e5f1	0.03220171
162	0xbe0cc3af	-0.13746522
163	0x3d98f4c4	0.0746856
164	0xbe0210e0	-0.1270175
165	0xbe9e35dc	-0.30900466
166	0x3dc79ce6	0.09746723
167	0x3ca235ac	0.019800983
168	0x3db369be	0.08760403
169	0x3cb320c2	0.021866206
170	0x3dc89a92	0.09795107
171	0xbe7f7c3d	-0.24949737
172	0xbb0b39c5	-0.002124415
173	0xbe488f23	-0.19585852
174	0xbde0dc06	-0.10979466
175	0x3cb450b1	0.022011133
176	0x3dac29a8	0.08406383
177	0x3ce967a8	0.02849181
178	0x3d93c64d	0.07215557
179	0x3e01f539	0.12691201
180	0xbd473317	-0.048632707
181	0x3bab1ba8	0.0052218027
182	0xbc0970e5	-0.008388733
183	0x3d4bba04	0.049737945
184	0xbe4305a1	-0.19045116
185	0x3dbe6ac1	0.092977054
186	0x3dd4f813	0.10398879
187	0xbb976fd0	-0.0046214834
188	0x3cb7c975	0.02243493
189	0x3df8b93b	0.12144705
190	0xbd98380c	-0.07432565
191	0xbd14233b	-0.03616641
192	0xbe3ef168	-0.18646777
193	0xbd08f969	-0.03344098
194	0x3d74c615	0.05975922
195	0x3d552443	0.052036535
196	0x3d2b66ce	0.04184609
197	0x3ee250a6	0.44202155
198	0x3d3b86c9	0.045782838
199	0x3d716e42	0.05894304
200	0xbd03997f	-0.032128807
201	0x3d3bf4d1	0.045887772
202	0x3d95668a	0.072949484
203	0xbe1d3e11	-0.15355708
204	0x3c8be1a1	0.017075362
205	0xbb976b3e	-0.0046209386
206	0xbd804f93	-0.062651776
207	0x3c9163b2	0.017747734
208	0x3e851fdc	0.2600087
209	0xbcdf7c09	-0.027280824
210	0x3ab44984	0.001375482
211	0x3d0386c7	0.032110956
212	0xbe03ede8	-0.12883723
213	0x3e0eb40e	0.13935873
214	0x3dd6f56b	0.104960285
215	0x3d122e54	0.035688713
216	0x3cacd17b	0.021095982
217	0xbe029fd3	-0.1275628
218	0xbdce452a	-0.10071786
219	0x3d8fb60f	0.07017147
220	0x3d13cead	0.036085773
221	0x3e254ded	0.16143008
222	0x3db27f66	0.087157056
223	0x3e139926	0.1441389
224	0x3ca95476	0.020670157
225	0x3b0be968	0.0021348838
226	0x3e0e1a65	0.13877256
227	0x3cacf587	0.02111317
228	0x3db19465	0.08670882
229	0x3d060897	0.032723036
230	0x3d6b97a6	0.05751767
231	0x3caa9727	0.020824028
232	0x3bf9d04b	0.0076237074
233	0xbde429d3	-0.1114079
234	0xbe4dc116	-0.20093188
235	0xbe3a34e9	-0.18184246
236	0xbce7259c	-0.028216176
237	0x3d332394	0.0437351
238	0x3dc788e2	0.09742905
239	0xbdf45c76	-0.11931698
240	0x3cbd0976	0.0230758
241	0x3d2627a6	0.040565155
242	0xbd2169da	-0.03940759
243	0xbe203e16	-0.15648684
244	0x3e935441	0.28775218
245	0x3cc1cee3	0.023658222
246	0x3dae5f3a	0.08514257
247	0x3d897c70	0.06713188
248	0x3d259b5f	0.040431377
249	0x3de4ed50	0.11178076
250	0xbe965ce2	-0.2936774
251	0x3aab4a82	0.001306847
252	0xbecc3763	-0.39886007
253	0x3d90b7b0	0.070662856
254	0xbd506df4	-0.05088611
255	0x3ddf3dc2	0.10900451

advantage_fc.bias f4 [4]
0	0xbdd39d5f	-0.103327505
1	0x3e2fe9f2	0.17179087
2	0x3e037efd	0.12841411
3	0x3dad81aa	0.08471997
